Week7/checkpoint/checkpoint_epoch_8.pth (torch, 178450 bytes, 9 tensors)

conv1.weight f4 [6, 1, 5, 5]
00000000: c597 b63d be12 043d 400b 963d 82c1 02be
00000010: 826a 24be e039 553e ea2c 15bc b409 55be
00000020: 8139 32bd 8b00 463d 0050 12bd 00e5 1dbe
00000030: ebcf f03d 0bd5 17be 6be9 943a 521f 3ebe
00000040: 6aba 883d ff63 25be 2cb0 b63d 5e7a 103e
00000050: 6f4e 5e3d d9ce 153e 96b9 1cbe 3346 213e
00000060: e2ac 273e 0dc0 45bd dbfb cd3d 6d59 723d
00000070: 5f4d 57be 55d4 d13d 06c4 0ebd 6a6c 7e3d
00000080: 1fbf 14be e5e7 0f3e bf12 d53d d796 283b
00000090: cb9d c5bd 4d0e b7bd 87af f23c 42cf 48bd
000000a0: 3258 12be c162 60bc 1bdb 3c3e 1d2e 923d
000000b0: 0528 23be 082d 3a3e 5d78 033d b359 063e
000000c0: 8aa1 fdbc a89b acbd fb3f 4b3e df66 4a3d
000000d0: 9ffc 97bb 4730 90bd edbc 06be ecd4 a63d
000000e0: e0e7 9dbd 839a cfbd db41 e7bd 6e06 e8bd
000000f0: dc5f 4b3e ed0b dcbc 5e7e 25bc 9809 e9bd
00000100: ac1d ea3d bc86 56bd cfbe c33d 85b8 113e
00000110: 2dd3 d3bc 1bee 64bd 5fa3 d43d 5a4d 403e
00000120: e005 79bd 42ea 0d3e 7da4 a7bd b9f6 22bd
00000130: b5d3 53bd 49c4 563d 598f bf3d ad52 24be
00000140: 8a70 3abe 28af d43d 708f bebb 829d 1dbe
00000150: 8a01 18be 96e0 22be 4a4f 073e a19e 17be
00000160: ab41 f43d c2f2 a3bd 8c83 3ebd 6dd5 5a3e
00000170: 72b2 8fbb a63b 2a3e 6d87 03be c073 f9bd
00000180: cbc5 593e 733d 0b3d 6135 5abd 77bd 1e3e
00000190: b446 513e e933 103e 82d3 0cbe 11ce bd3d
000001a0: f267 26be 6b83 343e 0d60 9fbd 814f 0ebe
000001b0: 5157 1b3e d90b 183e 8572 cabd 24a9 253e
000001c0: a8ad 31be 319f f7bd b9af 5dbb 1436 263e
000001d0: 7061 313e 1673 8abd 9309 353e 885e 5c3d
000001e0: 54fe 863d 1959 093e 597b 533d baf8 443e
000001f0: 9257 47be 6844 f9bc 52f9 13be ed0c a3bd
00000200: 6083 a7bb 074f 3abe 1015 bfbd 003b e03c
00000210: 6396 fdbd c35b 4a3e 7759 b7bd ea43 09be
00000220: ba74 983d 5a1b efbd 996b 0d3e 26b9 27be
00000230: 4006 a3bc d0c7 42be e3f8 25be 0811 19bd
00000240: 4883 3f3d 9812 46bd bd6e efbd 8213 a53d
00000250: cc83 333d a32a b9bd
0.089156665 0.032244436 0.073263645 -0.1276913 -0.16056255 0.20822859 -0.009104947 -0.20804483
-0.04351187 0.04834036 -0.035720825 -0.15419388 0.11758407 -0.14827363 0.0011361068 -0.18566635
0.06676181 -0.16151427 0.08920321 0.1410918 0.05427402 0.14629687 -0.1530517 0.15749435
0.16374543 -0.048278857 0.10057803 0.059167314 -0.21025608 0.10245577 -0.03485491 0.06211511
-0.14526032 0.14053304 0.10403966 0.0025724673 -0.09649237 -0.089382745 0.029624714 -0.04902578
-0.14291456 -0.01369542 0.18442957 0.07137702 -0.15933235 0.1818124 0.03209721 0.13120155
-0.030960817 -0.084281266 0.19848625 0.04941451 -0.004638269 -0.07040458 -0.13158007 0.081460804
-0.07710242 -0.10136893 -0.11291858 -0.11329351 0.19860786 -0.026861155 -0.010100929 -0.11378783
0.11431441 -0.052374586 0.09557878 0.14230545 -0.025857532 -0.055891138 0.10382723 0.18779507
-0.06079662 0.13858894 -0.081856705 -0.039786074 -0.05171557 0.052433286 0.09353513 -0.16047163
-0.18206993 0.10384971 -0.005815439 -0.15392116 -0.14844337 -0.15905985 0.1321384 -0.14806606
0.11926588 -0.08005287 -0.04651217 0.21370478 -0.004385286 0.16624317 -0.1284463 -0.12180281
0.21266858 0.03399415 -0.053273562 0.15501963 0.20437127 0.14082302 -0.13752559 0.0926782
-0.1625059 0.17628257 -0.07781992 -0.13897516 0.15170027 0.1484827 -0.09885124 0.16177803
-0.17351401 -0.1209091 -0.0033826663 0.16231567 0.17322326 -0.06760232 0.17679434 0.05380109
0.06591478 0.13412894 0.051631305 0.19235507 -0.19466999 -0.030428126 -0.14450577 -0.0796145
-0.0051120967 -0.18194209 -0.09330189 0.027371883 -0.123821996 0.19761567 -0.08952611 -0.13404813
0.07444139 -0.11675139 0.13810576 -0.16379222 -0.019900441 -0.19021535 -0.16208224 -0.037369758
0.04675606 -0.048357576 -0.116910435 0.080603614 0.043826863 -0.090413354

conv1.bias f4 [6]
00000000: 5679 83bc d425 97bd 0bc2 00be 9b29 443e
00000010: dd93 db3c 7ec8 25be
-0.016049068 -0.07380262 -0.12574022 0.19156496 0.026803905 -0.16189763

conv2.weight f4 [16, 6, 5, 5]
00000000: 8672 b73d fb43 85b9 aec9 023e d6d9 913c
00000010: ae78 d7bc f5ac df3d 321c 903d b3df 3cbd
00000020: 852a 4dbd 0e6b 30bd 8e76 873d a8b8 6bbc
00000030: 1ec4 94bd 4073 c6bc 601b 68bd 0af3 a7bc
00000040: 74b9 6f3d 44cd a8bb abb0 e23a 889d c1bc
00000050: c2f6 373d 4834 123d caba 2dbd e73e d3bb
00000060: 578e c43b 7f9a 2ebd df9f c63c 0b58 ca3d
00000070: feda 463c 8def 99bd b0ad 233d 9206 7a3d
00000080: d269 373c 3802 46bc 037f 4a3d 22aa bd3a
00000090: 4f7b a43d f621 74bd 73b4 8d3d 3fcf 92bc
000000a0: 1699 87bb 6b35 943c 35f3 cfbc 0111 333d
000000b0: 705d 653d 0520 02bd cd8d fbba fa5f 59bd
000000c0: 5452 75bd 867a a33d 7e39 973d 3a63 d23d
000000d0: 49c1 8f3d a69b dabc 7974 d73c 655d c83c
000000e0: c022 1ebd c490 8a3d aea0 24bd 3656 9abc
000000f0: a0c5 1fbd 35a0 1f3c b508 f73c 8066 8d3c
00000100: 8a8f 623d ee3b 80bd 1f1b 2ebd e980 bb3d
00000110: 7229 5d3d 8fb0 a73c f90c a53d 0e2e 93bd
00000120: 7d69 843d 80fb 623c 6b3a 81bd 8e8b aa3d
00000130: 3e36 f03d d465 fd3d fa66 ff3d 8381 2fbd
00000140: e7f1 973d 4395 4ebd 0b16 8d3d c8e9 4e3c
00000150: d9a5 0d3d 9819 d73d d88f bcbb 2dfe a4bc
00000160: 140c 9a3c 517b 84bd e57f 18bd be68 c43c
00000170: 12f5 293c 9025 093d f6b3 a83b 7696 84bc
00000180: 3e2f 18bc 55a4 7dbd a417 95bd 4091 bd3d
00000190: 1722 10bc ed36 e33c 2f2e 0c3d af87 e33c
000001a0: 375a ed3c c063 a33c 221a ad3c 50fe 94bd
000001b0: cb86 e03c e00b 93bd 7a8e 73bd c0dc f03c
000001c0: a25f 21bd 93e0 5f3d a12d 18bd 02e3 4bbd
000001d0: 7bbe 61bd 8d10 62bd 6c6d 8f3d feb6 d13c
000001e0: bc8c 8abd 7f53 9f3d 99c6 5abd 4bd3 083b
000001f0: f8e3 653d 6808 89bd 8ed9 28bd bf93 43bd
00000200: 0898 65bc bc4e 9e3c f88d f8bc c840 85bd
00000210: a069 60bb ada9 88bd f81c 073c e990 70bd
00000220: 30a2 29bd 0ecb fcbc e0c1 8a3b 20ff 573b
00000230: 6c51 87bc b674 96bd 904e 62bc 30ae 11bd
00000240: fc92 943c 0eb8 6ebd c0e5 f13a d32e 65bd
00000250: 0867 1e3c 6021 1dbb ef18 c9bc ead2 0d3d
00000260: 9009 a4bc c7d9 963d 6136 103d ea97 a13d
00000270: 29ef b73d bd5f 873d 9511 413d 9f40 79bd
00000280: 5532 b03d 888a b63c 2337 a23d 0be1 333d
00000290: 9181 adbc d8d8 91bc 10d0 e63d 7946 563c
000002a0: 6a6a b5bb 3a83 33bd def4 ad3d ac83 be3d
000002b0: fcac 19bd ec9e 31bd b53b 943d 34b7 603c
000002c0: 6c76 84bd 878c 433d 734a 29bd e85e 4f3d
000002d0: 1ceb 3d3c 91af 09bc 18b2 353d 4ad6 7cbd
000002e0: 834b 5d3c 12ac bfbc a60d bd3c b74e 83bc
000002f0: 6e7f 893c 545c 3d3b f592 4ebd 05da c43c
00000300: 92b4 51bd 4f55 f4bb bb65 b9ba 07c3 07bc
00000310: d7d5 353d e3b4 fabc e431 13bd 7048 ac3c
00000320: 3904 923d 0328 8b3d f742 19bc f04a 343d
00000330: 2efc 9cbd e327 12bc d214 90bd 92e6 7d3d
00000340: 42bd 123c 975d 873c 817f 49bd 05cb 8abd
00000350: 10c3 05bd c52c 053d 3c4e 643d 24f7 98bd
00000360: c9be cd3c 7607 a3bd 6493 72bd 4450 4abd
00000370: c151 febb 000e 9d3d 245a cbbd 189f 93ba
00000380: a663 bc3c 0f73 523d b6c0 bcbc 1822 b43d
00000390: eedb 4abc dd06 0fbb 294e e83d 596c 43bc
000003a0: 8317 453c 6fed 1f3d bb16 183d f5c1 bf3d
000003b0: 6eb6 983c 4f66 8ebc 20db fabc ac5b 16bd
000003c0: 75f1 8dbc e529 aa3c 3259 163d 304c 4abc
000003d0: 883c 4bbc 6a4d e73d 8148 a43d abf8 c03d
000003e0: ed57 203d c0b1 853d dd1f 693b 078c fabb
000003f0: 0d2c 98bd bf69 da3c 7dae eebc 7702 083d
0.089573905 -0.00025418386 0.12772247 0.017804068 -0.026302662 0.10921661 0.07036628 -0.046111774
-0.050089378 -0.043070845 0.066144094 -0.014387287 -0.07263969 -0.024224877 -0.05666673 -0.020501632
0.05852647 -0.0051514227 0.0017295083 -0.023634687 0.04491306 0.03569439 -0.042414464 -0.0064467075
0.0059984135 -0.042627808 0.024246154 0.09880074 0.012137173 -0.07516394 0.039960563 0.061041422
0.011194663 -0.01208549 0.049437534 0.0014470259 0.08031332 -0.0596027 0.069191836 -0.017921088
-0.0041381223 0.018091878 -0.025384525 0.043717388 0.055997312 -0.031768817 -0.001919204 -0.053070046
-0.059892967 0.07982354 0.07384013 0.10272832 0.07019288 -0.026685547 0.026300656 0.024458596
-0.03860736 0.06765893 -0.0401923 -0.018839937 -0.03900683 0.009742786 0.030155519 0.01726079
0.05531267 -0.06261431 -0.042506333 0.09155447 0.053994603 0.020469932 0.08059115 -0.071865186
0.06465433 0.013853908 -0.063099705 0.08327399 0.11729096 0.12372938 0.12470813 -0.04284812
0.07419186 -0.050435316 0.0688897 0.01262898 0.034581993 0.105029285 -0.005754452 -0.020140732
0.018804587 -0.06468833 -0.037231345 0.023975726 0.010373371 0.033483088 0.005148406 -0.016185027
-0.009288607 -0.061924297 -0.072799 0.0925622 -0.00879719 0.027736152 0.03422373 0.02777466
0.028973682 0.019945025 0.021130625 -0.07275069 0.027408024 -0.07179999 -0.059462048 0.029402137
-0.039397843 0.05465753 -0.03715289 -0.04977704 -0.055113297 -0.055191565 0.070032924 0.025599953
-0.06765124 0.077795975 -0.053412054 0.0020877894 0.05612561 -0.066910565 -0.0412231 -0.047748324
-0.014013298 0.019324653 -0.030341133 -0.06506497 -0.0034242645 -0.06672988 0.008246653 -0.058731947
-0.04141444 -0.030858543 0.0042345375 0.0032958463 -0.016518317 -0.073464796 -0.013812676 -0.03556651
0.018136494 -0.058280997 0.0018455312 -0.05595286 0.009668119 -0.0023976192 -0.024548022 0.03462497
-0.020024091 0.073657565 0.03520811 0.078903034 0.08981163 0.066100575 0.04713591 -0.060852643
0.0860335 0.022282854 0.07920673 0.04391579 -0.021179946 -0.017803594 0.112701535 0.013078325
-0.005536367 -0.04382632 0.0849397 0.09302458 -0.037518486 -0.04336445 0.07237951 0.013715554
-0.064679 0.04774144 -0.041330766 0.05062762 0.011591699 -0.008403675 0.044359297 -0.0617278
0.013506773 -0.02339748 0.023077797 -0.016028745 0.016784396 0.0028894143 -0.050433118 0.024029741
-0.051197596 -0.0074564586 -0.0014144698 -0.008286244 0.044393387 -0.030603832 -0.03593625 0.021030635
0.07129712 0.06794741 -0.009354345 0.04401678 -0.07665287 -0.008920643 -0.07035221 0.061987467
0.008956255 0.01652412 -0.049193863 -0.06777004 -0.03265673 0.0325134 0.055738673 -0.07469013
0.025115388 -0.079604074 -0.059222594 -0.049392954 -0.0077612107 0.07668686 -0.09929302 -0.0011262624
0.022996735 0.05137926 -0.02304111 0.08795565 -0.012381537 -0.002182416 0.11343033 -0.011927688
0.012029531 0.039044794 0.037131052 0.09363166 0.018641677 -0.017382769 -0.030622065 -0.03670852
-0.01732705 0.02077193 0.036706157 -0.012347266 -0.0124045685 0.112940624 0.080216415 0.0942243
0.039146353 0.06528044 0.003557197 -0.007646087 -0.07430277 0.026661752 -0.029135937 0.033205476

conv2.bias f4 [16]
00000000: 6d49 c2bb 0090 833d 964f 2ebb 0260 493d
00000010: a159 713d 8a30 56bd 787e 433c 904c 6bbd
00000020: b75b 743d c0a2 453d c47e 5cbd c662 a8bc
00000030: b34a 1e3d d2f7 6bbd 9cab a43d ba48 5f3c
-0.005929163 0.0642395 -0.002659773 0.049163826 0.058923367 -0.052292384 0.011932008 -0.057446063
0.05965778 0.048250914 -0.05383183 -0.020554911 0.038645457 -0.057609387 0.080405444 0.013628179

fc1.weight f4 [120, 256]
00000000: aac0 e03b 1b69 5f3d fe85 ee3c d91d 7ebd
00000010: 048b 193d 36f3 1b3a 701f 66bd 5e62 83bd
00000020: 5745 acba 1be4 a13b ea4a d23b b00c c93b
00000030: 504b 8bbc a9c8 443d 339d d13c 1cf5 64bd
00000040: 2cc6 55bc d800 e53b 8dec f43c eb09 69bd
00000050: 5dcb d93c 9afc 393d 463b d63b b8aa e43b
00000060: 568b 96bc 91e1 ed3c 2f82 473d 767e 47bc
00000070: 6b13 56bd 715d 1e3d 65b2 f93c 2be2 42bd
00000080: 7335 e4ba 9620 663d adf4 4c3d 3b8d 5bbd
00000090: 9145 0cbd da57 85bd 7973 773d dc88 27bd
000000a0: 2332 4fbd 3217 f4bc b219 68bc 8cfe 11bd
000000b0: 2a52 80bb 51b5 263d 3cee 10bc 320f 413d
000000c0: 82ad 34bd 9075 d83b d40c 463d 5307 dbbb
000000d0: 1e61 ba3c d846 b0bc 5d1b 5e3d 2889 1f3d
000000e0: 1ef9 75bd d211 733d 916d 393c 8c40 463c
000000f0: 0e25 4fbd 5cd0 f5bc 0055 e63a 7c34 a2bc
00000100: 8a63 643d fc69 f1bc f738 fbbb 9d3d c63c
00000110: e9f0 64bd 5c9c 6ebb 4fba 67bd c144 05bd
00000120: 6263 053d 29a3 fabb e9f5 d6ba ab49 bd3c
00000130: 0141 06bd 1cc4 2bbd c606 a0bb b39f 413d
00000140: c5a0 163d af54 c43a 903d a23c 3784 0e3c
00000150: 74d5 dcbc 8209 56bd 4838 d3bc 0cf3 39bd
00000160: d63f 55bc af41 7bbb 8416 f43c d769 01bb
00000170: a552 0fbc 442a febc 56ff 80bc 6f1c a63c
00000180: f045 1ebc 36be 323c a60a a3bc dfd1 d33c
00000190: aa30 483d 9fdf 12bb c413 47bd 7c3a 143d
000001a0: a01c a23c 4037 31bd 1aba 85bd 2f5b 373c
000001b0: 1a7b ae3b 9e40 51bd e2dd 32bd b795 30bd
000001c0: ed67 033d 036a 8dbc f4da 69bd 3caa 573c
000001d0: 5854 e03c 000a cbbc 14df bd3c 8110 823a
000001e0: e43c 3bbd 7b4e 1b3d 62c9 3f3d deca e2bb
000001f0: d6a3 703d 30de 263c 2c59 78bd 4345 53bd
00000200: 66e7 3e3d 17e3 533c 9acd 423d c92a 153d
00000210: 53df 3e3d d01b eabc f81f 2a3d 91ee a0bc
00000220: 21e5 d83c 00b8 04bd f0bd 3a3d ec49 20bc
00000230: 21f6 18bc 2af7 ab3c d4bb 37bc c33b cdba
00000240: 799a a93c 6400 66bd 44a0 24bd 42b4 86bd
00000250: 98c6 2d3d 2737 48bd 96dd a0bc 262f 173d
00000260: be2d 92bd 757e d4bb 6087 a13c 411c 6ebd
00000270: 700b 2cbd b026 bd3c 67ba 243d 9a39 50bd
00000280: 74f8 d6bc 6c6c e2bb f7ce 27bc be22 583d
00000290: c34c e23c 73be 093d c562 f0bb 2f5c 7c35
000002a0: 9480 4dbc c311 0d3c c4a7 f9bc c5a7 0fbd
000002b0: 5c57 453d f12b d2bc fffd 413d 3bb6 19bc
000002c0: ad5d ee3c bb0e 9cbc 6d52 473d 4a74 4a3d
000002d0: df63 ae3c 4100 49bd ce82 053d db8d 0c3b
000002e0: 17ea 413d d966 9d3c 83bd 5c3d 040d acbc
000002f0: 48fc 633d c9c9 87bd 0336 2f3d 11e8 d43c
00000300: 633d cebc 94e9 f83b bb9a 4f3d 80ac debc
00000310: ad4f 8bbd b71e 353d 3459 febc cd98 d6bc
00000320: e04e 53bd 0550 4bbb b1d6 b2bc a155 74bd
00000330: f80d 52bd a7ad 36bd 9b46 203c 8824 b6bc
00000340: c1a3 fe3b 2855 bebc 2fd9 393d feac 32bd
00000350: 4fac 16bd 6c05 23bd 8b6a 2abd b48f 133d
00000360: f42e aa3c 5351 323d b710 4c3d 9c2a 5fbb
00000370: 87b3 59bd a551 8fbd 7514 30bd 77c6 4a3d
00000380: cc32 2fbd f2a5 3abd df26 12bd fa29 263d
00000390: 7cc4 513c 7884 91bc bac0 8bbd fee4 703c
000003a0: 3b89 373d 988a f43c 3fa7 8cbd c393 7bbc
000003b0: ea84 63bd 8357 84bd e0b6 a0ba 6d20 193d
000003c0: 4c68 32bd 433f 453d 8087 5abd 15d2 00bd
000003d0: fb21 213d 4c1a 843a 29d2 d6bb 510d 3b3d
000003e0: f69d 3dbd 860d 73bd 569d 72bd 1210 6ebd
000003f0: 0985 85bd d4c9 96bc 6ba8 d03c 1cad 09bd
0.006858905 0.054543596 0.029116627 -0.062040184 0.03748609 0.0005949022 -0.056182325 -0.064152464
-0.0013143223 0.0049405224 0.006417622 0.0061355457 -0.017003685 0.048042927 0.025587654 -0.055897817
-0.013047736 0.006988626 0.029897952 -0.056894224 0.026586229 0.045406915 0.0065378277 0.006978359
-0.018376987 0.029038223 0.048708137 -0.012176147 -0.052264612 0.03866333 0.030480573 -0.04757897
-0.0017410949 0.05618342 0.05003803 -0.053601485 -0.03424603 -0.06510897 0.060412858 -0.040902004
-0.050584923 -0.029796217 -0.0141662825 -0.035643145 -0.0039160447 0.04070026 -0.008845862 0.047133632
-0.044110782 0.0066058114 0.048352078 -0.0066842227 0.022751387 -0.021518156 0.054225314 0.03894916
-0.06005203 0.059343167 0.011317627 0.01210035 -0.050572447 -0.03000658 0.0017572939 -0.019800417
0.05575899 -0.029469483 -0.007666703 0.024199301 -0.055893812 -0.0036409115 -0.056574162 -0.032536272
0.032565482 -0.0076488447 -0.0016400191 0.023106417 -0.032776836 -0.04193507 -0.00488362 0.04727144
0.036774416 0.0014978851 0.019804746 0.008698515 -0.026957251 -0.05225516 -0.025783673 -0.045397803
-0.013015708 -0.003833871 0.029795893 -0.0019746923 -0.008747731 -0.031026013 -0.015746754 0.02027723
-0.009660229 0.010909608 -0.019902539 0.02585691 0.048874535 -0.002241112 -0.048602834 0.036188588
0.01978904 -0.04326558 -0.06529637 0.011191173 0.0053247334 -0.051087014 -0.043668635 -0.04311153
0.032081533 -0.017262464 -0.057093576 0.013163146 0.027383968 -0.024785042 0.023177661 0.0009923131
-0.045712367 0.03791664 0.046822913 -0.0069211563 0.058749996 0.01018481 -0.060631916 -0.051579725
0.046607397 0.01293256 0.04755936 0.036417756 0.046599697 -0.028577715 0.041534394 -0.019645007
0.026476445 -0.03240204 0.045591295 -0.009783249 -0.009336025 0.02099188 -0.011214215 -0.0015658069
0.020703541 -0.056152716 -0.040191904 -0.0657735 0.042425722 -0.048880722 -0.01963691 0.0369102
-0.07137631 -0.0064848014 0.019717872 -0.058132414 -0.042003095 0.023089737 0.04021683 -0.050836183
-0.026241519 -0.0069098976 -0.010242215 0.052767508 0.027624493 0.033628892 -0.007335993 9.401146e-07
-0.012542862 0.008610192 -0.030475505 -0.035072107 0.048179016 -0.025655719 0.04736137 -0.009381826
0.029097402 -0.019049993 0.04866259 0.04942731 0.021287857 -0.049072508 0.03259545 0.0021446857
0.047342386 0.01921408 0.05389167 -0.0210023 0.055660516 -0.06630284 0.04277612 0.025989564
-0.025175756 0.007596204 0.05068467 -0.027181864 -0.06802306 0.044218745 -0.031048395 -0.026195908
-0.051588893 -0.0031023037 -0.021830888 -0.059651975 -0.051282853 -0.0445992 0.009782459 -0.022234216
0.007770986 -0.023233965 0.045373138 -0.04362201 -0.03678542 -0.039800093 -0.041605514 0.036025718
0.020774342 0.043534588 0.049820628 -0.0034052497 -0.053149726 -0.06997994 -0.04298826 0.049505677
-0.042773053 -0.045568414 -0.0356816 0.040567376 0.012803193 -0.017763361 -0.06823869 0.0147030335
0.044808608 0.029851243 -0.06867837 -0.015355053 -0.05554668 -0.06462004 -0.0012261532 0.03738444
-0.043556497 0.048156034 -0.05335188 -0.03145035 0.039339047 0.0010078638 -0.0065558148 0.045666996
-0.04629322 -0.05933907 -0.05923208 -0.058120795 -0.06519515 -0.018406786 0.025470933 -0.033612356

fc1.bias f4 [120]
00000000: e93a 4a3d 0d2d ba3c ba0e 36bd 0a35 38bd
00000010: be7b b13b a2eb 40bd 45cf 243d a89c e8bc
00000020: 3a92 493d f964 863d b7e5 28bd 340d f23c
00000030: fc9c 813c 0d26 b9bb b569 1db9 b8f0 36bd
00000040: 2057 b4bc 8a0e f63c a67c 463d dbc7 6bbc
00000050: 64b4 043d 806a 423d d488 f8bc 6ec2 feba
00000060: 28e5 d0bb 0a75 333a ce2c 64bd b8da 5dbd
00000070: e492 e9bc 2eeb 36bb 3ff6 e5bb ed8e 073d
00000080: e21f 7abd 7966 883b 3b4d cc3c 92d6 243d
00000090: 75b9 493d 5b10 c63c 7330 223d 272c 56bd
000000a0: 4c50 85bb 3684 963c ab6d 0ebc 86b4 33bd
000000b0: 39b5 b0bc 0059 4d3d f77f 02bc 93e3 4fbc
000000c0: c8d9 0f3c 5fe9 63bc fb8f ed3c 7f13 313d
000000d0: 0cce 343d e9c6 353c bc2c 413c ff30 20bd
000000e0: dd23 0dbd 5636 53bd e2f1 8b3d 3265 c13c
000000f0: e240 48bc 5e0f 89bb 3d6c 3c3c 58d5 323b
00000100: 4175 5ebd e7ff 32bd 3c0d 063d d22e ebbc
00000110: 4b3f 26bd 973b 0abc 1e5d 453d e4ab 533d
00000120: 275e 4a3d 9476 d4bc 9b56 96bc ee55 50bd
00000130: 9eb5 6c3c 1ddb aebb 49b3 5f3d 32a0 74bd
00000140: 9886 6b3d e1f7 c33c a4cb dfbb 6fa4 06bc
00000150: 4a3d fc3c a073 ccbc d2c4 823d da1f a037
00000160: d67b 7dbd 5c39 bcbc 7895 f2bc 50a6 3b3c
00000170: f201 153d a1f3 1b3d 8aa8 803d 1293 6cbd
00000180: 7f30 b43c 0063 a23a 74c1 3e3d 0a6b 3b3d
00000190: 3014 83bd 48f1 733d d7a5 993c c597 843c
000001a0: 2e56 263d fff9 383d e032 693d 33c6 363d
000001b0: b200 1cbd 38b5 8abd c304 423d f319 2b3d
000001c0: a43b f2bc 97c1 98bb 0131 fabb 82b9 333d
000001d0: 5ede 34bd 318f bcbb 63b2 93bc 5686 e6bb
0.049372587 0.02272656 -0.044447638 -0.044972457 0.0054163625 -0.047099717 0.04023673 -0.028395012
0.04921172 0.06562228 -0.0412347 0.029547311 0.015821926 -0.005650288 -0.00015012066 -0.04466316
-0.0220142 0.03003623 0.048458718 -0.014390911 0.032398596 0.047464848 -0.030338682 -0.0019436607
-0.006374974 0.0006845748 -0.05570679 -0.054163665 -0.028512426 -0.0027911174 -0.00701788 0.03309529
-0.061065562 0.0041626063 0.02493917 0.040243693 0.04924913 0.02417772 0.039596986 -0.0522882
-0.00406841 0.01837359 -0.008693139 -0.043873332 -0.021570789 0.050133705 -0.0079650795 -0.012688535
0.00877995 -0.0139106205 0.02899932 0.043231484 0.044141814 0.011094787 0.011790451 -0.039109226
-0.03445803 -0.05156549 0.06833245 0.023607824 -0.0122225005 -0.00418274 0.011500415 0.0027287807
-0.05431104 -0.04370108 0.032727465 -0.02870885 -0.040587705 -0.008437059 0.048184507 0.0516776
0.049406197 -0.025935449 -0.018351844 -0.0508632 0.014447598 -0.005336179 0.05461434 -0.059723087
0.057501405 0.023921909 -0.006829696 -0.008217915 0.030790944 -0.024957478 0.06385197 1.9088318e-05
-0.061885677 -0.02297657 -0.029612288 0.011453226 0.03637881 0.03807414 0.06282146 -0.057757445
0.021995781 0.0012389123 0.04657121 0.045756377 -0.06400335 0.059556276 0.018755836 0.01618565
0.04060953 0.04516029 0.056933284 0.04462261 -0.0380866 -0.06772846 0.047367822 0.041772794
-0.029569454 -0.0046617496 -0.0076352363 0.043878086 -0.04415738 -0.0057543744 -0.018029397 -0.007035057

fc2.weight f4 [84, 120]
00000000: 5c11 363d bcd3 773d ba20 993d cc07 d33c
00000010: 6e12 aabd 2664 86bd 7422 a83c de55 8b3d
00000020: 722c 9f3d 57c6 95bd f006 bcbb b2f7 013d
00000030: 284c 09bd d5d1 36bd c45c a3bd 4d2e 1abd
00000040: 98ea 84bc 12ae 753c c447 d03c 6036 99bd
00000050: 043d babd 4038 91bd c298 42bd e7af 46bc
00000060: f316 a6bd 5440 1cbd 6869 5c3c a8d3 6ebd
00000070: 1006 0d3d 7b6d 8c3d 06d6 b23d 865d 86bc
00000080: 2052 88bb b0d2 693d b09f 193d 38d0 653d
00000090: dca2 453d 205e 573b 5ed6 0f3d 9770 2ebd
000000a0: 4a7f 863b 057f a4bd e028 0ebb b710 5abd
000000b0: 20be 593d bd70 05bd e511 f3bb 40d0 04bc
000000c0: 9cd3 703d 71ff 50bd 4cf5 9a3d 0891 663d
000000d0: 68ce 383c 0064 fabc 5972 a33d 6715 a4bd
000000e0: 0026 2c3b 27dc afbd ffea b13d 9c5f 02bd
000000f0: 20ad 233d f0e6 243c 8ec2 f9bc 566f a23d
00000100: f879 aa3d 4fb3 9bbc 8b0b 8fbd 64bd 923d
00000110: 9058 643c 5862 903c d06c 82bd 82d1 9f3d
00000120: 892d c93b cc9a 4b3d e09a 76bc d8d1 543d
00000130: cb43 14bd 0602 7fbd 4719 6a3d 9080 d03c
00000140: d341 9cbc cca0 8abd 2fa8 4fbd 3bc9 b23d
00000150: 9275 12bd 8055 983d af86 8ebc 6e97 42bd
00000160: 46a1 97bd 8ed2 583d 1c97 40bd e4a5 443d
00000170: 9a30 9a3d 76b1 c1bc 0c4f b5bd 78cc b03d
00000180: de22 8b3c ac09 873d db03 22bd 0176 923c
00000190: 80ad d3bc af77 28bd 70e1 5dbc 04e3 87bc
000001a0: de05 4dbd 444f 953d 85c3 01bc 70ba dcbb
000001b0: 12e5 993d ef29 65bd e47e 11bd 5ed9 823d
000001c0: 0ad3 9cbd 0e51 b33b c2de 2bbd a6eb 5fbc
000001d0: 5ca7 42bd 402f df3b d8b3 a2bd 2e68 a93d
000001e0: d038 463d 50e9 823b 76d8 a5bd eb0d 08bd
000001f0: c8e4 4cbc 0ca4 353d 81b4 96bd 5ee8 f9bc
00000200: 1b41 3dbd 684b a53c 5031 b8bc b428 8fbc
00000210: eb73 8bbd a0ab 043c 1e23 4bbd 1a17 3dbd
00000220: 60df 9abc c4c4 e83c b65b 8abd 4cc8 9e3d
00000230: c8c7 ce3c 8803 8bbd e446 623d c629 ae3d
00000240: 1204 a73d 7851 253c afde 73bd 08e8 b73d
00000250: b0ca 8c3d 70a9 cdbc e8c7 aa3d 6c34 283d
00000260: 1090 ebbc 6016 763b 00d8 673a fce3 573d
00000270: 527d b93d 0011 463a 50a5 d83b afba 5bbd
00000280: cf2c a3bd 043d 9e3d 04c7 153d 90dd 963d
00000290: e8dc 65bc ac06 aa3d fbc4 75bd b493 8abd
000002a0: b000 b6bc 7cee a23c 40ba 4d3c f1d2 a7bd
000002b0: 70ca 14bc f21f 9c3d 0c73 283d b79d 4ebd
000002c0: 272b 83bd e0ee 0b3d 93ad 1cbd f535 67bd
000002d0: f0d2 f13c d8a3 5f3c 0875 413d 6499 a13d
000002e0: 174d b9bd f350 8fbd 6e72 87bd c0bc 1d3d
000002f0: 8aec 03bd 40b5 983d 5c11 6a3d defa 86bd
00000300: 501a b9bb 6216 873d 4f0c 68bd 2d8a a1bd
00000310: 1ad8 a93d d6b9 963d d67a 873d 5a67 8d3d
00000320: 401f cabb ddd1 2ebd 6f67 9dbd 4e90 71bd
00000330: c8be e9bc 5c17 d33c b0bd 293d 08d2 3e3d
00000340: 747b a9bc e0de 223c e4b0 e8bc a4f3 0bbd
00000350: 58ff 123d 7ecd 8abd aead ac3d d8d6 803c
00000360: 06b7 a03d ac95 013d 02fe 7abd 900a 25bd
00000370: 280b 2c3d 38af 7e3d 407b 53bb 30b9 293d
00000380: 908d 233d b357 6bbd 39ae 69bd 84eb 873d
00000390: 740b 753d 7c75 84bd e6f9 03bd 28c2 443d
000003a0: f018 a4bd 9839 79bc a106 5ebd e2e6 67bd
000003b0: e843 883c 939c a9bd 96f5 8bbd 090d 12bd
000003c0: dac9 7f3c 0b47 8fbd cf95 83bd c043 84bc
000003d0: a0f0 0c3b 9be5 303c 8c7f 6abc c2b0 ac3d
000003e0: 1b87 88bd 20ee 2f3d fbff c1bd 368d 5d3d
000003f0: 383e a2bd 11b3 863d c646 3fbc 393d 4cbc
0.04445015 0.06050466 0.07476945 0.025760554 -0.083042964 -0.065620705 0.020524241 0.06803487
0.07772149 -0.07313221 -0.0057381317 0.03173036 -0.033519894 -0.044633705 -0.07976678 -0.037641812
-0.016225144 0.014995115 0.025424846 -0.07481074 -0.09093669 -0.07090807 -0.047508962 -0.012126899
-0.08109846 -0.038147286 0.013452865 -0.05830732 0.03442961 0.06856819 0.08732228 -0.016402017
-0.0041601807 0.057085693 0.037505805 0.056106776 0.048251018 0.00328625 0.035116546 -0.042587843
0.0041045295 -0.080320396 -0.0021691844 -0.053238597 0.053159833 -0.03257822 -0.0074179047 -0.008106291
0.058795556 -0.051024858 0.07566318 0.056290656 0.01127968 -0.030565262 0.079807945 -0.08011895
0.0026267767 -0.085869126 0.086874 -0.03182946 0.039960027 0.010064825 -0.030488279 0.07931392
0.08324045 -0.0190064 -0.069846235 0.0716503 0.013937131 0.017625019 -0.063684106 0.07803632
0.0061394614 0.049708173 -0.0150515735 0.051957935 -0.036197465 -0.06225779 0.057153013 0.025451928
-0.019074356 -0.06768951 -0.0506975 0.08729788 -0.035756655 0.07438183 -0.017398207 -0.047507696
-0.07403807 0.052935176 -0.04701911 0.048009768 0.07528801 -0.02364419 -0.088529676 0.08632749
0.0169844 0.06593642 -0.039554458 0.017878534 -0.025839567 -0.041129764 -0.013542518 -0.016587742
-0.050054424 0.07290509 -0.007920151 -0.0067360923 0.07514395 -0.055948194 -0.035521403 0.06389116
-0.0765744 0.005472309 -0.041960485 -0.013667023 -0.047522888 0.0068110526 -0.07944459 0.08271824
0.048394024 0.003995098 -0.08097927 -0.0332164 -0.012505718 0.0443459 -0.07358647 -0.03050631
-0.046204668 0.020177558 -0.022484452 -0.017475463 -0.06809219 0.008097559 -0.049594037 -0.04616461
-0.018905342 0.028414138 -0.06755774 0.07753047 0.025241747 -0.06787783 0.055243388 0.085040614
0.08155073 0.010090224 -0.05953854 0.08979803 0.06874597 -0.025105208 0.0833891 0.04106562
-0.028755218 0.0037549958 0.0008844137 0.052707657 0.09057106 0.0007555634 0.0066115037 -0.053644832
-0.07967531 0.077264816 0.03656675 0.073664784 -0.014029719 0.08302054 -0.06000231 -0.067664534
-0.022217125 0.019889109 0.0125566125 -0.08194531 -0.009081468 0.076232806 0.041125342 -0.050443377
-0.06404715 0.034163356 -0.03825147 -0.05644794 0.029519528 0.013649903 0.04723075 0.07890585
-0.09047907 -0.06997862 -0.066136226 0.038510084 -0.032208003 0.07456446 0.05714546 -0.06590818
-0.0056488886 0.06596066 -0.056652363 -0.07887683 0.08293171 0.07359664 0.06615226 0.06904478
-0.006168276 -0.04268061 -0.07685744 -0.05897551 -0.028533354 0.025767975 0.041440666 0.04658702
-0.02068875 0.009940833 -0.02840466 -0.0341679 0.035888046 -0.06777476 0.08431564 0.015727445
0.07847409 0.03163688 -0.061277397 -0.040293276 0.042002827 0.06217882 -0.0032269508 0.041436374
0.039929926 -0.057456683 -0.057050917 0.06636718 0.059825376 -0.06467721 -0.032220744 0.048036724
-0.08012569 -0.015211485 -0.05420554 -0.05661667 0.016633943 -0.08281817 -0.06833951 -0.035656963
0.01561209 -0.06995972 -0.06425058 -0.016145587 0.0021505728 0.01079693 -0.014312636 0.084321514
-0.06666394 0.042951703 -0.094726525 0.054089747 -0.079220235 0.06577123 -0.011674589 -0.0124657685

fc2.bias f4 [84]
00000000: ed32 70bd 40e3 04bb 3cd9 4cbd 17bd b6bd
00000010: 5d46 51bd acdb a3bc ea45 903d 96db 6a3c
00000020: 67f1 1cbc b8e8 8d3d ef08 913d cdf6 163d
00000030: ac0c ef3b 19b2 5f3c 94b2 1b3c dfcc 2fba
00000040: eb28 1fbd 29e4 21bd 68a1 a7bc 0000 f7bb
00000050: c1c0 57bd ed29 07bd aa73 ad3b 1f5b 0cbc
00000060: 2746 94bc 8c9d d63c bb38 3dbd 7fff a83d
00000070: 1895 773c 5cf1 303d 1345 403d 3d54 86ba
00000080: c088 3b3d bb95 9bbc c7eb 8c3d e237 e13c
00000090: c850 36bd 2eb3 7ebc 9678 ffba 9c24 153d
000000a0: 0a71 f5bc 4fcf a8bc 890e 51bd 437b 473d
000000b0: a16d 12bd 00cb 533b 9cfd 783d 5652 d5bc
000000c0: 2047 ecbc fe47 223d 2413 a23c 02ef a3bc
000000d0: c53d 223d a3b5 aabd 8432 b63c b281 90bd
000000e0: 5b0a cd3c cc8a 5cbc 99f1 92bd c119 bfbc
000000f0: 1bba 913d 48cf c3bc 3fb6 333d ea3f b2bd
00000100: 50bf e7bc 7d5c 853d 903d 5e3d fb15 043c
00000110: 8aa6 ddbc 8285 b73c a5a4 19bb 460e ac3c
00000120: 0717 753d d317 a53d 1e24 233d d906 03bd
00000130: 7c4d 2ebd c628 c9bc e4b4 52bd e007 9a3a
00000140: 4b70 35bd 1978 6bbc c33a 94bd 9c59 9a3d
-0.058642317 -0.0020277053 -0.05001186 -0.08922785 -0.051092494 -0.020002209 0.07044585 0.01433458
-0.009579039 0.06929153 0.07081782 0.03685646 0.007295212 0.013653302 0.009503026 -0.00067062484
-0.03885738 -0.03952423 -0.020462707 -0.007537842 -0.05267406 -0.032998968 0.0052933292 -0.008566647
-0.018099857 0.026198171 -0.04619668 0.08251857 0.01511123 0.04319893 0.046940874 -0.0010248494
0.04578471 -0.018992295 0.068809085 0.027492467 -0.044510633 -0.015545649 -0.0019490893 0.036411867
-0.029961128 -0.020606665 -0.051039252 0.048701536 -0.03574908 0.0032317042 0.060788736 -0.026040237
-0.028842509 0.03961944 0.019784518 -0.020011429 0.03960969 -0.08335426 0.022240885 -0.070559874
0.025029352 -0.013460826 -0.07174987 -0.02332771 0.07115575 -0.02390255 0.043874975 -0.08703597
-0.028289467 0.06511781 0.05425793 0.008061881 -0.027056951 0.022402529 -0.0023444083 0.0210029
0.059836414 0.08061185 0.039829366 -0.031988952 -0.042554364 -0.024555575 -0.051442042 0.0011751615
-0.044296544 -0.014371895 -0.072377704 0.07536623

fc3.weight f4 [1, 84]
00000000: 49ec bfbd 00ae e2bb 63d1 93bb 0a09 2bbd
00000010: cef5 8cbd 9650 0cbd dfb6 9abd be8e 833d
00000020: 4954 f9bd 9400 81bc 77ff febc 9b6f 5bbd
00000030: 299a 063c b966 af3c 8f23 4d3b f40c 913d
00000040: 001e 00bd 761b aa3d db42 d4bd 806c 60ba
00000050: 0080 3e37 2203 abbd 9f3d edbd 1268 abbc
00000060: d311 c03b 8a5b 613d 5275 003e d2aa 10bd
00000070: f9e7 963d 250e 98bd 0204 353c b678 d03d
00000080: 2978 f7bd 426e fbbc ff6b e8bd f954 e8bd
00000090: 0045 6d3d afbc c3bd 5d47 953d 9ced c5bd
000000a0: 80d9 94bd 254d 433d 7b85 e43d 05cc 2a3d
000000b0: c2cf 0b3d 49f9 bcbd 49ab 3ebd 8f11 f03d
000000c0: b5d1 c13d 57bc 663d 3a12 a7bc 9b78 d03d
000000d0: a093 2cbd b460 8d3c a394 8ebd 4c73 23bd
000000e0: 809c 7dbd 7db1 383d d829 6fbc 2dd7 8f3d
000000f0: 46f4 d8bd b139 d7bd 8f7f 873c dc4a abbc
00000100: c935 6bbb f5e6 db3d 08a3 ad3d a36b debb
00000110: 4ac3 cc3d d38e e4bd 5d03 c6bd 501e 4cbd
00000120: e1f8 93bc 8b6c cabd 5062 6e3d f2f9 0d3d
00000130: cd95 b0bd 8ff8 3bbb a09e 683d 1e58 84bd
00000140: 8eef d83d d47a 163d e3c7 eb3c 1525 8abd
-0.0937124 -0.006917715 -0.004511045 -0.041756667 -0.06882821 -0.03425654 -0.07554411 0.0642371
-0.12174279 -0.015747346 -0.031127675 -0.053573232 0.008215466 0.021411287 0.0031301712 0.07082549
-0.03127861 0.08306019 -0.10364314 -0.00085610896 1.1354685e-05 -0.08350207 -0.11584019 -0.020923648
0.0058615 0.05501894 0.12544754 -0.035319157 0.07368464 -0.07424573 0.011048319 0.10179274
-0.120834656 -0.030692223 -0.113487236 -0.11344332 0.05792713 -0.09557473 0.07289002 -0.09664461
-0.07268047 0.047680993 0.11158272 0.041698474 0.03413368 -0.09227235 -0.04655007 0.11722099
0.094638266 0.05633196 -0.020394433 0.10179254 -0.042132974 0.017258026 -0.06961944 -0.039904878
-0.06191683 0.04509114 -0.014597379 0.070234634 -0.105934665 -0.10509051 0.016540317 -0.02090972
-0.0035890213 0.10737411 0.08478361 -0.0067877336 0.09998186 -0.11160054 -0.0966861 -0.049833596
-0.01806301 -0.09883984 0.058199227 0.034662195 -0.08622322 -0.0028682088 0.0567919 -0.064621195
0.105925664 0.03673823 0.028781837 -0.06745354
