Week7/checkpoint/checkpoint_epoch_10.pth (torch, 178464 bytes, 9 tensors)

conv1.weight f4 [6, 1, 5, 5]
0.092087045 0.035372075 0.07545915 -0.12731779 -0.15997814 0.21054524 -0.008105716 -0.20937864
-0.045024436 0.04933015 -0.03564917 -0.15537679 0.115886204 -0.14827083 0.0034979172 -0.18601528
0.06711375 -0.16078967 0.09173665 0.14451721 0.056492835 0.14868079 -0.15097539 0.16070428
0.16672613 -0.0468304 0.10032411 0.05513541 -0.21542813 0.102112904 -0.03328846 0.059665732
-0.15159063 0.13600102 0.1032954 -0.0006253268 -0.10214188 -0.09469201 0.027829584 -0.04952484
-0.1435985 -0.013459767 0.1865616 0.073573545 -0.16044405 0.18641432 0.037302442 0.13539314
-0.029235523 -0.084237985 0.20144589 0.048394375 -0.008258981 -0.07847696 -0.1478986 0.08340313
-0.07900077 -0.1086295 -0.124958605 -0.12703212 0.20126614 -0.026699228 -0.011775207 -0.11576338
0.11076267 -0.04696967 0.09946446 0.1493837 -0.01745032 -0.057510022 0.11103405 0.19396943
-0.051812965 0.14788501 -0.08117198 -0.040477205 -0.052368242 0.051931974 0.09196332 -0.16259454
-0.18413876 0.10221331 -0.007427221 -0.1571474 -0.15136658 -0.16088797 0.13096239 -0.14897779
0.118169226 -0.08114811 -0.046433736 0.2144735 -0.0033331325 0.16737682 -0.1282575 -0.121212654
0.21415699 0.03530666 -0.052351758 0.15554811 0.20373619 0.14113247 -0.13782413 0.09060903
-0.16488026 0.17596725 -0.07769811 -0.1393942 0.149786 0.14640129 -0.09842616 0.16203876
-0.17274831 -0.12185608 -0.005205732 0.16247356 0.173559 -0.06710153 0.17613001 0.05235528
0.066204265 0.13456179 0.05106858 0.19148917 -0.19574484 -0.030428126 -0.14450577 -0.0796145
-0.0051120967 -0.18194209 -0.09330189 0.027371883 -0.123821996 0.19761567 -0.08952611 -0.13404813
0.07444139 -0.11675139 0.13810576 -0.16379222 -0.019900441 -0.19021535 -0.16208224 -0.037369758
0.04675606 -0.048357576 -0.116910435 0.080603614 0.043826863 -0.090413354
00000000: 2298 bc3d 4fe2 103d 548a 9a3d 985f 02be
00000010: 4fd1 23be 2c99 573e d6cd 04bc 5b67 56be
00000020: 8b6b 38bd 690e 4a3d dd04 12bd 181b 1fbe
00000030: bf55 ed3d 4fd4 17be 503d 653b ca7a 3ebe
00000040: ef72 893d 0ca6 24be 6de0 bb3d 52fc 133e
00000050: 0865 673d c73f 183e 4b99 1abe aa8f 243e
00000060: 41ba 2a3e 3cd1 3fbd ba76 cd3d abd5 613d
00000070: 3199 5cbe 9220 d13d 7b59 08bd 0e64 743d
00000080: 933a 1bbe da43 0b3e 8a8c d33d f9ec 23ba
00000090: c32f d1bd e2ed c1bd defa e33c 8fda 4abd
000000a0: 7c0b 13be 5b86 5cbc 010a 3f3e baad 963d
000000b0: 724b 24be 65e3 3e3e 72ca 183d 80a4 0a3e
000000c0: 567f efbc f784 acbd d547 4e3e 2e39 463d
000000d0: ad50 07bc 87b8 a0bd bb72 17be 43cf aa3d
000000e0: 28cb a1bd 2579 debd 4cea ffbd b514 02be
000000f0: b618 4e3e 57b8 dabc ccec 40bc 5a15 edbd
00000100: 8ad7 e23d 4563 40bd 06b4 cb3d 0af8 183e
00000110: f9f3 8ebc a18f 6bbd d265 e33d ec9f 463e
00000120: d539 54bd 2b6f 173e 7f3d a6bd 6dcb 25bd
00000130: 1580 56bd 9fb6 543d 4457 bc3d 2f7f 26be
00000140: df8e 3cbe 3655 d13d 0c60 f3bb 3feb 20be
00000150: d7ff 1abe d1bf 24be 011b 063e a28d 18be
00000160: b502 f23d fb30 a6bd 4d31 3ebd f19e 5b3e
00000170: af70 5abb d464 2b3e ef55 03be 573e f8bd
00000180: f84b 5b3e b79d 103d cc6e 56bd 0148 1f3e
00000190: 38a0 503e 0885 103e c521 0dbe 3a91 b93d
000001a0: 5fd6 28be c230 343e 3020 9fbd 5abd 0ebe
000001b0: 8061 193e 38ea 153e a893 c9bd 7ded 253e
000001c0: efe4 30be ae8f f9bd d894 aabb 785f 263e
000001d0: 73b9 313e 876c 89bd 6d5b 343e 7d72 563d
000001e0: 1a96 873d 91ca 093e 4a2d 513d bd15 443e
000001f0: 5671 48be 6844 f9bc 52f9 13be ed0c a3bd
00000200: 6083 a7bb 074f 3abe 1015 bfbd 003b e03c
00000210: 6396 fdbd c35b 4a3e 7759 b7bd ea43 09be
00000220: ba74 983d 5a1b efbd 996b 0d3e 26b9 27be
00000230: 4006 a3bc d0c7 42be e3f8 25be 0811 19bd
00000240: 4883 3f3d 9812 46bd bd6e efbd 8213 a53d
00000250: cc83 333d a32a b9bd

conv1.bias f4 [6]
-0.011610088 -0.069508396 -0.11872911 0.19427922 0.024351956 -0.16189763
00000000: 3d38 3ebc 6b5a 8ebd 3f28 f3bd 22f1 463e
00000010: c17d c73c 7ec8 25be

conv2.weight f4 [16, 6, 5, 5]
0.10011273 0.011964971 0.13755153 0.018512506 -0.026130747 0.11901206 0.07892387 -0.03941813
-0.049742937 -0.037630532 0.07009171 -0.016289372 -0.0734775 -0.02067291 -0.05237282 -0.02194139
0.06029806 -0.0018763938 0.0040853014 -0.020653823 0.047143657 0.038426638 -0.037890986 -0.0066592377
0.010209187 -0.04108578 0.026527202 0.10434468 0.015953979 -0.074582145 0.04355579 0.066805564
0.012413242 -0.011485412 0.050300736 0.0008632001 0.082251966 -0.061785772 0.068081014 -0.01685626
-0.0042821895 0.017980348 -0.027412126 0.0451092 0.057292733 -0.029232994 0.0002949782 -0.05343047
-0.058656894 0.08077464 0.07610295 0.10708118 0.073716186 -0.02651384 0.02338563 0.025790289
-0.03584097 0.066608585 -0.039073452 -0.017211292 -0.03953176 0.010890092 0.029721888 0.017728772
0.056634802 -0.06734194 -0.041579776 0.09358483 0.053230554 0.017933864 0.08025276 -0.07115291
0.065312296 0.011948822 -0.06537955 0.090646 0.12582351 0.13285792 0.13311975 -0.039199166
0.07990218 -0.046172798 0.071040876 0.019046785 0.035926264 0.11268787 -0.00022455228 -0.02049463
0.021253573 -0.06319744 -0.035290215 0.029024703 0.012031339 0.03418784 0.0071491897 -0.012138037
-0.0021800848 -0.058396105 -0.07179677 0.091929026 -0.008700135 0.02800473 0.03420344 0.027780198
0.027546313 0.02008626 0.021918105 -0.07311898 0.0270832 -0.07257049 -0.06001973 0.029664502
-0.039634652 0.0541035 -0.03723773 -0.051308837 -0.055395555 -0.055248152 0.06971399 0.02502568
-0.06826484 0.07737271 -0.05361508 0.00140136 0.05543739 -0.066910565 -0.0412231 -0.047748324
-0.014013298 0.019324653 -0.030341133 -0.06506497 -0.0034242645 -0.06672988 0.008246653 -0.058731947
-0.04141444 -0.030858543 0.0042345375 0.0032958463 -0.016518317 -0.073464796 -0.013812676 -0.03556651
0.018136494 -0.058280997 0.0018455312 -0.05595286 0.009668119 -0.0023976192 -0.019235907 0.035272505
-0.022519458 0.073232606 0.033822447 0.08517299 0.095791526 0.07019905 0.050796866 -0.05490636
0.09236219 0.02934903 0.085356146 0.046113692 -0.025390357 -0.016942605 0.11886011 0.018148206
-0.008429837 -0.04525069 0.09142562 0.10032254 -0.033947855 -0.044665664 0.07289338 0.011823284
-0.06329351 0.047455825 -0.042446915 0.04761895 0.015561391 -0.0032378042 0.05041094 -0.06091229
0.013987201 -0.018526226 0.028004538 -0.014841684 0.01851803 0.0043158527 -0.048686355 0.023737151
-0.04872099 -0.0076929117 -0.006067714 -0.0046514547 0.0523319 -0.025718194 -0.036619242 0.018357495
0.07272744 0.067545176 -0.010903888 0.04301493 -0.077355705 -0.012228867 -0.07493828 0.059753016
0.0069318092 0.014515294 -0.048550196 -0.06966442 -0.03488451 0.0324571 0.05328289 -0.07607721
0.020922314 -0.08536536 -0.061829705 -0.04856095 -0.0040244865 0.0777602 -0.10701193 -0.004498776
0.023457693 0.055660635 -0.01749606 0.091925085 -0.010982787 -5.2206487e-06 0.11307846 -0.0070138345
0.014777876 0.03865594 0.037982482 0.10357907 0.026108641 -0.010927343 -0.027152983 -0.034543924
-0.013020863 0.021152535 0.04161575 -0.00850839 -0.009260789 0.120120026 0.08316635 0.09739203
0.043297987 0.06686816 0.003752567 -0.0072273933 -0.07420415 0.02719269 -0.028608741 0.032443795
00000000: e707 cd3d ba08 443c 4fda 0c3e 8aa7 973c
00000010: 2610 d6bc 98bc f33d d7a2 a13d e874 21bd
00000020: 40bf 4bbd 7922 1abd 3e8c 8f3d 4a71 85bc
00000030: 5f7b 96bd 3c5a a9bc e284 56bd 6ebe b3bc
00000040: 19fb 763d 54f1 f5ba fedd 853b 3532 a9bc
00000050: b519 413d 4065 1d3d 9433 1bbd bc35 dabb
00000060: 6f44 273c 9049 28bd 934f d93c aab2 d53d
00000070: ebb1 823c 86be 98bd 8e67 323d 5bd1 883d
00000080: e960 4b3c 4f2d 3cbc 2508 4e3d 6148 623a
00000090: b873 a83d 1413 7dbd 0f6e 8b3d 2416 8abc
000000a0: 9c51 8cbb 864b 933c 658f e0bc 6dc4 383d
000000b0: c9ab 6a3d 087a efbc 4ea7 9a39 e9d9 5abd
000000c0: 3642 70bd 2d6d a53d dddb 9b3d 614d db3d
000000d0: 83f8 963d 8d33 d9bc 3993 bf3c 2846 d33c
000000e0: fbcd 12bd 156a 883d 7c0b 20bd b2fe 8cbc
000000f0: 0eec 21bd 5b6c 323c 517b f33c ee3b 913c
00000100: e5f9 673d 92ea 89bd 8e4f 2abd 67a9 bf3d
00000110: 4808 5a3d 0aea 923c 8f5b a43d 9eb8 91bd
00000120: 74c2 853d fec4 433c b7e5 85bd 9ca4 b93d
00000130: e1d7 003e e80b 083e 8b50 083e 4e8f 20bd
00000140: c1a3 a33d b01f 3dbd e17d 913d 0108 9c3c
00000150: 6b27 133d e6c8 e63d cb75 6bb9 5be4 a7bc
00000160: f91b ae3c a96d 81bd 798c 10bd 37c5 ed3c
00000170: 181f 453c 8c08 0c3d c043 ea3b 9ede 46bc
00000180: c1df 0ebb c130 6fbd 2f0a 93bd 4945 bc3d
00000190: 038b 0ebc 2d6a e53c e818 0c3d 4c93 e33c
000001a0: cea8 e13c f18b a43c 998d b33c 67bf 95bd
000001b0: 96dd dd3c d69f 94bd 40d7 75bd f802 f33c
000001c0: f257 22bd a29b 5d3d 9786 18bd 3729 52bd
000001d0: 73e6 62bd e34b 62bd 35c6 8e3d a802 cd3c
000001e0: 70ce 8bbd 9575 9e3d 7c9b 5bbd d7ad b73a
000001f0: 5112 633d 6808 89bd 8ed9 28bd bf93 43bd
00000200: 0898 65bc bc4e 9e3c f88d f8bc c840 85bd
00000210: a069 60bb ada9 88bd f81c 073c e990 70bd
00000220: 30a2 29bd 0ecb fcbc e0c1 8a3b 20ff 573b
00000230: 6c51 87bc b674 96bd 904e 62bc 30ae 11bd
00000240: fc92 943c 0eb8 6ebd c0e5 f13a d32e 65bd
00000250: 0867 1e3c 6021 1dbb 9f94 9dbc e779 103d
00000260: ba7a b8bc fafa 953d 6889 0a3d 2d6f ae3d
00000270: 592e c43d 85c4 8f3d 6010 503d 7ee5 60bd
00000280: 6328 bd3d 616d f03c 34cf ae3d b6e1 3c3d
00000290: 70ff cfbc 38cb 8abc ee6c f33d 8cab 943c
000002a0: 4d1d 0abc ca58 39bd 5b3d bb3d e775 cd3d
000002b0: e80c 0bbd 58f3 36bd 2049 953d 73b6 413c
000002c0: 07a0 81bd 0a61 423d d1dc 2dbd 170c 433d
000002d0: 34f5 7e3c 5731 54bb b47b 4e3d 2a7f 79bd
000002e0: 932a 653c 50c4 97bc c669 e53c 892a 73bc
000002f0: 20b3 973c ff6b 8d3b 586b 47bd 6a74 c23c
00000300: a98f 47bd d214 fcbb add3 c6bb 3b6b 98bb
00000310: f959 563d f6ae d2bc 0ffe 15bd 7562 963c
00000320: 20f2 943d 2055 8a3d 39a6 32bc 6c30 303d
00000330: ab6c 9ebd 965b 48bc 3e79 99bd 94bf 743d
00000340: 3b24 e33b 8ed1 6d3c 92dc 46bd 38ac 8ebd
00000350: 0fe3 0ebd bcf1 043d 293f 5a3d 5ece 9bbd
00000360: 4665 ab3c 09d4 aebd 2541 7dbd d9e7 46bd
00000370: d7df 83bb bd40 9f3d 1229 dbbd 786a 93bb
00000380: 592a c03c 68fc 633d e653 8fbc 3843 bc3d
00000390: 26f1 33bc 082d afb6 ae95 e73d 4fd4 e5bb
000003a0: e81e 723c b155 1e3d 8593 1b3d 4321 d43d
000003b0: cae1 d53c 9908 33bc ef6f debc ee7d 0dbd
000003c0: 7555 55bc 1548 ad3c 4775 2a3d c666 0bbc
000003d0: 90ba 17bc 7d01 f63d 1f53 aa3d 7975 c73d
000003e0: 3b59 313d 2df2 883d a1ed 753b c5d3 ecbb
000003f0: 58f8 97bd 34c3 de3c e15c eabc c9e3 043d

conv2.bias f4 [16]
-0.0060759275 0.064887896 -0.0043077087 0.049154416 0.058127344 -0.050001796 0.010364744 -0.057455096
0.059264615 0.047835425 -0.05104157 -0.020065553 0.037413683 -0.05822682 0.07855709 0.012986577
00000000: 9318 c7bb f2e3 843d ae27 8dbb 2456 493d
00000010: f016 6e3d afce 4cbd e3d0 293c 0956 6bbd
00000020: 74bf 723d 14ef 433d f710 51bd 8460 a4bc
00000030: 173f 193d 3f7f 6ebd 8ae2 a03d a7c5 543c

fc1.weight f4 [120, 256]
0.0051527135 0.052826647 0.027402049 -0.06373487 0.035772663 -0.0011168817 -0.057894927 -0.06583852
-0.003019663 0.0032289706 0.0047050896 0.0044213436 -0.01871796 0.04633115 0.0238748 -0.057578627
-0.014758613 0.0052741407 0.028611341 -0.05789807 0.02488096 0.04369499 0.0056343656 0.0053010234
-0.019860571 0.027539955 0.04699382 -0.013888067 -0.053971186 0.03694856 0.028770862 -0.049205694
-0.0033799256 0.05492161 0.048337698 -0.054736104 -0.035350535 -0.06538336 0.05968356 -0.04254551
-0.052296802 -0.030586494 -0.015690064 -0.037163697 -0.005589824 0.03935101 -0.009793382 0.04689593
-0.04410264 0.0066058114 0.048360217 -0.00667825 0.022743372 -0.021518156 0.05423342 0.03894916
-0.06005203 0.059343167 0.011309682 0.012092838 -0.050572447 -0.03000658 0.0017572939 -0.019800417
0.05404827 -0.031186456 -0.009378369 0.022512626 -0.057602722 -0.005353834 -0.058289908 -0.034240384
0.030849399 -0.009358511 -0.0033523634 0.021399744 -0.034492213 -0.043634422 -0.0065967334 0.045563065
0.035076406 -0.00021635115 0.018160108 0.0069864322 -0.028671661 -0.05396497 -0.027496219 -0.04710283
-0.014722779 -0.0055418494 0.028181233 -0.0036788136 -0.010465387 -0.032735262 -0.017333835 0.018572146
-0.010399126 0.010042936 -0.021120796 0.025014771 0.048069984 -0.003602783 -0.04978707 0.035404928
0.018692942 -0.04433511 -0.06628317 0.0100085195 0.0041587194 -0.051555507 -0.045074128 -0.04422318
0.032074947 -0.01725487 -0.057098698 0.01315539 0.027375871 -0.024785042 0.023170203 0.0010001162
-0.045720447 0.03792429 0.046822913 -0.006929199 0.058757067 0.01018481 -0.060639996 -0.05158552
0.044893775 0.012147614 0.046345662 0.035568364 0.045871656 -0.029578729 0.040461402 -0.021106435
0.025325423 -0.032410182 0.043886177 -0.010858439 -0.010723742 0.01933244 -0.012070165 -0.0026199948
0.019111488 -0.05752076 -0.041405153 -0.06703107 0.04084223 -0.050589316 -0.020872828 0.035701618
-0.072817616 -0.007929933 0.018011896 -0.0595888 -0.043218404 0.02174182 0.038873836 -0.05238917
-0.027955404 -0.008623795 -0.011950728 0.051054306 0.025910895 0.031913757 -0.009040799 -0.001710341
-0.014253967 0.006895995 -0.03218946 -0.036785383 0.046465028 -0.027369814 0.045649517 -0.011092844
0.027381122 -0.020764355 0.04694712 0.047720183 0.019569822 -0.05078024 0.03088006 0.00042808312
0.045624163 0.017498977 0.052175615 -0.0227168 0.053942498 -0.06801938 0.041060325 0.024275487
-0.026893323 0.0066694086 0.049009416 -0.02880587 -0.069490254 0.043303803 -0.032762025 -0.027902586
-0.05296908 -0.0040211445 -0.023404257 -0.061269145 -0.052454956 -0.046192337 0.008185827 -0.023943853
0.007046104 -0.023550583 0.045084413 -0.04438199 -0.037368186 -0.040338278 -0.043297693 0.035270322
0.02032453 0.043148275 0.04937483 -0.003734109 -0.05379909 -0.07067976 -0.04371695 0.04884924
-0.04324651 -0.046197776 -0.036974676 0.04013286 0.012514756 -0.018086936 -0.069536395 0.014249963
0.04462704 0.028644362 -0.06953894 -0.016249217 -0.05663815 -0.06471742 -0.0016274152 0.03671478
-0.045155365 0.04774087 -0.054761507 -0.032748386 0.037633345 -0.0002949963 -0.0079367915 0.044411294
-0.047418244 -0.06060696 -0.06031198 -0.059251502 -0.06644932 -0.019680308 0.02421092 -0.034824792
00000000: 18d8 a83b c160 583d 437a e03c 6d87 82bd
00000010: 5b86 123d 5564 92ba 3b23 6dbd 59d6 86bd
00000020: 8ae5 45bb 239d 533b 272d 9a3b ebe0 903b
00000030: 6856 99bc bbc5 3d3d 1695 c33c 91d7 6bbd
00000040: 1cce 71bc b3d2 ac3b 5562 ea3c 8726 6dbd
00000050: 28d3 cb3c 85f9 323d 7ca0 b83b 35b4 ad3b
00000060: a3b2 a2bc 799b e13c 987c 403d c68a 63bc
00000070: e410 5dbd 6057 173d dfb0 eb3c e98b 49bd
00000080: be81 5dbb 7bf5 603d c0fd 453d f732 60bd
00000090: b9cb 10bd b6e7 85bd c076 743d 3344 2ebd
000000a0: 2c35 56bd 8790 fabc 7388 80bc f638 18bd
000000b0: d82a b7bb 862e 213d 6c74 20bc f215 403d
000000c0: f8a4 34bd 9075 d83b 5d15 463d 39d5 dabb
000000d0: 4f50 ba3c d846 b0bc dd23 5e3d 2889 1f3d
000000e0: 1ef9 75bd d211 733d 3f4c 393c 0a21 463c
000000f0: 0e25 4fbd 5cd0 f5bc 0055 e63a 7c34 a2bc
00000100: b861 5d3d bd7a ffbc bba7 19bc 666c b83c
00000110: d5f0 6bbd 376f afbb 66c1 6ebd a53f 0cbd
00000120: e1b7 fc3c 7154 19bc 53b3 5bbb 844e af3c
00000130: b547 0dbd 02ba 32bd 6929 d8bb 56a0 3a3d
00000140: 47ac 0f3d 52dc 62b9 82c4 943c 71ee e43b
00000150: d5e0 eabc 5f0a 5dbd c03f e1bc e6ee 40bd
00000160: d037 71bc 6798 b5bb 54dc e63c 4018 71bb
00000170: 0477 2bbc 6915 06bd b0ff 8dbc 9d24 983c
00000180: 1961 2abc 208b 243c 8505 adbc c7eb cc3c
00000190: 08e5 443d ab1c 6cbb 87ed 4bbd c204 113d
000001a0: f121 993c bb98 35bd 78bf 87bd c6fa 233c
000001b0: de45 883b de2b 53bd a69f 38bd 5d23 35bd
000001c0: 0561 033d 165a 8dbc 53e0 69bd b489 573c
000001d0: 5d43 e03c 000a cbbc 70cf bd3c 5516 833a
000001e0: 5d45 3bbd 8056 1b3d 62c9 3f3d 560e e3bb
000001f0: 40ab 703d 30de 263c a561 78bd 574b 53bd
00000200: 89e2 373d c906 473c f3d4 3d3d 22b0 113d
00000210: ebe3 3b3d 174f f2bc dbba 253d 67e7 acbc
00000220: 4377 cf3c 8ac0 04bd fec1 333d 98e7 31bc
00000230: a2b2 2fbc 115f 9e3c f1c1 45bc 38b4 2bbb
00000240: b28f 9c3c e39a 6bbd 7398 29bd 9647 89bd
00000250: 2f4a 273d be36 4fbd 7efd aabc dc3b 123d
00000260: 6721 95bd 8dec 01bc af8d 933c 6313 74bd
00000270: c805 31bd e71b b23c 2c3a 1f3d 0796 56bd
00000280: bb02 e5bc d14a 0dbc fccc 43bc 521e 513d
00000290: 1643 d43c 00b8 023d dc1f 14bc 852d e0ba
000002a0: 7989 69bc ccf7 e13b 18d9 03bd 45ac 16bd
000002b0: 1d52 3e3d a936 e0bc fdfa 3a3d c3be 35bc
000002c0: 604e e03c 021a aabc a04b 403d 3d76 433d
000002d0: e450 a03c f1fe 4fbd 2ef8 fc3c 5870 e039
000002e0: 67e0 3a3d 045a 8f3c 19b6 553d 9518 babc
000002f0: cff2 5c3d bf4d 8bbd df2e 283d 63dd c63c
00000300: 634f dcbc 0e8b da3b 19be 483d 4afa ebbc
00000310: e850 8ebd 545f 313d 7931 06bd f793 e4bc
00000320: 1bf6 58bd cec3 83bb 49ba bfbc 5bf5 7abd
00000330: 02db 56bd 2d34 3dbd d91d 063c e625 c4bc
00000340: 01e3 e63b 27ed c0bc 6faa 383d e4c9 35bd
00000350: 620f 19bd c039 25bd ec58 31bd 9d77 103d
00000360: a17f a63c 3fbc 303d 433d 4a3d f4b7 74bb
00000370: 6f5c 5cbd 8dc0 90bd 8b10 33bd 2416 483d
00000380: 4123 31bd e139 3dbd c272 17bd 5b62 243d
00000390: b10a 4d3c 0e2b 94bc 1969 8ebd ad78 693c
000003a0: d8ca 363d 95a7 ea3c 6f6a 8ebd 141d 85bc
000003b0: 68fd 67bd 918a 84bd fe4e d5ba 3d62 163d
000003c0: d5f4 38bd ee8b 433d 9a4d 60bd 2c23 06bd
000003d0: 6c25 1a3d bca9 9ab9 5109 02bc 9ee8 353d
000003e0: a239 42bd 013f 78bd b209 77bd b4b1 72bd
000003f0: 9516 88bd 9938 a1bc fb55 c63c 71a4 0ebd

fc1.bias f4 [120]
0.048484594 0.024703475 -0.044447638 -0.044972457 0.005393004 -0.047109824 0.040213447 -0.028395012
0.048567608 0.06530754 -0.041246574 0.032678444 0.015821926 -0.005664648 0.005140929 -0.044671617
-0.0220142 0.030520461 0.048304345 -0.013159914 0.032398596 0.049677692 -0.030489055 -0.0007859411
-0.0066644936 0.0017001624 -0.06116757 -0.054163665 -0.028512426 -0.0022768895 -0.00702607 0.03286701
-0.06108824 0.0041510593 0.024927046 0.041178025 0.049232274 0.024169527 0.04136478 -0.05095762
-0.004322707 0.018202199 -0.008710949 -0.043986112 -0.023122085 0.051245674 -0.007548755 -0.012700859
0.008769766 -0.012545986 0.029787991 0.04394411 0.04412711 0.011681694 0.012960131 -0.039794702
-0.03453091 -0.050354924 0.06693069 0.025193196 -0.012230701 -0.0044389586 0.011410727 0.0036459304
-0.054319236 -0.04374016 0.032710556 -0.027557405 -0.040597487 -0.008456174 0.048184507 0.051418997
0.050165843 -0.025935449 -0.018370813 -0.0508632 0.014428444 -0.005345273 0.055968307 -0.059723087
0.05942282 0.02390988 -0.0060888976 -0.006997195 0.030781927 -0.024973407 0.06421615 0.00019421472
-0.061885677 -0.022990406 -0.029612288 0.011453226 0.03637881 0.038226537 0.07011282 -0.05788264
0.023073172 0.0012389123 0.041639496 0.045600705 -0.06400802 0.061183397 0.018747294 0.01598897
0.039058276 0.045216225 0.058947142 0.044608645 -0.03815337 -0.06775731 0.047355495 0.0416476
-0.022645831 -0.0041536135 -0.0076472913 0.049068306 -0.04189441 -0.005769539 -0.016059088 -0.005961044
00000000: c897 463d f15e ca3c ba0e 36bd 0a35 38bd
00000010: ccb7 b03b 3bf6 40bd dbb6 243d a89c e8bc
00000020: d4ee 463d f6bf 853d 2bf2 28bd d5d9 053d
00000030: fc9c 813c 839e b9bb 3d75 a83b 96f9 36bd
00000040: 2057 b4bc 0c06 fa3c c7da 453d ae9c 57bc
00000050: 64b4 043d d67a 4b3d 2fc4 f9bc 9d07 4eba
00000060: d361 dabb fcd7 de3a d98a 7abd b8da 5dbd
00000070: e492 e9bc de37 15bb f23a e6bb 8f9f 063d
00000080: aa37 7abd 9c05 883b ce33 cc3c 4aaa 283d
00000090: c8a7 493d 2cff c53c 1e6e 293d f0b8 50bd
000000a0: 7fa5 8dbb c71c 953c 5eb8 0ebc c82a 34bd
000000b0: 876a bdbc fce6 513d 8c5b f7bb 4417 50bc
000000c0: 11af 0f3c ae8d 4dbc f205 f43c bdfe 333d
000000d0: a1be 343d 9364 3f3c bb56 543c c5ff 22bd
000000e0: 4970 0dbd f740 4ebd f512 893d f661 ce3c
000000f0: 4763 48bc af74 91bb 0ff4 3a3c 90f0 6e3b
00000100: d97d 5ebd e228 33bd 81fb 053d 11c0 e1bc
00000110: 8d49 26bd c48b 0abc 1e5d 453d ba9c 523d
00000120: b37a 4d3d 9476 d4bc 637e 96bc ee55 50bd
00000130: 4865 6c3c 6627 afbb 063f 653d 32a0 74bd
00000140: 5865 733d a7de c33c 6085 c7bb ba48 e5bb
00000150: 612a fc3c 0895 ccbc c283 833d 1ea6 4b39
00000160: d67b 7dbd 6056 bcbc 7895 f2bc 50a6 3b3c
00000170: f201 153d 6e93 1c3d 4f97 8f3d 5916 6dbd
00000180: f303 bd3c 0063 a23a 2d8e 2a3d cec7 3a3d
00000190: a316 83bd 719b 7a3d ed93 993c 4dfb 823c
000001a0: 92fb 1f3d a634 393d 8f72 713d 8eb7 363d
000001b0: b546 1cbd 58c4 8abd d6f7 413d ac96 2a3d
000001c0: c083 b9bc 091b 88bb 2196 fabb d9fb 483d
000001d0: 7999 2bbd 670e bdbb 598e 83bc dd54 c3bb

fc2.weight f4 [84, 120]
0.04445015 0.060484763 0.07476945 0.025760554 -0.083042964 -0.065620705 0.020524241 0.06803487
0.077186435 -0.073311485 -0.0057381317 0.03155199 -0.033519894 -0.044633705 -0.08014204 -0.037641812
-0.016225144 0.014836464 0.025424846 -0.07388401 -0.09093669 -0.07121 -0.047508962 -0.012312624
-0.08109846 -0.038502946 0.013452865 -0.05830732 0.03442961 0.06840609 0.08732228 -0.016787946
-0.0041601807 0.057085693 0.037505805 0.055640038 0.048251018 0.00328625 0.03487056 -0.043211624
0.0041842544 -0.080160305 -0.0021691844 -0.053238597 0.053159833 -0.03283804 -0.007610315 -0.008106291
0.058795556 -0.05003352 0.075391844 0.05605465 0.01127968 -0.030773653 0.07940028 -0.08011895
0.0026267767 -0.086084284 0.08656216 -0.03225172 0.039960027 0.010064825 -0.03079964 0.07940505
0.08324045 -0.01925271 -0.069846235 0.07135764 0.013937131 0.017625019 -0.063684106 0.07799768
0.0058983993 0.049708173 -0.0150515735 0.051957935 -0.036197465 -0.06225779 0.057019185 0.025451928
-0.01956836 -0.06768951 -0.051127017 0.087047726 -0.035756655 0.07438183 -0.017268484 -0.04790168
-0.07403807 0.052623983 -0.04701911 0.048009768 0.07528801 -0.024048056 -0.088736445 0.08632749
0.016225515 0.06593642 -0.039554458 0.01759656 -0.025839567 -0.04082196 -0.013542518 -0.016587742
-0.050054424 0.07284893 -0.0068022483 -0.0067360923 0.07514395 -0.055948194 -0.035521403 0.06389116
-0.0769526 0.005222857 -0.041960485 -0.013909278 -0.04859924 0.0068110526 -0.079752736 0.08278738
0.048394024 0.003995098 -0.08097927 -0.0332164 -0.012505718 0.0443459 -0.07358647 -0.03050631
-0.046204668 0.020177558 -0.022484452 -0.017475463 -0.06809219 0.008097559 -0.049594037 -0.04616461
-0.018905342 0.028414138 -0.06755774 0.07753047 0.025241747 -0.06787783 0.055243388 0.085040614
0.08155073 0.010090224 -0.05953854 0.08979803 0.06874597 -0.025105208 0.0833891 0.04106562
-0.028755218 0.0037549958 0.0008844137 0.052707657 0.09057106 0.0007555634 0.0066115037 -0.053644832
-0.07967531 0.077264816 0.03656675 0.073664784 -0.014029719 0.08302054 -0.06000231 -0.067664534
-0.022217125 0.019889109 0.0125566125 -0.08194531 -0.009081468 0.076232806 0.041125342 -0.050443377
-0.06404715 0.034163356 -0.03825147 -0.05644794 0.029519528 0.013649903 0.04723075 0.07890585
-0.09047907 -0.06997862 -0.066136226 0.038510084 -0.032208003 0.07456446 0.05714546 -0.06590818
-0.0056488886 0.06596066 -0.056652363 -0.07887683 0.08293171 0.07359664 0.06615226 0.06904478
-0.006168276 -0.04268061 -0.07685744 -0.05897551 -0.028533354 0.025767975 0.041440666 0.04658702
-0.02068875 0.009940833 -0.02840466 -0.0341679 0.035888046 -0.06777476 0.08431564 0.015727445
0.07847409 0.03163688 -0.061277397 -0.040293276 0.042002827 0.06217882 -0.0032269508 0.041436374
0.039929926 -0.057456683 -0.057050917 0.06636718 0.059825376 -0.06467721 -0.032220744 0.048036724
-0.08012569 -0.015211485 -0.05420554 -0.05661667 0.016633943 -0.08281817 -0.06833951 -0.035656963
0.015605482 -0.06997112 -0.06425058 -0.016145587 0.0021505728 0.01080436 -0.014324952 0.084321514
-0.0666786 0.042937867 -0.0947355 0.054076623 -0.079220235 0.06576049 -0.011688377 -0.012463556
00000000: 5c11 363d dfbe 773d ba20 993d cc07 d33c
00000010: 6e12 aabd 2664 86bd 7422 a83c de55 8b3d
00000020: ec13 9e3d 5524 96bd f006 bcbb a93c 013d
00000030: 284c 09bd d5d1 36bd 8321 a4bd 4d2e 1abd
00000040: 98ea 84bc a414 733c c447 d03c 8050 97bd
00000050: 043d babd 8cd6 91bd c298 42bd e3ba 49bc
00000060: f316 a6bd 44b5 1dbd 6869 5c3c a8d3 6ebd
00000070: 1006 0d3d 7e18 8c3d 06d6 b23d e086 89bc
00000080: 2052 88bb b0d2 693d b09f 193d cfe6 633d
00000090: dca2 453d 205e 573b 6fd4 0e3d acfe 30bd
000000a0: 121c 893b 162b a4bd e028 0ebb b710 5abd
000000b0: 20be 593d 2e81 06bd f35f f9bb 40d0 04bc
000000c0: 9cd3 703d f3ef 4cbd 0a67 9a3d 9099 653d
000000d0: 68ce 383c 0719 fcbc 9d9c a23d 6715 a4bd
000000e0: 0026 2c3b f54c b0bd 8047 b13d 611a 04bd
000000f0: 20ad 233d f0e6 243c 874f fcbc 1d9f a23d
00000100: f879 aa3d dcb7 9dbc 8b0b 8fbd f423 923d
00000110: 9058 643c 5862 903c d06c 82bd 3fbd 9f3d
00000120: 5c47 c13b cc9a 4b3d e09a 76bc d8d1 543d
00000130: cb43 14bd 0602 7fbd f38c 693d 9080 d03c
00000140: d34d a0bc cca0 8abd 906a 51bd 1446 b23d
00000150: 9275 12bd 8055 983d a376 8dbc 8d34 44bd
00000160: 46a1 97bd 3f8c 573d 1c97 40bd e4a5 443d
00000170: 9a30 9a3d 6e00 c5bc 74bb b5bd 78cc b03d
00000180: 5feb 843c ac09 873d db03 22bd a926 903c
00000190: 80ad d3bc ed34 27bd 70e1 5dbc 04e3 87bc
000001a0: de05 4dbd d231 953d 65e5 debb 70ba dcbb
000001b0: 12e5 993d ef29 65bd e47e 11bd 5ed9 823d
000001c0: 5399 9dbd 8024 ab3b c2de 2bbd bee3 63bc
000001d0: ff0f 47bd 402f df3b 6755 a3bd 6e8c a93d
000001e0: d038 463d 50e9 823b 76d8 a5bd eb0d 08bd
000001f0: c8e4 4cbc 0ca4 353d 81b4 96bd 5ee8 f9bc
00000200: 1b41 3dbd 684b a53c 5031 b8bc b428 8fbc
00000210: eb73 8bbd a0ab 043c 1e23 4bbd 1a17 3dbd
00000220: 60df 9abc c4c4 e83c b65b 8abd 4cc8 9e3d
00000230: c8c7 ce3c 8803 8bbd e446 623d c629 ae3d
00000240: 1204 a73d 7851 253c afde 73bd 08e8 b73d
00000250: b0ca 8c3d 70a9 cdbc e8c7 aa3d 6c34 283d
00000260: 1090 ebbc 6016 763b 00d8 673a fce3 573d
00000270: 527d b93d 0011 463a 50a5 d83b afba 5bbd
00000280: cf2c a3bd 043d 9e3d 04c7 153d 90dd 963d
00000290: e8dc 65bc ac06 aa3d fbc4 75bd b493 8abd
000002a0: b000 b6bc 7cee a23c 40ba 4d3c f1d2 a7bd
000002b0: 70ca 14bc f21f 9c3d 0c73 283d b79d 4ebd
000002c0: 272b 83bd e0ee 0b3d 93ad 1cbd f535 67bd
000002d0: f0d2 f13c d8a3 5f3c 0875 413d 6499 a13d
000002e0: 174d b9bd f350 8fbd 6e72 87bd c0bc 1d3d
000002f0: 8aec 03bd 40b5 983d 5c11 6a3d defa 86bd
00000300: 501a b9bb 6216 873d 4f0c 68bd 2d8a a1bd
00000310: 1ad8 a93d d6b9 963d d67a 873d 5a67 8d3d
00000320: 401f cabb ddd1 2ebd 6f67 9dbd 4e90 71bd
00000330: c8be e9bc 5c17 d33c b0bd 293d 08d2 3e3d
00000340: 747b a9bc e0de 223c e4b0 e8bc a4f3 0bbd
00000350: 58ff 123d 7ecd 8abd aead ac3d d8d6 803c
00000360: 06b7 a03d ac95 013d 02fe 7abd 900a 25bd
00000370: 280b 2c3d 38af 7e3d 407b 53bb 30b9 293d
00000380: 908d 233d b357 6bbd 39ae 69bd 84eb 873d
00000390: 740b 753d 7c75 84bd e6f9 03bd 28c2 443d
000003a0: f018 a4bd 9839 79bc a106 5ebd e2e6 67bd
000003b0: e843 883c 939c a9bd 96f5 8bbd 090d 12bd
000003c0: 23ae 7f3c 054d 8fbd cf95 83bd c043 84bc
000003d0: a0f0 0c3b c504 313c 34b3 6abc c2b0 ac3d
000003e0: ca8e 88bd 9edf 2f3d b004 c2bd 737f 5d3d
000003f0: 383e a2bd 70ad 863d 9b80 3fbc f133 4cbc

fc2.bias f4 [84]
-0.058933105 -0.0020277053 -0.050026715 -0.08922785 -0.051092494 -0.021721277 0.07280117 0.014301025
-0.00865521 0.06700946 0.06919537 0.037777144 0.009096453 0.019255957 0.009487387 0.0071951775
-0.03969622 -0.03721202 -0.020462707 -0.007537842 -0.05267406 -0.032998968 0.006706277 -0.012352594
-0.018108057 0.026198171 -0.044137966 0.08515313 0.015096517 0.041815903 0.052579425 0.0018343199
0.04707635 -0.020363832 0.07035976 0.02665586 -0.041115787 -0.014130413 -0.0019901912 0.03523284
-0.029961128 -0.02061891 -0.04880613 0.05189128 -0.03574908 0.0032317042 0.06192104 -0.021614099
-0.028842509 0.03861852 0.018763022 -0.016898934 0.040610563 -0.08335426 0.020774212 -0.070559874
0.026617447 -0.010384941 -0.071088865 -0.017873926 0.072113834 -0.029809896 0.04385636 -0.09308042
-0.028305415 0.06963954 0.063591495 0.0062668263 -0.023173243 0.021631306 0.00031860927 0.021835703
0.057883754 0.080721706 0.03981911 -0.031988952 -0.042554364 -0.02695411 -0.051459745 0.0009123319
-0.03971403 -0.014380096 -0.06351576 0.07387198
00000000: d763 71bd 40e3 04bb d0e8 4cbd 17bd b6bd
00000010: 5d46 51bd d2f0 b1bc c818 953d d94e 6a3c
00000020: 95ce 0dbc 413c 893d 4db6 8d3d 35bc 1a3d
00000030: 4a09 153c abbe 9d3c fc70 1b3c 86c5 eb3b
00000040: 8198 22bd a26b 18bd 68a1 a7bc 0000 f7bb
00000050: c1c0 57bd ed29 07bd 54c0 db3b 8962 4abc
00000060: 5957 94bc 8c9d d63c 03ca 34bd c464 ae3d
00000070: 6257 773c 2747 2b3d 865d 573d 906d f03a
00000080: 21d3 403d 0dd2 a6bc c718 903d 645d da3c
00000090: 0769 28bd 3f83 67bc de6d 02bb 4f50 103d
000000a0: 0a71 f5bc fde8 a8bc f0e8 47bd f38b 543d
000000b0: a16d 12bd 00cb 533b eba0 7d3d 0d10 b1bc
000000c0: 2047 ecbc 742e 1e3d e9b4 993c a26f 8abc
000000d0: 4357 263d a3b5 aabd ae2e aa3c b281 90bd
000000e0: d50c da3c 9925 2abc 0a97 91bd 576c 92bc
000000f0: 6bb0 933d e233 f4bc baa2 333d f2a0 bebd
00000100: c2e0 e7bc 2d9f 8e3d 423c 823d f359 cd3b
00000110: d0d5 bdbc 2334 b13c 030b a739 cae0 b23c
00000120: 8417 6d3d 6c51 a53d 5d19 233d d906 03bd
00000130: 7c4d 2ebd dece dcbc 74c7 52bd 8f29 6f3a
00000140: 2eab 22bd 7f9a 6bbc 8d14 82bd 314a 973d

fc3.weight f4 [1, 84]
-0.09378966 -0.006917715 -0.004527012 -0.041756667 -0.06882821 -0.039882977 -0.086410955 0.064213715
-0.12908421 -0.02012145 -0.032925047 -0.06219466 0.01907596 0.032140534 0.003115281 0.08432471
-0.0400087 0.0962929 -0.10364314 -0.00085610896 1.1354685e-05 -0.08350207 -0.12677321 -0.014521587
0.0058533037 0.05501894 0.13784736 -0.044585437 0.07366634 -0.076463364 0.02348419 0.11615474
-0.12896405 -0.02977205 -0.121054515 -0.120045155 0.07184096 -0.102496505 0.07284649 -0.102922186
-0.07268047 0.047669154 0.12422455 0.05228018 0.03413368 -0.09227235 -0.053994592 0.13200048
0.094638266 0.05565989 -0.027592542 0.116193354 -0.05368748 0.017258026 -0.074814506 -0.039904878
-0.07049396 0.055990703 -0.021832336 0.08524341 -0.1151165 -0.10020059 0.01652393 -0.016431445
-0.0036055117 0.121275924 0.096353926 -0.006709348 0.11211104 -0.117652446 -0.10876449 -0.058691174
-0.021221977 -0.10682944 0.05818784 0.034662195 -0.08622322 -0.0003405922 0.056777377 -0.07006235
0.12094443 0.036730036 0.042019855 -0.0735053
00000000: cb14 c0bd 00ae e2bb 5457 94bb 0a09 2bbd
00000010: cef5 8cbd 555c 23bd 3af8 b0bd 7b82 833d
00000020: a72e 04be bdd5 a4bc 6adc 06bd d4bf 7ebd
00000030: 3045 9c3c cba5 033d be29 4c3b 6fb2 ac3d
00000040: 2ae0 23bd 3635 c53d db42 d4bd 806c 60ba
00000050: 0080 3e37 2203 abbd d6d0 01be f3eb 6dbc
00000060: 12cd bf3b 8a5b 613d dc27 0d3e 389f 36bd
00000070: 61de 963d d398 9cbd eb61 c03c 89e2 ed3d
00000080: 270f 04be 84e4 f3bc 6eeb f7bd 3cda f5bd
00000090: 5a21 933d b0e9 d1bd 8a30 953d dec8 d2bd
000000a0: 80d9 94bd bb40 433d 7169 fe3d be23 563d
000000b0: c2cf 0b3d 49f9 bcbd 6f29 5dbd 222b 073e
000000c0: b5d1 c13d a0fb 633d c109 e2bc c8f6 ed3d
000000d0: 67e7 5bbd b460 8d3c 5938 99bd 4c73 23bd
000000e0: 235f 90bd 8256 653d bad9 b2bc 1994 ae3d
000000f0: 33c2 ebbd f835 cdbd 315d 873c 3d9b 86bc
00000100: 734a 6cbb 835f f83d 3555 c53d 17da dbbb
00000110: 799a e53d c4f3 f0bd ebbf debd 2866 70bd
00000120: b6d9 adbc 65c9 dabd 5f56 6e3d f2f9 0d3d
00000130: cd95 b0bd 8391 b2b9 658f 683d d97c 8fbd
00000140: b7b1 f73d 3c72 163d 031d 2c3d f289 96bd
