Week7/checkpoint/checkpoint_epoch_5.pth (torch, 178450 bytes, 9 tensors)

conv1.weight f4 [6, 1, 5, 5]
000000 7c 35 ac 3d 6b 92 e4 3c 76 67 92 3d c6 e7 00 be
       0.08408639 0.027901849 0.0714864 -0.12588415
000010 d0 93 23 be 08 6a 51 3e 75 fa 19 bc 22 eb 4f be
       -0.15974355 0.20450604 -0.0093980925 -0.2030454
000020 c1 33 1c bd cd 96 43 3d 78 1a 10 bd fa 01 1a be
       -0.038135294 0.047751237 -0.035181493 -0.15039816
000030 0f 65 fb 3d 6c e8 15 be 9d 6a 47 bb 39 23 3c be
       0.12275135 -0.14639443 -0.0030428537 -0.18372811
000040 2d 5a 8b 3d 1f 69 24 be be 08 af 3d 64 9a 09 3e
       0.06804309 -0.16055726 0.08546589 0.13437802
000050 b7 8a 54 3d c8 c4 12 3e 1c fc 1f be 22 2c 1b 3e
       0.0518901 0.14332879 -0.15623516 0.15153554
000060 10 a0 21 3e bd 67 42 bd 39 3a d7 3d eb 1c 8b 3d
       0.15783715 -0.047462214 0.10509152 0.06792625
000070 f7 d2 4e be a6 ae d9 3d fd 74 09 bd 00 a0 8e 3d
       -0.20197664 0.10629015 -0.033558834 0.06964111
000080 fd 31 09 be 70 c2 17 3e 2e 9e db 3d b3 a4 f5 3b
       -0.13397975 0.14820266 0.1072353 0.0074964403
000090 44 27 b1 bd f0 c7 a2 bd 8d 4d 16 3d fe 9a 34 bd
       -0.086500674 -0.07948291 0.036695052 -0.044093125
0000a0 45 96 12 be 82 ab 57 bc b3 97 3d 3e 40 0c 98 3d
       -0.14315136 -0.013163449 0.185149 0.074242115
0000b0 dc 18 1c be 89 7d 36 3e 27 d8 e4 3c 0c 95 04 3e
       -0.15243858 0.17821325 0.0279351 0.12947482
0000c0 75 5a ed bc 62 f5 9f bd 41 12 43 3e 6b a8 3e 3d
       -0.028973797 -0.07810475 0.19049932 0.046547335
0000d0 01 fd 08 bb 2c 76 74 bd 12 f6 eb bd f4 a3 9a 3d
       -0.0020902755 -0.05968301 -0.115215436 0.07550803
0000e0 cd 94 9f bd e8 ef c1 bd 6f 22 ca bd 5d e1 ca bd
       -0.07792053 -0.094695866 -0.09869849 -0.09906266
0000f0 85 35 43 3e 10 ff 01 bd 88 7a 48 bc 26 71 e1 bd
       0.19063385 -0.031737387 -0.012236245 -0.110079095
000100 a5 63 f2 3d 1e 6c 84 bd 07 cc af 3d 2e 8c 06 3e
       0.11835412 -0.06465934 0.08583837 0.13139412
000110 ef f7 07 bd 9e e4 5d bd af 62 b9 3d 3d 0e 35 3e
       -0.033195432 -0.054173104 0.090520255 0.17681213
000120 ce 1b 96 bd a8 1f 03 3e 0e c6 ac bd 30 f2 1c bd
       -0.07329522 0.12805045 -0.084362134 -0.038316905
000130 45 d4 50 bd d4 ea 56 3d 53 48 c3 3d a5 dc 21 be
       -0.050983686 0.052470043 0.09535279 -0.15806825
000140 24 54 34 be f5 ab db 3d f0 83 4d bb a2 d0 17 be
       -0.17610222 0.107261576 -0.0031359158 -0.14825681
000150 dc b4 13 be 60 5c 1e be 04 d3 07 3e 5d 19 18 be
       -0.14424461 -0.15464926 0.1326409 -0.14853425
000160 81 81 f3 3d bf 0f a5 bd 8c 77 42 bd 3a ad 55 3e
       0.11889935 -0.08059644 -0.04747729 0.20866862
000170 20 38 26 bc 3f 16 24 3e 4c ef 07 be f5 8d ff bd
       -0.010145217 0.16024111 -0.13274878 -0.12478248
000180 c8 cb 53 3e 2a a6 e9 3c 2f 04 6e bd d5 cb 19 3e
       0.20683205 0.028521616 -0.05810946 0.15019162
000190 4d 50 4d 3e 2e 5b 0b 3e b2 11 11 be 65 96 b9 3d
       0.20050164 0.13609001 -0.14166906 0.090618886
0001a0 b4 38 28 be ed 5a 30 3e 86 70 a8 bd 72 60 12 be
       -0.1642788 0.17222185 -0.08224587 -0.14294603
0001b0 3f 60 19 3e 8f b3 15 3e 13 49 d5 bd 66 a8 20 3e
       0.14978121 0.14619277 -0.104143284 0.15689239
0001c0 b3 c0 36 be 5e 0d fc bd f1 c4 b2 bb 7e cd 20 3e
       -0.17846946 -0.12307237 -0.005455606 0.15703389
0001d0 91 0b 2c 3e 26 dd 94 bd c8 91 32 3e f5 8e 55 3d
       0.16801287 -0.07268743 0.17438424 0.052138288
0001e0 82 9b 77 3d bd e7 03 3e 1f 53 43 3d 03 31 42 3e
       0.06045104 0.1288137 0.047686692 0.18964009
0001f0 10 42 49 be 68 44 f9 bc 52 f9 13 be ed 0c a3 bd
       -0.19654107 -0.030428126 -0.14450577 -0.0796145
000200 60 83 a7 bb 07 4f 3a be 10 15 bf bd 00 3b e0 3c
       -0.0051120967 -0.18194209 -0.09330189 0.027371883
000210 63 96 fd bd c3 5b 4a 3e 77 59 b7 bd ea 43 09 be
       -0.123821996 0.19761567 -0.08952611 -0.13404813
000220 ba 74 98 3d 5a 1b ef bd 99 6b 0d 3e 26 b9 27 be
       0.07444139 -0.11675139 0.13810576 -0.16379222
000230 40 06 a3 bc d0 c7 42 be e3 f8 25 be 08 11 19 bd
       -0.019900441 -0.19021535 -0.16208224 -0.037369758
000240 48 83 3f 3d 98 12 46 bd bd 6e ef bd 82 13 a5 3d
       0.04675606 -0.048357576 -0.116910435 0.080603614
000250 cc 83 33 3d a3 2a b9 bd
       0.043826863 -0.090413354

conv1.bias f4 [6]
000000 4e a4 c1 bc fb eb 98 bd 08 8e 0c be b6 db 3a 3e
       -0.023637917 -0.07466885 -0.13726056 0.18247876
000010 ef 5c d2 3c 7e c8 25 be
       0.02567908 -0.16189763

conv2.weight f4 [16, 6, 5, 5]
000000 dd 51 84 3d 70 01 ed bc 44 9b d6 3d 35 35 2b 3c
       0.06460927 -0.02893135 0.10478833 0.010449697
000010 fb ef 1d bd 78 be a7 3d ea 73 3e 3d fd b4 7e bd
       -0.03855894 0.08190626 0.046497263 -0.062184323
000020 90 e3 6b bd 7f 4a 68 bd e5 0b 53 3d 0d 30 87 bc
       -0.057590067 -0.05671167 0.051525015 -0.016502405
000030 63 18 a3 bd 08 e1 0b bd 82 78 76 bd e9 6a ea bc
       -0.07963636 -0.034150153 -0.06017352 -0.028615432
000040 07 47 57 3d e2 25 1b bc c0 d6 06 bb 46 d8 f9 bc
       0.05255797 -0.009469481 -0.0020574778 -0.030498635
000050 c1 ba 21 3d 58 d1 11 3d 9d 91 40 bd 9e d8 74 bc
       0.039484743 0.035600036 -0.047013868 -0.014944224
000060 bf 24 87 bb 83 9f 3b bd 32 5c 84 3c 52 8b af 3d
       -0.0041242535 -0.04580642 0.016157243 0.08571495
000070 25 07 a4 3b 6c 49 9d bd 3c 0d 03 3d ef c6 52 3d
       0.0050057345 -0.0768002 0.031995043 0.05145925
000080 7b c2 05 3c 2c 39 59 bc 85 7b 40 3d 2b 4b 0c bb
       0.008164044 -0.01325826 0.046992797 -0.0021407108
000090 67 d4 9a 3d bf 69 7e bd 44 ea 8a 3d aa 64 ac bc
       0.07560044 -0.062112566 0.06782964 -0.021044094
0000a0 1a 70 06 bc 31 9a 8f 3c 50 a2 cc bc 4d 51 31 3d
       -0.008205438 0.017529579 -0.02497974 0.043290425
0000b0 93 a7 56 3d 20 03 15 bd 03 76 ad bb e2 5f 54 bd
       0.052405905 -0.036379933 -0.005293609 -0.051849253
0000c0 bf 91 81 bd 5a 8a 9f 3d a5 e2 86 3d 59 ef b4 3d
       -0.06326627 0.0779006 0.06586198 0.088347144
0000d0 f6 6b 71 3d 40 16 ec bc 3a 4c e6 3c 46 5f 80 3c
       0.05894085 -0.028819203 0.02811252 0.01567043
0000e0 ea 63 41 bd 01 57 85 3d b4 98 40 bd fe 3d c3 bc
       -0.047214426 0.06510735 -0.04702063 -0.023833271
0000f0 cd f5 1f bd b7 af fb 3b dc b0 b9 3c 1f 28 12 3c
       -0.039052773 0.007680859 0.022667341 0.008920698
000100 38 cd 5c 3d 63 7a 70 bd ee a5 3a bd 3a ad b0 3d
       0.05390665 -0.058710467 -0.0455684 0.0862679
000110 80 a0 4d 3d e6 e3 b8 3c 99 cd a2 3d ff 22 94 bd
       0.050201893 0.022569608 0.07949371 -0.072332375
000120 9e 59 81 3d 6e 3d 4c 3c 69 f7 7b bd 6d df 85 3d
       0.06315921 0.012465818 -0.061515246 0.06536756
000130 07 bd c1 3d 69 da d0 3d 36 0a d9 3d b3 de 64 bd
       0.09459882 0.101979084 0.10597651 -0.055876445
000140 fd 50 68 3d 31 82 85 bd 0e 6e 51 3d aa e6 3f bb
       0.05671786 -0.06518973 0.051130347 -0.0029281774
000150 d9 94 c0 3c 7a c3 ad 3d 1d 04 b9 bc d9 f2 f6 bc
       0.023508476 0.0848455 -0.02258497 -0.030145096
000160 0b 41 36 3c 40 f8 8a bd 1b a3 49 bd 69 44 58 3c
       0.011123906 -0.06785631 -0.049227815 0.013199904
000170 d5 a3 f6 3a 20 d5 fb 3c 9a 12 19 3a d8 cd f0 bc
       0.0018817136 0.030741274 0.00058392587 -0.029395029
000180 cf 95 ad bc dc da 8d bd ab 9b 99 bd d5 ed b7 3d
       -0.021189598 -0.0692651 -0.075003944 0.0898091
000190 a0 f9 1b bc bb 48 d0 3c af be 03 3d a7 fc da 3c
       -0.009519964 0.025425306 0.032164272 0.026731802
0001a0 70 07 f8 3c 77 f3 96 3c 84 0d 94 3c 3e 07 96 bd
       0.030276984 0.01842664 0.018072851 -0.073256
0001b0 2c 04 d8 3c c9 31 92 bd 58 d9 70 bd 0a c8 e6 3c
       0.026369177 -0.07138402 -0.058801025 0.028171558
0001c0 91 f7 27 bd ff 90 59 3d 71 67 19 bd c8 34 44 bd
       -0.041007582 0.053116795 -0.037452165 -0.0479019
0001d0 4f 23 64 bd 85 c6 66 bd 9f c6 8c 3d 49 5d d0 3c
       -0.055697735 -0.056341667 0.068738215 0.025435107
0001e0 3e c9 8a bd fb 1c 9f 3d bc 10 5e bd 0b 76 d6 3a
       -0.06776665 0.077691995 -0.054215178 0.0016362084
0001f0 a3 b8 65 3d 68 08 89 bd 8e d9 28 bd bf 93 43 bd
       0.056084286 -0.066910565 -0.0412231 -0.047748324
000200 08 98 65 bc bc 4e 9e 3c f8 8d f8 bc c8 40 85 bd
       -0.014013298 0.019324653 -0.030341133 -0.06506497
000210 a0 69 60 bb ad a9 88 bd f8 1c 07 3c e9 90 70 bd
       -0.0034242645 -0.06672988 0.008246653 -0.058731947
000220 30 a2 29 bd 0e cb fc bc e0 c1 8a 3b 20 ff 57 3b
       -0.04141444 -0.030858543 0.0042345375 0.0032958463
000230 6c 51 87 bc b6 74 96 bd 90 4e 62 bc 30 ae 11 bd
       -0.016518317 -0.073464796 -0.013812676 -0.03556651
000240 fc 92 94 3c 0e b8 6e bd c0 e5 f1 3a d3 2e 65 bd
       0.018136494 -0.058280997 0.0018455312 -0.05595286
000250 08 67 1e 3c 60 21 1d bb 1b f6 14 bd 05 22 03 3d
       0.009668119 -0.0023976192 -0.036367517 0.032014865
000260 40 e0 b2 bc 45 2b 68 3d 71 66 c6 3c 99 8c 92 3d
       -0.021835446 0.05668189 0.02421877 0.07155723
000270 96 81 99 3d 99 4f 43 3d a4 40 ff 3c 61 13 8f bd
       0.0749542 0.047683332 0.031158753 -0.06986118
000280 87 5b 94 3d aa 29 2c ba 9c 36 83 3d 92 be 3d 3d
       0.0724402 -0.0006567488 0.064069 0.04632432
000290 05 98 55 bc ac 84 c4 bc 88 d3 c9 3d 5c 06 92 3a
       -0.013036733 -0.023989044 0.098547995 0.0011140811
0002a0 8b 1d 3e 3b ca 3a 15 bd b3 be 90 3d 90 44 a4 3d
       0.0029009308 -0.03643302 0.07067623 0.0802089
0002b0 a0 b5 36 bd 15 8d 0e bd 61 24 96 3d e3 32 69 3c
       -0.044606805 -0.034802515 0.073311575 0.014233324
0002c0 c7 99 86 bd 36 26 4a 3d 5b 54 22 bd 5d a0 41 3d
       -0.065722995 0.049352847 -0.03963123 0.047272075
0002d0 9d d4 7e 3b ac 9e 4f bc 1a 57 18 3d d3 f8 82 bd
       0.0038884052 -0.012672108 0.03719244 -0.06395116
0002e0 49 dc 33 3c ad e4 e8 bc 34 db b2 3c c1 df b3 bc
       0.010977813 -0.028429354 0.02183304 -0.02195728
0002f0 eb 26 13 3c 45 b4 44 ba 99 be 5a bd f9 29 c6 3c
       0.008981447 -0.0007503669 -0.053404424 0.024189936
000300 56 af 5e bd 8b f4 1a bc d5 8b 4c 39 f6 d3 80 bc
       -0.054366432 -0.009457718 0.00019507048 -0.01572607
000310 af 8d 02 3d 3f 1b 1f bd 48 7e 20 bd 8c 73 c9 3c
       0.0318734 -0.038844343 -0.03918293 0.02459123
000320 85 30 8c 3d 66 3b 8a 3d 6f 14 11 bc 5c 38 22 3d
       0.06845192 0.067496106 -0.008854969 0.03960453
000330 14 16 a8 bd 99 43 15 bb 46 5e 81 bd 1d cc 7e 3d
       -0.08207336 -0.0022775887 -0.06316809 0.062206376
000340 79 1f 09 3c d9 d9 74 3c b1 5f 5c bd 29 48 8a bd
       0.00836932 0.014944517 -0.053802196 -0.06752045
000350 46 cd d9 bc a3 3e 02 3d b8 2c 74 3d 4b 79 9c bd
       -0.02658714 0.031798016 0.05961296 -0.07640322
000360 b8 d5 0b 3d eb 53 87 bd 6d 0c 78 bd ec 5d 59 bd
       0.034139365 -0.06607803 -0.060558725 -0.053068087
000370 e5 d2 a3 bc 12 50 9c 3d 4c 25 a7 bd c2 14 e4 3b
       -0.019998023 0.0763246 -0.08161411 0.0069604823
000380 67 43 a2 3c 4b af 10 3d d1 c6 22 bd b3 da 93 3d
       0.01980753 0.035323422 -0.039740387 0.07219448
000390 64 23 cf bc 90 77 ab bc ac 5f d2 3d 25 6a fd bc
       -0.02528543 -0.020931035 0.10272154 -0.030934403
0003a0 e5 94 ad bb 95 6e fd 3c c8 35 d9 3c fd 1a 94 3d
       -0.0052972906 0.030936519 0.026514903 0.0723171
0003b0 99 35 06 b9 ff e3 1e bd d3 22 1f bd e1 b8 15 bd
       -0.00012799203 -0.038791653 -0.03885157 -0.036553267
0003c0 ca f5 f1 bc 11 aa b8 3c 75 c7 a9 3c 27 83 e4 bc
       -0.029536147 0.022542031 0.020724991 -0.02789457
0003d0 b8 c5 6a bc 45 e4 c5 3d 63 0f 97 3d 95 57 af 3d
       -0.014329366 0.096626796 0.07375982 0.08561627
0003e0 8e 81 ed 3c 89 5a 8a 3d 6c 5e 55 3b e7 38 0d bc
       0.02899244 0.067555495 0.00325575 -0.008619524
0003f0 83 d1 99 bd 32 72 c7 3c 15 32 03 bd 9b 5a 12 3d
       -0.07510664 0.024346445 -0.032030184 0.03573094

conv2.bias f4 [16]
000000 c0 a1 f9 bb 86 c7 7a 3d 88 59 9c bb 5c d3 49 3d
       -0.007618159 0.061225437 -0.004771415 0.049273834
000010 0d ce 67 3d 0b 76 67 bd cc 19 18 3c d0 dd 6a bd
       0.05659299 -0.05650906 0.009283494 -0.057340443
000020 00 d1 69 3d d0 fe 39 3d 87 0f 6a bd 3c 2e b5 bc
       0.057084084 0.045409024 -0.057143714 -0.022116773
000030 a4 8b 17 3d 4a 24 73 bd 05 cf 8d 3d 78 35 2b 3c
       0.036998406 -0.05936078 0.069242515 0.01044976

fc1.weight f4 [120, 256]
000000 50 9d 4a 3c ea 18 76 3d a0 eb 0d 3d 7a b1 67 bd
       0.012366608 0.060082354 0.034648538 -0.05656574
000010 26 30 30 3d c0 7f c8 3b c6 7c 4f bd 2e 35 70 bd
       0.043014668 0.0061187446 -0.050656103 -0.058644466
000020 00 54 89 3b 3d 6f 2c 3c 30 af 43 3c 48 24 3f 3c
       0.004190922 0.010524568 0.011943623 0.011666365
000030 c8 f7 3b bc ce 68 5b 3d 04 e4 fe 3c 4f 77 4e bd
       -0.01147265 0.053566746 0.031114586 -0.05040675
000040 f0 a0 f6 bb c8 21 4d 3c ac c2 0b 3d 58 7c 5b bd
       -0.0075265095 0.012520261 0.0341212 -0.05358538
000050 1c 72 03 3d 5e da 50 3d 91 00 1c 3c 16 1f 4c 3c
       0.032091245 0.0509895 0.009521619 0.012458583
000060 ec 80 5d bc 11 07 0b 3d fe 29 5e 3d 50 f8 d9 bb
       -0.013519507 0.033942286 0.054239266 -0.0066519156
000070 06 83 3f bd 9e 06 35 3d 18 73 13 3d e5 17 2d bd
       -0.046755813 0.044195764 0.035998434 -0.042259116
000080 98 f3 6c 3b ab 84 76 3d 48 2f 63 3d a4 d4 4c bd
       0.0036155935 0.060185116 0.055465013 -0.050007477
000090 6e c7 fa bc 73 63 83 bd 12 67 80 3d 71 86 11 bd
       -0.030612674 -0.06415453 0.06269659 -0.035528604
0000a0 7e 60 38 bd ec a1 de bc 3c 66 16 bc 7d 38 fb bc
       -0.045013897 -0.02717682 -0.009179648 -0.030666584
0000b0 bf 9b cb 3a 43 d3 38 3d e4 6a bb bb 04 7c 44 3d
       0.0015534087 0.04512335 -0.0057195295 0.047969833
0000c0 4f 11 35 bd 90 75 d8 3b 0e a9 45 3d 77 6e dd bb
       -0.04420596 0.0066058114 0.048256926 -0.006757553
0000d0 4e 26 bb 3c d8 46 b0 bc e4 b7 5d 3d 28 89 1f 3d
       0.022845414 -0.021518156 0.05413045 0.03894916
0000e0 1e f9 75 bd d2 11 73 3d 03 f5 3a 3c 40 b6 47 3c
       -0.06005203 0.059343167 0.011410954 0.012189448
0000f0 0e 25 4f bd 5c d0 f5 bc 00 55 e6 3a 7c 34 a2 bc
       -0.050572447 -0.03000658 0.0017572939 -0.019800417
000100 7c 00 7b 3d 40 0a c4 bc f4 d0 10 bb c8 e5 f2 3c
       0.06127976 -0.023930669 -0.0022097202 0.029650584
000110 6e 59 4e bd 25 c9 f0 3a 2e 0e 51 bd 98 77 dd bc
       -0.050378256 0.0018370493 -0.051038913 -0.027034566
000120 92 10 1c 3d 20 aa 0b bb e0 a2 7e 3b 10 6b ea 3c
       0.03810174 -0.002131112 0.0038854405 0.028615505
000130 ec 2b df bc b0 08 15 bd 00 d6 28 3a 92 35 58 3d
       -0.027242623 -0.03638524 0.000644058 0.052785464
000140 3a 17 2d 3d e0 51 e6 3b 1b 27 cd 3c 80 08 69 3c
       0.04225848 0.007028803 0.025043061 0.014223218
000150 3c 85 af bc 52 6f 3f bd d9 7f a6 bc ec 24 23 bd
       -0.021425836 -0.046737023 -0.020324634 -0.039830133
000160 d4 e3 f7 bb 74 7b e4 3a 98 18 0f 3d c0 25 67 3b
       -0.007565001 0.0017431811 0.034935564 0.0035270303
000170 c0 2b 52 bb 3c f9 d0 bc d2 25 2f bc 34 34 d3 3c
       -0.0032069534 -0.02550947 -0.010690169 0.025781728
000180 f2 2d ec bb 71 ad 61 3c ab 47 82 bc db a4 ea 3c
       -0.0072076255 0.013774262 -0.015903315 0.028643062
000190 72 1a 53 3d af 89 11 3b 83 25 37 bd d9 dd 1e 3d
       0.051538892 0.002220731 -0.04471351 0.03878579
0001a0 d8 a4 bf 3c 13 cd 22 bd 82 21 7e bd c4 01 77 3c
       0.023394033 -0.039746355 -0.062043674 0.015076105
0001b0 d7 fe 15 3c 7c c7 4a bd 48 02 20 bd bd 9c 21 bd
       0.009154997 -0.04950665 -0.039064676 -0.039456118
0001c0 98 bb 03 3d 91 26 8e bc b0 97 69 bd fe 29 59 3c
       0.032161325 -0.017352374 -0.057029426 0.013254641
0001d0 35 1b e1 3c 00 0a cb bc c0 98 be 3c be 05 6c 3a
       0.027478794 -0.024785042 0.023266196 0.0009003541
0001e0 b7 d9 3a bd a5 ef 1a 3d 62 c9 3f 3d de b3 df bb
       -0.045617785 0.0378262 0.046822913 -0.0068268618
0001f0 13 4b 70 3d 30 de 26 3c 04 f6 77 bd 53 fa 52 bd
       0.058665346 0.01018481 -0.060537353 -0.05150826
000200 dd 4b 55 3d 0c 3f 7c 3c 72 8f 52 3d f4 ac 20 3d
       0.052074302 0.015395891 0.05140633 0.03922744
000210 a4 c6 48 3d a5 34 d0 bc 31 05 38 3d ff 6f 73 bc
       0.049017563 -0.025415728 0.044926826 -0.014858245
000220 84 e1 f7 3c 13 54 04 bd 8e 86 51 3d ff 8b cc bb
       0.030258901 -0.032306742 0.051153712 -0.006242275
000230 5f f3 9c bb 37 47 d7 3c f1 55 09 bc 68 aa f9 3a
       -0.0047897543 0.026279075 -0.008382306 0.0019047977
000240 8b 3d d4 3c 3c a4 53 bd 1f 50 14 bd cb 82 7c bd
       0.025908252 -0.051670298 -0.036209222 -0.06164817
000250 1f fb 42 3d f3 5c 31 bd 13 48 7f bc 4e 6f 27 3d
       0.04760277 -0.043301534 -0.015581149 0.040877633
000260 e0 83 88 bd 3e e5 e5 ba 87 2a cf 3c d4 95 5a bd
       -0.06665778 -0.0017539633 0.025288833 -0.053365543
000270 96 b4 1b bd 45 56 e1 3c 3a c1 36 3d 89 6c 3b bd
       -0.038014017 0.027506957 0.04461787 -0.045757804
000280 68 ab a9 bc c0 df b4 ba c0 eb 9a bb 34 c7 6e 3d
       -0.020711616 -0.0013799593 -0.0047278106 0.058295444
000290 08 cc 07 3d be 68 20 3d c0 29 f0 ba 10 fd b4 3b
       0.033153564 0.03916239 -0.0018322989 0.0055233315
0002a0 40 10 e6 bb a0 af 67 3c 4c 5a cc bc 2c 06 f2 bc
       -0.00702098 0.014140993 -0.0249454 -0.029543959
0002b0 2e fe 5b 3d 9c dd a4 bc 66 9e 58 3d 60 fb 7c bb
       0.0537092 -0.020125203 0.052885436 -0.003860198
0002c0 9a dc 0d 3d a0 7d 5d bc be fd 5d 3d 58 06 61 3d
       0.03463421 -0.013518721 0.054197066 0.05493769
0002d0 08 ca db 3c 5c 6c 32 bd e2 2d 1c 3d e0 bc fb 3b
       0.026829734 -0.04356037 0.038129695 0.0076824278
0002e0 be 9d 58 3d 48 bb ca 3c 98 6a 73 3d 80 78 7d bc
       0.05288481 0.024747506 0.059427828 -0.015470624
0002f0 4a af 7a 3d 16 e5 78 bd 48 e2 45 3d 22 1b 01 3d
       0.061202325 -0.06076535 0.0483115 0.031520016
000300 87 7d a0 bc 14 92 2e 3c 2e 05 66 3d e9 2f b3 bc
       -0.019591106 0.010654945 0.056157283 -0.021873431
000310 2e 7a 81 bd cf 7d 41 3d 3b 96 d1 bc b1 f1 a8 bc
       -0.06322132 0.04723912 -0.02558433 -0.02062306
000320 1d ca 40 bd ea 52 91 b8 4d b1 88 bc 4a ae 5e bd
       -0.04706775 -6.929583e-05 -0.016686106 -0.054365434
000330 22 49 42 bd 65 58 21 bd df ce 75 3c 9e 67 89 bc
       -0.047433026 -0.03939094 0.015002935 -0.016773041
000340 b2 c4 26 3c 1d 66 b5 bc 49 f2 3d 3d d6 59 28 bd
       0.010178732 -0.022143418 0.04637364 -0.0411013
000350 9a b0 0e bd 8c a0 1b bd f9 47 14 bd a3 d3 1d 3d
       -0.03483639 -0.037994906 -0.03620145 0.03853191
000360 f0 a2 b6 3c 76 b4 37 3d 0a 3d 52 3d 68 1b 15 bb
       0.022294492 0.044849835 0.051327743 -0.002275193
000370 60 d6 50 bd 8d 8d 8a bd b6 2a 26 bd 86 bb 53 3d
       -0.050985694 -0.0676528 -0.040568076 0.05169251
000380 a6 a8 28 bd 64 0c 32 bd 5f 55 01 bd 23 30 2c 3d
       -0.04117646 -0.043468848 -0.031575557 0.042038094
000390 80 25 62 3c 78 66 88 bc ae 08 83 bd 74 fc 84 3c
       0.013802886 -0.016650423 -0.0639814 0.01623366
0003a0 f4 37 3a 3d 06 82 0a 3d 16 d3 86 bd 1a 30 4b bc
       0.045463517 0.033815406 -0.0658323 -0.012401605
0003b0 62 cf 54 bd 8e 8e 83 bd e9 fb 0f 39 d4 41 22 3d
       -0.05195559 -0.064236745 0.00013731387 0.03961356
0003c0 2d 00 1d bd f6 03 4b 3d 72 9f 47 bd a3 c6 de bc
       -0.038330246 0.049564324 -0.048736043 -0.027194327
0003d0 9f f2 37 3d 16 00 ad 3b 22 2f 05 bb c5 ec 4b 3d
       0.044909116 0.0052795513 -0.0020322283 0.049786348
0003e0 87 78 2e bd a6 04 62 bd 9f 10 64 bd 44 d7 5e bd
       -0.042595413 -0.055180214 -0.055679914 -0.054404512
0003f0 9b 2f 7a bd 03 25 69 bc 51 84 f2 3c 30 bf f2 bc
       -0.061080556 -0.014230016 0.029604109 -0.02963218

fc1.bias f4 [120]
000000 64 3e 56 3d 58 ad 9a 3c ba 0e 36 bd 0a 35 38 bd
       0.052305594 0.018881485 -0.044447638 -0.044972457
000010 04 6d ba 3b c3 6f 40 bd 7b ec 25 3d a8 9c e8 bc
       0.005689265 -0.046981584 0.04050873 -0.028395012
000020 4f 5f 37 3d c2 e8 80 3d 3b 54 28 bd 33 c8 e0 3c
       0.044768628 0.06294395 -0.041095953 0.027439212
000030 fc 9c 81 3c af a6 b3 bb fd 78 33 bc 2d 89 36 bd
       0.015821926 -0.0054825167 -0.010954139 -0.044564415
000040 20 57 b4 bc 2b 6a e7 3c 21 e0 4d 3d 9d 12 94 bc
       -0.0220142 0.028248867 0.050262574 -0.018075282
000050 64 b4 04 3d cc 4d 39 3d e5 23 ea bc 29 1a 92 bb
       0.032398596 0.04524021 -0.028581569 -0.004458685
000060 46 ea cc bb 47 10 da 3a 0c 10 5e bd b8 da 5d bd
       -0.0062535135 0.0016636931 -0.054214522 -0.054163665
000070 e4 92 e9 bc ce a0 a6 bb 85 d3 e2 bb f5 23 f5 3c
       -0.028512426 -0.0050850874 -0.0069221877 0.029924372
000080 07 0a 79 bd 0c d2 8c 3b 4a 76 cd 3c 0f 27 13 3d
       -0.06080058 0.0042975005 0.025080819 0.03592592
000090 02 88 4a 3d 22 d9 c6 3c c0 ba 10 3d 65 79 52 bd
       0.049446113 0.024273459 0.03533435 -0.051385302
0000a0 57 7e e0 bb da d2 61 3c f1 04 0b bc ea 4e 2e bd
       -0.0068509984 0.013783181 -0.008485065 -0.042555727
0000b0 9c ec 81 bc 28 01 44 3d 9e 7c 21 bc a7 87 4d bc
       -0.015859894 0.047852665 -0.009856371 -0.012544549
0000c0 d5 cc 11 3c eb 23 5b bc a7 58 bf 3c 7e 14 34 3d
       0.008898933 -0.013375263 0.023357702 0.043964855
0000d0 1a 82 35 3d a8 8d fc 3b f0 da 11 3c ba 55 34 bd
       0.044313528 0.0077073164 0.008902296 -0.044027068
0000e0 08 a7 09 bd e6 53 61 bd bd 26 86 3d 2f 96 a7 3c
       -0.03360656 -0.055011652 0.065503575 0.020457355
0000f0 14 af 46 bc 30 84 a5 ba 5b 0e 13 3c 0f d6 f9 ba
       -0.012126703 -0.0012627896 0.008975591 -0.0019060987
000100 d0 10 5e bd ec bc 3d bd 65 dc 06 3d 6d f8 0a bd
       -0.054215252 -0.046322748 0.03292503 -0.033928324
000110 60 c7 25 bd f4 92 06 bc 1e 5d 45 3d aa 13 35 3d
       -0.040473342 -0.008213747 0.048184507 0.044208206
000120 eb bc 39 3d 94 76 d4 bc dc 85 94 bc ee 55 50 bd
       0.04534618 -0.025935449 -0.018130235 -0.0508632
000130 25 60 70 3c a3 5f ab bb 07 4d 51 3d 32 a0 74 bd
       0.01467136 -0.0052299066 0.05109885 -0.059723087
000140 f0 12 5c 3d 9e 1e c5 3c 60 08 ce bb 22 b7 65 bc
       0.053728998 0.024062451 -0.0062876195 -0.014020713
000150 a7 1a fd 3c 55 ed ca bc ae 5a 75 3d a5 ae 94 bb
       0.030896498 -0.024771372 0.059900932 -0.004537421
000160 d6 7b 7d bd 5a cd c5 bc 78 95 f2 bc 50 a6 3b 3c
       -0.061885677 -0.02414577 -0.029612288 0.011453226
000170 f2 01 15 3d e4 c3 08 3d 65 3b 61 3d 1c 95 66 bd
       0.03637881 0.03338994 0.054988284 -0.056294546
000180 e4 94 85 3c 00 63 a2 3a 09 93 33 3d 29 b7 37 3d
       0.016306348 0.0012389123 0.043841396 0.04485241
000190 b1 f7 82 bd 4b 89 65 3d 09 77 9a 3c 9b 6a 97 3c
       -0.063949 0.056039136 0.018855589 0.01848345
0001a0 58 ba 3d 3d e5 06 2b 3d 18 d6 51 3d 46 71 37 3d
       0.04632029 0.041754622 0.051229566 0.04478576
0001b0 bb ce 18 bd 8a 04 8a bd b8 9b 42 3d e5 17 31 3d
       -0.03730653 -0.06739147 0.047511786 0.04323568
0001c0 50 dc 17 bd 4e 54 1c bc 93 93 f5 bb 1a 80 1e 3d
       -0.03707534 -0.009541584 -0.007494399 0.038696386
0001d0 b0 86 27 bd 01 c1 b6 bb 41 5c d5 bc 21 4b 0c bc
       -0.040899932 -0.005577207 -0.026044967 -0.008562834

fc2.weight f4 [84, 120]
000000 5c 11 36 3d 34 44 73 3d ba 20 99 3d cc 07 d3 3c
       0.04445015 0.059391215 0.07476945 0.025760554
000010 6e 12 aa bd 26 64 86 bd 74 22 a8 3c de 55 8b 3d
       -0.083042964 -0.065620705 0.020524241 0.06803487
000020 be 16 a2 3d 74 6e 96 bd f0 06 bc bb 06 ba 00 3d
       0.07914494 -0.07345286 -0.0057381317 0.031427406
000030 28 4c 09 bd d5 d1 36 bd 9c f6 a1 bd 4d 2e 1a bd
       -0.033519894 -0.044633705 -0.07908365 -0.037641812
000040 98 ea 84 bc 10 dc 6e 3c c4 47 d0 3c 55 89 a5 bd
       -0.016225144 0.014578834 0.025424846 -0.08082835
000050 04 3d ba bd 7f 97 90 bd c2 98 42 bd 08 4a 4b bc
       -0.09093669 -0.070601456 -0.047508962 -0.012407787
000060 f3 16 a6 bd b4 c1 19 bd 68 69 5c 3c a8 d3 6e bd
       -0.08109846 -0.037538245 0.013452865 -0.05830732
000070 10 06 0d 3d fa 8d 8b 3d 06 d6 b2 3d 8c 5e 80 bc
       0.03442961 0.06814189 0.08732228 -0.015670083
000080 20 52 88 bb b0 d2 69 3d b0 9f 19 3d 98 82 6a 3d
       -0.0041601807 0.057085693 0.037505805 0.05725345
000090 dc a2 45 3d 20 5e 57 3b c4 d0 10 3d 7e 52 26 bd
       0.048251018 0.00328625 0.035355344 -0.040606014
0000a0 a0 c6 21 3b 3b b5 a8 bd e0 28 0e bb b7 10 5a bd
       0.002468504 -0.08237692 -0.0021691844 -0.053238597
0000b0 20 be 59 3d ff 12 05 bd 90 da fa bb 40 d0 04 bc
       0.053159833 -0.03248882 -0.007655449 -0.008106291
0000c0 9c d3 70 3d 9d 00 6b bd 38 3f 9b 3d 90 7f 66 3d
       0.058795556 -0.05737363 0.075804174 0.056273997
0000d0 68 ce 38 3c 86 ae fb bc d8 0e a5 3d 67 15 a4 bd
       0.01127968 -0.030722868 0.08059472 -0.08011895
0000e0 00 26 2c 3b e5 19 b0 bd 96 ad b2 3d 30 f3 fb bc
       0.0026267767 -0.08598689 0.08724515 -0.03075561
0000f0 20 ad 23 3d f0 e6 24 3c fa cb f6 bc 8e 6c 9f 3d
       0.039960027 0.010064825 -0.03012656 0.07784377
000100 f8 79 aa 3d f4 8c 9b bc 8b 0b 8f bd ec 72 93 3d
       0.08324045 -0.01898811 -0.069846235 0.07199654
000110 90 58 64 3c 58 62 90 3c d0 6c 82 bd dc c3 9d 3d
       0.013937131 0.017625019 -0.063684106 0.07703373
000120 00 b7 c9 3b cc 9a 4b 3d e0 9a 76 bc d8 d1 54 3d
       0.0061558485 0.049708173 -0.0150515735 0.051957935
000130 cb 43 14 bd 06 02 7f bd 54 02 68 3d 90 80 d0 3c
       -0.036197465 -0.06225779 0.056642845 0.025451928
000140 d4 26 90 bc cc a0 8a bd 9b 5f 4a bd 4a ed b2 3d
       -0.01759664 -0.06768951 -0.049407583 0.087366655
000150 92 75 12 bd 80 55 98 3d bc 92 9e bc e6 6f 3f bd
       -0.035756655 0.07438183 -0.019357078 -0.046737574
000160 46 a1 97 bd d0 38 5a 3d 1c 97 40 bd e4 a5 44 3d
       -0.07403807 0.053276837 -0.04701911 0.048009768
000170 9a 30 9a 3d 50 fa ba bc 98 a8 b5 bd 78 cc b0 3d
       0.07528801 -0.022824436 -0.08870047 0.08632749
000180 c0 f0 a2 3c ac 09 87 3d db 03 22 bd 78 20 94 3c
       0.01989019 0.06593642 -0.039554458 0.018081889
000190 80 ad d3 bc 4c a0 33 bd 70 e1 5d bc 04 e3 87 bc
       -0.025839567 -0.043854043 -0.013542518 -0.016587742
0001a0 de 05 4d bd 78 58 93 3d 30 ec 6f bc 70 ba dc bb
       -0.050054424 0.071946084 -0.014643714 -0.0067360923
0001b0 12 e5 99 3d ef 29 65 bd e4 7e 11 bd 5e d9 82 3d
       0.07514395 -0.055948194 -0.035521403 0.06389116
0001c0 cc 68 9b bd 10 90 b4 3b c2 de 2b bd 48 a2 5f bc
       -0.07588348 0.0055103377 -0.041960485 -0.013649531
0001d0 e1 d9 2d bd 40 2f df 3b 54 fd a1 bd 0a 31 a6 3d
       -0.042444114 0.0068110526 -0.07909647 0.08114822
0001e0 d0 38 46 3d 50 e9 82 3b 76 d8 a5 bd eb 0d 08 bd
       0.048394024 0.003995098 -0.08097927 -0.0332164
0001f0 c8 e4 4c bc 0c a4 35 3d 81 b4 96 bd 5e e8 f9 bc
       -0.012505718 0.0443459 -0.07358647 -0.03050631
000200 1b 41 3d bd 68 4b a5 3c 50 31 b8 bc b4 28 8f bc
       -0.046204668 0.020177558 -0.022484452 -0.017475463
000210 eb 73 8b bd a0 ab 04 3c 1e 23 4b bd 1a 17 3d bd
       -0.06809219 0.008097559 -0.049594037 -0.04616461
000220 60 df 9a bc c4 c4 e8 3c b6 5b 8a bd 4c c8 9e 3d
       -0.018905342 0.028414138 -0.06755774 0.07753047
000230 c8 c7 ce 3c 88 03 8b bd e4 46 62 3d c6 29 ae 3d
       0.025241747 -0.06787783 0.055243388 0.085040614
000240 12 04 a7 3d 78 51 25 3c af de 73 bd 08 e8 b7 3d
       0.08155073 0.010090224 -0.05953854 0.08979803
000250 b0 ca 8c 3d 70 a9 cd bc e8 c7 aa 3d 6c 34 28 3d
       0.06874597 -0.025105208 0.0833891 0.04106562
000260 10 90 eb bc 60 16 76 3b 00 d8 67 3a fc e3 57 3d
       -0.028755218 0.0037549958 0.0008844137 0.052707657
000270 52 7d b9 3d 00 11 46 3a 50 a5 d8 3b af ba 5b bd
       0.09057106 0.0007555634 0.0066115037 -0.053644832
000280 cf 2c a3 bd 04 3d 9e 3d 04 c7 15 3d 90 dd 96 3d
       -0.07967531 0.077264816 0.03656675 0.073664784
000290 e8 dc 65 bc ac 06 aa 3d fb c4 75 bd b4 93 8a bd
       -0.014029719 0.08302054 -0.06000231 -0.067664534
0002a0 b0 00 b6 bc 7c ee a2 3c 40 ba 4d 3c f1 d2 a7 bd
       -0.022217125 0.019889109 0.0125566125 -0.08194531
0002b0 70 ca 14 bc f2 1f 9c 3d 0c 73 28 3d b7 9d 4e bd
       -0.009081468 0.076232806 0.041125342 -0.050443377
0002c0 27 2b 83 bd e0 ee 0b 3d 93 ad 1c bd f5 35 67 bd
       -0.06404715 0.034163356 -0.03825147 -0.05644794
0002d0 f0 d2 f1 3c d8 a3 5f 3c 08 75 41 3d 64 99 a1 3d
       0.029519528 0.013649903 0.04723075 0.07890585
0002e0 17 4d b9 bd f3 50 8f bd 6e 72 87 bd c0 bc 1d 3d
       -0.09047907 -0.06997862 -0.066136226 0.038510084
0002f0 8a ec 03 bd 40 b5 98 3d 5c 11 6a 3d de fa 86 bd
       -0.032208003 0.07456446 0.05714546 -0.06590818
000300 50 1a b9 bb 62 16 87 3d 4f 0c 68 bd 2d 8a a1 bd
       -0.0056488886 0.06596066 -0.056652363 -0.07887683
000310 1a d8 a9 3d d6 b9 96 3d d6 7a 87 3d 5a 67 8d 3d
       0.08293171 0.07359664 0.06615226 0.06904478
000320 40 1f ca bb dd d1 2e bd 6f 67 9d bd 4e 90 71 bd
       -0.006168276 -0.04268061 -0.07685744 -0.05897551
000330 c8 be e9 bc 5c 17 d3 3c b0 bd 29 3d 08 d2 3e 3d
       -0.028533354 0.025767975 0.041440666 0.04658702
000340 74 7b a9 bc e0 de 22 3c e4 b0 e8 bc a4 f3 0b bd
       -0.02068875 0.009940833 -0.02840466 -0.0341679
000350 58 ff 12 3d 7e cd 8a bd ae ad ac 3d d8 d6 80 3c
       0.035888046 -0.06777476 0.08431564 0.015727445
000360 06 b7 a0 3d ac 95 01 3d 02 fe 7a bd 90 0a 25 bd
       0.07847409 0.03163688 -0.061277397 -0.040293276
000370 28 0b 2c 3d 38 af 7e 3d 40 7b 53 bb 30 b9 29 3d
       0.042002827 0.06217882 -0.0032269508 0.041436374
000380 90 8d 23 3d b3 57 6b bd 39 ae 69 bd 84 eb 87 3d
       0.039929926 -0.057456683 -0.057050917 0.06636718
000390 74 0b 75 3d 7c 75 84 bd e6 f9 03 bd 28 c2 44 3d
       0.059825376 -0.06467721 -0.032220744 0.048036724
0003a0 f0 18 a4 bd 98 39 79 bc a1 06 5e bd e2 e6 67 bd
       -0.08012569 -0.015211485 -0.05420554 -0.05661667
0003b0 e8 43 88 3c 93 9c a9 bd 96 f5 8b bd 09 0d 12 bd
       0.016633943 -0.08281817 -0.06833951 -0.035656963
0003c0 a1 8c 80 3c 35 01 8f bd cf 95 83 bd c0 43 84 bc
       0.015692057 -0.06982652 -0.06425058 -0.016145587
0003d0 a0 f0 0c 3b 66 67 2f 3c 8f 23 68 bc c2 b0 ac 3d
       0.0021505728 0.010705804 -0.014168634 0.084321514
0003e0 5f 2d 88 bd ba 97 30 3d fd c8 c1 bd f5 2d 5e 3d
       -0.06649279 0.043113448 -0.094621636 0.054243047
0003f0 38 3e a2 bd 05 f5 86 3d 06 a3 3c bc 3a ab 4c bc
       -0.079220235 0.065897025 -0.011513477 -0.0124919955

fc2.bias f4 [84]
000000 7c 2e 6f bd 40 e3 04 bb 3b 23 4c bd 17 bd b6 bd
       -0.05839394 -0.0020277053 -0.049838286 -0.08922785
000010 5d 46 51 bd 04 e9 ad bc a5 de 8a 3d d7 47 71 3c
       -0.051092494 -0.021229275 0.06780747 0.014726601
000020 d8 b7 70 bc 4f e1 8b 3d a2 89 8e 3d 4b 87 0f 3d
       -0.014692269 0.068300836 0.06959845 0.035041135
000030 e8 64 f1 3b 00 ce 2c b9 dc b0 1e 3c 40 6b 65 bb
       0.0073667653 -0.00016479939 0.009685721 -0.0035006553
000040 a1 41 29 bd 1b ba 23 bd 68 a1 a7 bc 00 00 f7 bb
       -0.041322354 -0.039972406 -0.020462707 -0.007537842
000050 c1 c0 57 bd ed 29 07 bd 97 64 9f 3a a3 5b ae bb
       -0.05267406 -0.032998968 0.0012160715 -0.0053209825
000060 40 7d 93 bc 8c 9d d6 3c 91 25 39 bd 3e 23 a2 3d
       -0.01800406 0.026198171 -0.04520184 0.07916878
000070 03 66 7a 3c f9 9e 2b 3d ca 33 3f 3d a2 e0 9c b9
       0.015283111 0.041899655 0.04668025 -0.00029922003
000080 b4 44 32 3d e8 f4 24 bc 03 15 89 3d d2 4a d6 3c
       0.04352255 -0.010068156 0.06693461 0.026158724
000090 6a 6f 41 bd 0f 6e 8f bc 37 88 c0 ba 65 b8 0f 3d
       -0.047225393 -0.017508535 -0.0014689033 0.03508796
0000a0 0a 71 f5 bc 5d a3 a7 bc 2f a9 58 bd ad 5c 2f 3d
       -0.029961128 -0.02046364 -0.05289572 0.042812992
0000b0 a1 6d 12 bd 00 cb 53 3b 85 4b 71 3d 86 6d 09 bd
       -0.03574908 0.0032317042 0.05890991 -0.033551715
0000c0 20 47 ec bc bc 9a 47 3d 91 51 99 3c f6 ea b3 bc
       -0.028842509 0.04873155 0.018715652 -0.021962624
0000d0 e9 d6 15 3d a3 b5 aa bd 71 77 ab 3c b2 81 90 bd
       0.036581907 -0.08335426 0.020930978 -0.070559874
0000e0 49 12 b5 3c 54 05 5c bc 06 d6 a5 bd db f2 0c bd
       0.022103446 -0.013429005 -0.08097462 -0.034411293
0000f0 e3 44 8d 3d 1c 42 a0 bc 44 9a 34 3d ea 3f b2 bd
       0.06897905 -0.019562773 0.04409243 -0.08703597
000100 78 38 e6 bc 9b 03 67 3d f4 ff 5e 3d de fb 85 3c
       -0.028103098 0.056399923 0.054443315 0.016355451
000110 79 05 1d bd 17 a2 ac 3c 8b aa 1e bc 55 49 15 3c
       -0.038335297 0.021073384 -0.009684215 0.009111722
000120 ed 8e 70 3d 35 1e a2 3d c5 a1 23 3d d9 06 03 bd
       0.058730055 0.07915918 0.039949197 -0.031988952
000130 7c 4d 2e bd 92 14 65 bc 04 dc 51 bd 07 63 4c b9
       -0.042554364 -0.013981955 -0.051235214 -0.00019491847
000140 e4 44 55 bd 42 e6 69 bc 5e 96 98 bd 97 a5 97 3d
       -0.052067652 -0.014276089 -0.07450555 0.07404631

fc3.weight f4 [1, 84]
000000 89 30 bd bd 00 ae e2 bb 93 b4 8d bb 0a 09 2b bd
       -0.09237773 -0.006917715 -0.0043245046 -0.041756667
000010 ce f5 8c bd 54 45 c7 bc 35 b5 6f bd fe 1d 84 3d
       -0.06882821 -0.02432505 -0.058522422 0.06451033
000020 4f 8c e2 bd 1e e2 15 bc 87 0e db bc bb 27 29 bd
       -0.11061918 -0.009148149 -0.026740326 -0.041297656
000030 09 e9 27 3b e0 8c b2 3b 20 8a 58 3b 65 8a 8b 3d
       0.0025621078 0.0054489225 0.0033041313 0.06813506
000040 57 bb 7e bc 31 5e 93 3d db 42 d4 bd 80 6c 60 ba
       -0.015547595 0.071957 -0.10364314 -0.00085610896
000050 00 80 3e 37 22 03 ab bd 52 8e c5 bd 73 5a d2 bc
       1.1354685e-05 -0.08350207 -0.09646286 -0.025677895
000060 2d 35 c3 3b 8a 5b 61 3d 48 6a e8 3d d4 8d b8 bc
       0.005957267 0.05501894 0.113483965 -0.022528566
000070 13 58 97 3d c4 ed 8f bd 7e 24 2f 3c 43 b4 ae 3d
       0.07389846 -0.07027772 0.010689853 0.08530476
000080 c2 ee df bd c0 26 17 bd 45 44 d2 bd 1f 4f d2 bd
       -0.10934211 -0.03690219 -0.10266928 -0.102689974
000090 3e 01 22 3d ab 4d ae bd 13 52 96 3d 2c 65 b2 bd
       0.039551966 -0.08510908 0.07339873 -0.08710703
0000a0 80 d9 94 bd 2b de 43 3d 58 c4 c2 3d c0 a0 0d 3d
       -0.07268047 0.047819298 0.09510106 0.03457713
0000b0 c2 cf 0b 3d 49 f9 bc bd 26 6b 13 bd b9 c3 b2 3d
       0.03413368 -0.09227235 -0.035990857 0.087287374
0000c0 b5 d1 c1 3d 55 57 80 3d 3a 4e 1f bc c1 78 a1 3d
       0.094638266 0.06266657 -0.0097232405 0.0788436
0000d0 21 3b b1 bc b4 60 8d 3c c8 a0 7d bd 4c 73 23 bd
       -0.02163464 0.017258026 -0.06192091 -0.039904878
0000e0 8e b5 46 bd 0b 5a 24 3d 9c 45 49 bb 94 17 1b 3d
       -0.048512988 0.040124934 -0.0030711656 0.037864283
0000f0 b9 55 be bd 0f d9 de bd f9 10 89 3c dc 4a ab bc
       -0.09293694 -0.108812444 0.016731726 -0.02090972
000100 86 95 5e bb b5 fc 9f 3d a8 fb ad 3d e1 88 e4 bb
       -0.0033963635 0.07811872 0.08495265 -0.006974325
000110 95 e5 b1 3d c4 d0 d1 bd 79 c3 9a bd 4b 58 ba bc
       0.086863674 -0.10244897 -0.07556815 -0.02274718
000120 e7 0d 4e bc e3 d6 b1 bd c1 ed 6e 3d f2 f9 0d 3d
       -0.012576557 -0.086835645 0.05833221 0.034662195
000130 cd 95 b0 bd 42 53 6b bc 9f 50 69 3d e6 44 68 bd
       -0.08622322 -0.014363112 0.056961652 -0.05670633
000140 fe e5 97 3d 46 df 16 3d 4c e9 ce 3c 71 65 68 bd
       0.074169144 0.036834024 0.025257729 -0.056737367
