Week7/checkpoint/checkpoint_epoch_7.pth (torch, 178450 bytes, 9 tensors)

conv1.weight f4 [6, 1, 5, 5]
000000 04 28 b3 3d dd 67 fc 3c 17 15 95 3d c6 93 01 be
       0.08747867 0.030811245 0.07279413 -0.12654027
000010 7f 7d 23 be 45 e3 53 3e 3e e4 17 bc 2b 0f 53 be
       -0.15965842 0.20692165 -0.009270726 -0.20611255
000020 2f 48 28 bd 1e e3 47 3d a4 cd 11 bd de a0 1c be
       -0.041084465 0.04880058 -0.035596505 -0.15295741
000030 85 df f4 3d e2 bd 16 be 53 6c 20 39 9f 70 3d be
       0.119566955 -0.14720872 0.00015299143 -0.18499993
000040 22 b1 89 3d 18 d6 24 be b8 b9 b4 3d 95 6b 0e 3e
       0.067232385 -0.16097295 0.088244855 0.13908227
000050 cc 01 5b 3d ab eb 14 3e e7 59 1d be 77 99 1f 3e
       0.05346851 0.14543025 -0.15366326 0.15585886
000060 fe cc 25 3e a0 86 40 bd 2b 1b d4 3d 4a 5a 83 3d
       0.1619148 -0.04700339 0.103567444 0.06413706
000070 ca 89 52 be ff bf d6 3d 06 4b 09 bd fe fa 87 3d
       -0.20560375 0.10485839 -0.033518814 0.0663967
000080 fe 96 0e be 38 73 14 3e 9c fc d9 3d f2 af bd 3b
       -0.13924786 0.14497077 0.106438845 0.0057887966
000090 fb 67 ba bd 65 16 ac bd 55 d0 09 3d c8 79 3b bd
       -0.09101864 -0.08402709 0.033645947 -0.045770437
0000a0 63 23 11 be ef 45 4c bc 7a d5 3d 3e 2d 9c 96 3d
       -0.14173655 -0.012467845 0.18538466 0.07354007
0000b0 20 d4 1e be d8 37 39 3e 8b 4b fd 3c 0c 44 06 3e
       -0.15510607 0.18087709 0.03091981 0.13111895
0000c0 7e 31 ef bc f9 ed a4 bd 9e d8 48 3e 07 67 4c 3d
       -0.029198404 -0.08053202 0.19613883 0.049902942
0000d0 f2 0b fa ba ae 04 84 bd 93 51 fc bd b0 fb a3 3d
       -0.0019077046 -0.06446205 -0.123202465 0.0800699
0000e0 63 7c 9b bd 52 6f c6 bd 45 3d d7 bd 29 af d7 bd
       -0.07592084 -0.096892014 -0.10509733 -0.10531456
0000f0 cb 50 49 3e 41 88 e1 bc 1c 56 1f bc 15 26 e2 bd
       0.19659726 -0.027530791 -0.00972512 -0.1104242
000100 f5 cf f0 3d e2 02 67 bd be a5 bd 3d 0d 00 0e 3e
       0.11758415 -0.056399234 0.092601284 0.13867207
000110 83 3a e6 bc 54 31 5c bd 46 0b cb 3d 7f 6c 3c 3e
       -0.028104072 -0.05375798 0.099142596 0.18400763
000120 17 18 86 bd 9e f2 09 3e 7b 05 a7 bd 24 87 22 bd
       -0.065475635 0.13471457 -0.08155342 -0.03967966
000130 d9 6d 54 bd f1 ef 55 3d f7 ac c0 3d d9 62 23 be
       -0.05186257 0.05223078 0.094079904 -0.15955676
000140 35 0e 39 be 72 da d5 3d 0f 79 ab bb b7 c8 1b be
       -0.18071826 0.10442056 -0.005232937 -0.15213285
000150 07 63 16 be 5d fd 21 be ba 3d 07 3e 7d db 17 be
       -0.14686213 -0.15819307 0.1320714 -0.14829822
000160 8d e1 f3 3d f4 ae a3 bd ea e0 40 bd 85 43 59 3e
       0.11908255 -0.07992354 -0.047089495 0.21217163
000170 7b f0 c8 bb 47 50 28 3e 1d be 04 be 01 b0 fb bd
       -0.006132183 0.16436873 -0.12963147 -0.122894295
000180 49 ec 57 3e dc 4d 04 3d 39 4b 60 bd 68 66 1d 3e
       0.2108623 0.032300815 -0.054759238 0.15371096
000190 46 c9 4f 3e ef 4a 0e 3e 77 5d 0e be bc ba bc 3d
       0.20291623 0.13895772 -0.13902842 0.09215304
0001a0 a0 fc 26 be f0 f8 32 3e 0b bb a2 bd 85 dc 0f be
       -0.16307306 0.17477775 -0.07945832 -0.14048965
0001b0 eb af 1a 3e af 46 17 3e f9 a5 ce bd 01 d7 23 3e
       0.1510617 0.14773057 -0.100902505 0.15999986
0001c0 d8 a9 33 be 01 6f f9 bd ea d9 89 bb f8 1f 24 3e
       -0.17545259 -0.121793754 -0.0042068856 0.1602782
0001d0 20 64 2f 3e 07 94 8e bd b1 11 34 3e 30 87 59 3d
       0.17128038 -0.06961828 0.17584874 0.05310744
0001e0 5a 9d 82 3d df 4b 07 3e 64 86 4d 3d 24 f8 43 3e
       0.06377669 0.13212536 0.050176993 0.19137627
0001f0 ed 27 48 be 68 44 f9 bc 52 f9 13 be ed 0c a3 bd
       -0.1954648 -0.030428126 -0.14450577 -0.0796145
000200 60 83 a7 bb 07 4f 3a be 10 15 bf bd 00 3b e0 3c
       -0.0051120967 -0.18194209 -0.09330189 0.027371883
000210 63 96 fd bd c3 5b 4a 3e 77 59 b7 bd ea 43 09 be
       -0.123821996 0.19761567 -0.08952611 -0.13404813
000220 ba 74 98 3d 5a 1b ef bd 99 6b 0d 3e 26 b9 27 be
       0.07444139 -0.11675139 0.13810576 -0.16379222
000230 40 06 a3 bc d0 c7 42 be e3 f8 25 be 08 11 19 bd
       -0.019900441 -0.19021535 -0.16208224 -0.037369758
000240 48 83 3f 3d 98 12 46 bd bd 6e ef bd 82 13 a5 3d
       0.04675606 -0.048357576 -0.116910435 0.080603614
000250 cc 83 33 3d a3 2a b9 bd
       0.043826863 -0.090413354

conv1.bias f4 [6]
000000 fd 76 98 bc 2a f4 96 bd e9 ff 04 be b0 47 41 3e
       -0.018611426 -0.07370789 -0.12988247 0.18875003
000010 60 09 da 3c 7e c8 25 be
       0.026615798 -0.16189763

conv2.weight f4 [16, 6, 5, 5]
000000 06 d4 a6 3d 34 58 1d bc a0 3f f6 3d 67 53 7e 3c
       0.08145909 -0.009603549 0.12023854 0.015522814
000010 a3 69 f7 bc d8 55 ce 3d 20 0a 80 3d 04 9b 55 bd
       -0.030201739 0.10074967 0.06251931 -0.052149788
000020 0e 4e 58 bd 46 f6 3f bd 34 e3 79 3d e9 92 8b bc
       -0.052808814 -0.046865724 0.061007693 -0.017037826
000030 e3 44 9a bd 1e a6 d9 bc 76 ad 6e bd 27 34 bf bc
       -0.0753267 -0.026568469 -0.058270894 -0.023340298
000040 16 13 66 3d cf d1 d6 bb a3 96 8a 3a fc 8c d7 bc
       0.056170546 -0.006555773 0.0010573458 -0.026312344
000050 5b 6b 2f 3d 00 10 10 3d bd e6 34 bd b6 54 13 bc
       0.04282699 0.03517151 -0.04416536 -0.008992365
000060 ac f8 16 3b a8 0c 33 bd 15 f5 ac 3c ac ad c1 3d
       0.0023036404 -0.04371324 0.021112958 0.094569534
000070 59 ae 1d 3c 87 5e 9b bd 43 34 1a 3d ae 9d 6c 3d
       0.009624087 -0.07586389 0.037647497 0.057767563
000080 95 0e 2b 3c 46 3b 50 bc 9e ee 45 3d 45 af 10 3a
       0.010440488 -0.012709444 0.048323266 0.0005519281
000090 02 48 a1 3d 3d e1 75 bd 20 72 8c 3d 00 33 9b bc
       0.078750625 -0.060029257 0.06857705 -0.018945217
0000a0 e8 cc a7 bb d4 62 96 3c ef b6 c9 bc aa 5a 32 3d
       -0.0051208623 0.018357672 -0.024623362 0.043543495
0000b0 76 dc 60 3d 50 c3 07 bd bd c3 2f bb 40 35 57 bd
       0.054897748 -0.03314525 -0.002681955 -0.052541018
0000c0 9f 42 79 bd 5f bb a2 3d 92 34 91 3d ed 9e c8 3d
       -0.06085455 0.079458944 0.07090105 0.09795938
0000d0 04 c8 88 3d 11 3f d9 bc 13 51 e2 3c 43 3e b0 3c
       0.06678775 -0.02651933 0.02762655 0.021514064
0000e0 a8 8f 2b bd 78 c2 88 3d eb 44 29 bd 96 e4 9f bc
       -0.04188505 0.06677717 -0.04132549 -0.019518178
0000f0 cd 09 22 bd 44 8d 09 3c 4f 56 e7 3c 7e 7f 7a 3c
       -0.039560128 0.008395497 0.028239397 0.015289186
000100 fc 41 61 3d 9c a4 79 bd 05 b3 30 bd 30 95 b8 3d
       0.05499457 -0.060948 -0.043139476 0.0901283
000110 ba fd 58 3d 7b 80 ab 3c 8e c9 a5 3d 4a 71 92 bd
       0.052976348 0.020935288 0.08095084 -0.071505144
000120 82 18 85 3d d6 73 58 3c 8c b5 80 bd 9e 49 9d 3d
       0.06498815 0.013211211 -0.06284627 0.07680057
000130 94 ae e0 3d a6 bd ee 3d ab ee f2 3d 30 c4 3f bd
       0.10970798 0.11657266 0.118619286 -0.04681796
000140 ea 2d 8c 3d 7d b4 65 bd 22 5c 81 3d 5d f6 f6 3b
       0.06844695 -0.05608033 0.06316401 0.007536693
000150 12 13 ff 3c 39 13 ca 3d d3 83 41 bc 49 19 c1 bc
       0.031137023 0.09866948 -0.0118112145 -0.023571627
000160 16 2a 83 3c 20 ba 86 bd 3b 58 26 bd 77 cc a5 3c
       0.01601128 -0.06578469 -0.040611487 0.020239098
000170 e6 2e 00 3c 2b 0b 03 3d 9d e1 6f 3b e7 ca a5 bc
       0.007823681 0.031993072 0.0036602982 -0.020238353
000180 07 6e 55 bc eb 59 82 bd 3f dd 96 bd 11 72 be 3d
       -0.013026721 -0.06364807 -0.07366418 0.092991
000190 ee 3e 0d bc 80 9c e0 3c 3f 27 0c 3d 3e 1e e6 3c
       -0.008620961 0.027418375 0.034217115 0.028090592
0001a0 bf f2 f5 3c 6f 06 a4 3c f3 77 a9 3c 7a 01 94 bd
       0.030022977 0.020022599 0.020687079 -0.07226844
0001b0 b6 6c e3 3c 94 b6 91 bd bc 02 71 bd 08 92 f1 3c
       0.027761798 -0.07114902 -0.0588405 0.029488578
0001c0 d1 fb 20 bd 79 20 60 3d f0 d6 16 bd ab fb 46 bd
       -0.03930265 0.05471847 -0.036826074 -0.048579853
0001d0 8d 7c 60 bd c7 79 61 bd 33 91 8f 3d 8c 46 d3 3c
       -0.05480628 -0.055047777 0.070101164 0.025790475
0001e0 7c 3b 89 bd 0b 46 a0 3d 2a f3 59 bd df d5 19 3b
       -0.06700799 0.0782586 -0.053210415 0.0023473424
0001f0 82 47 67 3d 68 08 89 bd 8e d9 28 bd bf 93 43 bd
       0.05646468 -0.066910565 -0.0412231 -0.047748324
000200 08 98 65 bc bc 4e 9e 3c f8 8d f8 bc c8 40 85 bd
       -0.014013298 0.019324653 -0.030341133 -0.06506497
000210 a0 69 60 bb ad a9 88 bd f8 1c 07 3c e9 90 70 bd
       -0.0034242645 -0.06672988 0.008246653 -0.058731947
000220 30 a2 29 bd 0e cb fc bc e0 c1 8a 3b 20 ff 57 3b
       -0.04141444 -0.030858543 0.0042345375 0.0032958463
000230 6c 51 87 bc b6 74 96 bd 90 4e 62 bc 30 ae 11 bd
       -0.016518317 -0.073464796 -0.013812676 -0.03556651
000240 fc 92 94 3c 0e b8 6e bd c0 e5 f1 3a d3 2e 65 bd
       0.018136494 -0.058280997 0.0018455312 -0.05595286
000250 08 67 1e 3c 60 21 1d bb a1 34 ef bc de 55 0e 3d
       0.009668119 -0.0023976192 -0.0291999 0.034749858
000260 55 82 ad bc ae eb 8c 3d 18 65 04 3d 7b db 9a 3d
       -0.021180311 0.0688089 0.032322973 0.07561394
000270 51 85 ae 3d 22 6f 74 3d 59 9b 2b 3d 36 8a 87 bd
       0.08521522 0.059676297 0.041896198 -0.066181585
000280 dc bc a5 3d ec b9 6f 3c b6 5c 95 3d 02 d4 2b 3d
       0.08092663 0.01463173 0.07293074 0.041950233
000290 74 75 a1 bc a7 3c a0 bc 82 40 dc 3d bd d6 07 3c
       -0.019709326 -0.019560171 0.107544914 0.008290944
0002a0 85 3e 15 bb 5f c8 37 bd 85 20 a2 3d f7 ef b3 3d
       -0.002277286 -0.044868823 0.07916359 0.08786004
0002b0 1e 39 25 bd 9e 7e 2f bd ef 4e 8f 3d 80 fd 5a 3c
       -0.040337674 -0.04284536 0.06997477 0.013366103
0002c0 3b 10 87 bd 7a 5d 42 3d 27 7f 2d bd db 05 48 3d
       -0.065948926 0.047452427 -0.04235759 0.04883371
0002d0 2e b1 07 3c cf 6b 31 bc aa 77 27 3d 9a 71 83 bd
       0.008281989 -0.010828926 0.040885605 -0.06418152
0002e0 95 38 2b 3c 34 1f da bc f0 ac ac 3c 91 5d 9b bc
       0.010450502 -0.026626207 0.021078557 -0.018965514
0002f0 30 9d 57 3c 1b 21 56 39 24 3f 57 bd 6d ea c2 3c
       0.013160035 0.00020420963 -0.05255045 0.023793424
000300 4c 1d 5c bd 9c 6b 15 bc b0 0f 9e ba e0 83 3b bc
       -0.053738877 -0.009119894 -0.0012059119 -0.011445016
000310 4b 03 20 3d cd c6 0c bd 58 77 1a bd 45 20 b0 3c
       0.03906564 -0.03436928 -0.03771147 0.021499762
000320 87 3d 8c 3d f2 19 87 3d 77 f5 3a bc 12 e7 28 3d
       0.06847673 0.065967456 -0.011411062 0.04123599
000330 8c 0b a1 bd 71 88 01 bc 0b 74 8d bd c2 82 75 3d
       -0.078635305 -0.007906065 -0.06906899 0.059939153
000340 6f 85 f1 3b 12 39 65 3c da 3b 53 bd 5a f3 8c bd
       0.007370643 0.013990657 -0.05157075 -0.06882353
000350 af 46 08 bd b9 dc f6 3c 22 8a 5f 3d f2 99 9c bd
       -0.033270534 0.030134546 0.054575093 -0.0764655
000360 92 36 de 3c db ab 9b bd 41 98 76 bd 73 e6 57 bd
       0.02712563 -0.07601138 -0.060203794 -0.052710008
000370 12 38 4d bc 93 3f 9a 3d 67 43 c0 bd 1a 5d 05 ba
       -0.012525575 0.07531657 -0.09387856 -0.00050874206
000380 e8 53 a1 3c 5c 87 3b 3d e3 57 ee bc f2 c3 a8 3d
       0.01969333 0.045783386 -0.029094642 0.082404986
000390 2c dc 88 bc de 89 e0 bb 78 54 e3 3d a9 83 93 bc
       -0.016706549 -0.0068523725 0.111000955 -0.018007116
0003a0 4f 92 da 3b a8 d2 0e 3d 5b 83 06 3d 0a 86 b1 3d
       0.0066702734 0.034868866 0.032840114 0.08668144
0003b0 a5 00 4f 3c b2 ab c5 bc c6 55 0e bd a7 56 1f bd
       0.012634431 -0.024129722 -0.03474977 -0.038900997
0003c0 e7 7c b0 bc 24 1f a9 3c 33 11 01 3d 6f c5 8e bc
       -0.021543933 0.020644732 0.031510543 -0.017428128
0003d0 d7 ff 6c bc 9c 24 db 3d 90 f3 9f 3d 33 64 ba 3d
       -0.014465294 0.10700342 0.07810128 0.09101143
0003e0 a7 b9 0e 3d 1f f2 83 3d 29 94 05 3b 34 3d 17 bc
       0.03484502 0.06442665 0.00203825 -0.009230901
0003f0 81 2b 9b bd 7f ab ca 3c 15 86 fc bc 5d 1d 05 3d
       -0.07576657 0.024739979 -0.030825654 0.032498706

conv2.bias f4 [16]
000000 e0 ab c5 bb c2 72 7e 3d ad 96 56 bb cb 6e 49 3d
       -0.006032452 0.06212116 -0.0032743618 0.049177926
000010 f8 e4 71 3d c0 ed 56 bd 5d 6f 33 3c 5f 3e 6b bd
       0.059056252 -0.05247283 0.010951844 -0.05743253
000020 76 cb 71 3d 96 09 42 3d 5c 2b 61 bd ad cd af bc
       0.059031926 0.047372423 -0.05497299 -0.021460379
000030 eb 88 1b 3d 42 70 6f bd 33 df a1 3d f1 e7 49 3c
       0.037972372 -0.058456667 0.079039 0.012323366

fc1.weight f4 [120, 256]
000000 26 44 1a 3c a1 f1 69 3d 16 c8 01 3d 8f b5 73 bd
       0.009415662 0.0571152 0.031684957 -0.05949932
000010 6f 0e 24 3d 85 0d 4f 3b 33 9d 5b bd 36 6c 7c bd
       0.040052827 0.0031593752 -0.053616714 -0.061626635
000020 c2 b1 a2 3a d7 e8 f5 3b f8 2d 13 3c 84 98 0e 3c
       0.0012412595 0.0075045633 0.008983128 0.008703355
000030 04 84 6c bc b1 49 4f 3d 63 a2 e6 3c f4 a4 5a bd
       -0.014435772 0.050607387 0.028153604 -0.053379968
000040 3d c7 2b bc 3b 94 1c 3c 98 5c 02 3d b6 e0 62 bd
       -0.010484514 0.009556825 0.031826586 -0.055390082
000050 94 ba ee 3c cd 7d 44 3d 9b 49 01 3c 04 81 1b 3c
       0.029141702 0.047971535 0.007891084 0.009491209
000060 e6 54 84 bc b6 22 00 3d e1 06 52 3d 80 79 1d bc
       -0.016153764 0.031283103 0.05127609 -0.009611487
000070 eb 99 4b bd cc e2 28 3d 3e 57 07 3d 76 e5 38 bd
       -0.049707334 0.041231915 0.033042185 -0.045140706
000080 32 37 3b 3a 60 de 6d 3d 87 64 57 3d 64 96 54 bd
       0.00071417086 0.0580734 0.052586105 -0.051901236
000090 5d 7e 05 bd 54 80 84 bd eb ec 7b 3d ff 71 1d bd
       -0.032591213 -0.06469789 0.06150524 -0.038438793
0000a0 f4 b0 44 bd 0c 64 ea bc 1d b1 42 bc 51 a9 08 bd
       -0.04802032 -0.02861216 -0.011883047 -0.033364598
0000b0 30 8f b8 ba 05 fd 2e 3d 73 59 f3 bb c9 84 42 3d
       -0.0014080759 0.042721767 -0.0074264347 0.047489915
0000c0 4a ba 34 bd 90 75 d8 3b 0d 00 46 3d fd 53 db bb
       -0.04412297 0.0066058114 0.048339892 -0.006693362
0000d0 56 7a ba 3c d8 46 b0 bc a1 0e 5e 3d 28 89 1f 3d
       0.022763412 -0.021518156 0.05421317 0.03894916
0000e0 1e f9 75 bd d2 11 73 3d 95 9f 39 3c 0b 70 46 3c
       -0.06005203 0.059343167 0.011329551 0.012111674
0000f0 0e 25 4f bd 5c d0 f5 bc 00 55 e6 3a 7c 34 a2 bc
       -0.050572447 -0.03000658 0.0017572939 -0.019800417
000100 0a e3 6e 3d e2 58 dc bc 95 35 a7 bb fb f6 da 3c
       0.05832199 -0.026897851 -0.005102823 0.026729098
000110 04 74 5a bd 72 e3 8c ba 8c 33 5d bd 9c 9d f5 bc
       -0.053333297 -0.0010748936 -0.054004237 -0.02998238
000120 a7 ea 0f 3d 4e b3 a6 bb ee 8a 72 3a f7 3c d2 3c
       0.03513589 -0.0050872928 0.00092522695 0.025663836
000130 85 75 f7 bc 14 56 21 bd 11 de 17 bb d2 1b 4c 3d
       -0.030207405 -0.03938873 -0.0023173133 0.04983122
000140 df 0d 21 3d e8 39 85 3b 40 6c b6 3c 1e 8a 38 3c
       0.03931987 0.004065741 0.022268414 0.011263398
000150 c5 cb c7 bc 53 8b 4b bd e7 34 be bc ad 7c 2f bd
       -0.024389157 -0.049693417 -0.023218585 -0.04284351
000160 ba 57 2b bc 67 2d a7 ba 07 f3 03 3d e0 d5 17 3a
       -0.010457927 -0.001275462 0.03221419 0.0005792063
000170 00 59 ca bb 7e 2f e9 bc 1a 06 5b bc 21 0b bb 3c
       -0.0061751604 -0.028465029 -0.013368154 0.022832455
000180 65 24 0c bc 37 02 48 3c e5 17 94 bc 67 27 de 3c
       -0.008553599 0.012207559 -0.0180778 0.027118398
000190 25 20 4d 3d f7 5a 53 b9 e5 cf 3f bd 44 09 19 3d
       0.050079484 -0.00020156415 -0.046829123 0.037362352
0001a0 82 8f af 3c 91 a7 2a bd 25 b3 82 bd 02 62 54 3c
       0.021430735 -0.04166371 -0.06381825 0.01296282
0001b0 21 b4 e7 3b e5 60 4e bd 17 3e 2a bd bc c3 29 bd
       0.0070710336 -0.050385375 -0.04156312 -0.041446432
0001c0 70 72 03 3d 00 82 8d bc aa d2 69 bd 28 db 57 3c
       0.032091558 -0.017273903 -0.05708567 0.0131748095
0001d0 cd 6d e0 3c 00 0a cb bc a9 f6 bd 3c f0 86 80 3a
       0.027396107 -0.024785042 0.023188906 0.000980584
0001e0 33 30 3b bd 68 42 1b 3d 62 c9 3f 3d ae 65 e2 bb
       -0.045700263 0.037905127 0.046822913 -0.006909094
0001f0 9f 98 70 3d 30 de 26 3c 7d 4c 78 bd f2 3b 53 bd
       0.0587393 0.01018481 -0.06061982 -0.05157084
000200 f3 6a 49 3d 8c 26 67 3c f8 3f 4a 3d 01 61 1a 3d
       0.04917426 0.014108311 0.04937741 0.037690166
000210 cc 56 43 3d 6d d2 dd bc 2d b5 30 3d 0d fd 8e bc
       0.047690198 -0.027077878 0.043141533 -0.017454648
000220 ca 04 e7 3c 34 ab 04 bd 31 35 45 3d 56 e1 05 bc
       0.028200526 -0.032389835 0.04814643 -0.0081714
000230 86 ce ed bb dc 54 c0 3c c3 b7 22 bc 83 d3 61 37
       -0.0072572855 0.023477964 -0.0099315075 1.34602915e-05
000240 42 23 bd 3c c0 9b 5d bd ee 2e 1d bd db d8 82 bd
       0.023088101 -0.054103613 -0.038374834 -0.06389018
000250 82 7d 37 3d ce bb 3d bd bf b3 91 bc 11 99 1e 3d
       0.044797428 -0.046321683 -0.017785905 0.038720194
000260 ef c1 8d bd 97 91 8d bb f1 75 b6 3c 18 2d 65 bd
       -0.069217555 -0.004320334 0.022273036 -0.055951208
000270 fa 96 24 bd 7e b0 cd 3c 6f f7 2c 3d bf b2 46 bd
       -0.040183045 0.025108572 0.04222816 -0.04851031
000280 4a f0 c1 bc 9d 4b 8e bb 6c bb fb bb d7 a5 62 3d
       -0.023674149 -0.00434251 -0.0076822545 0.05533394
000290 19 54 f7 3c 56 44 14 3d 36 ab 9c bb da 14 28 3b
       0.030191468 0.036197983 -0.004781152 0.0025647194
0002a0 55 80 23 bc e5 23 37 3c 65 9f e4 bc 91 24 05 bd
       -0.009979327 0.0111779915 -0.027908036 -0.032505576
0002b0 96 db 4f 3d 29 23 bd bc 27 7f 4c 3d fb 6c df bb
       0.050746523 -0.023088055 0.04992595 -0.0068184114
0002c0 62 b6 01 3d 31 05 87 bc ce d8 51 3d 96 ee 54 3d
       0.031668074 -0.016481968 0.05123215 0.051985346
0002d0 0c 78 c3 3c 14 85 3e bd 11 09 10 3d 09 87 9a 3b
       0.023860954 -0.046513632 0.035164896 0.0047158045
0002e0 74 74 4c 3d 8c 72 b2 3c bc 44 67 3d 12 03 97 bc
       0.049915746 0.021783136 0.056462035 -0.018434081
0002f0 56 86 6e 3d d7 85 82 bd d8 bc 39 3d c8 f0 e9 3c
       0.05823358 -0.06373184 0.04534611 0.028557196
000300 8f 2a b9 bc c1 32 13 3c b8 e1 59 3d 95 be ca bc
       -0.022603301 0.008984269 0.053193778 -0.02474908
000310 9b cf 86 bd 87 bb 3a 3d 50 52 e9 bc 22 a7 c1 bc
       -0.06582566 0.045588996 -0.028481632 -0.023639265
000320 5e d7 4a bd 2a 41 e2 ba 4a 88 9f bc 56 69 6a bd
       -0.049521796 -0.0017261852 -0.019474167 -0.057229362
000330 51 dd 4a bd 88 e7 2c bd f8 76 47 3c d8 28 a1 bc
       -0.04952747 -0.042212993 0.01217436 -0.019672796
000340 0c 1c 11 3c a0 72 ba bc 99 9e 3b 3d 73 03 2e bd
       0.008856785 -0.022759736 0.045805547 -0.04248376
000350 17 19 13 bd 3e b8 1f bd b1 06 20 bd 2d 32 18 3d
       -0.0359126 -0.038994066 -0.03906888 0.037157226
000360 c6 b3 af 3c f7 af 34 3d c5 cc 4e 3d 86 e2 3e bb
       0.021448027 0.044113126 0.050488252 -0.0029126718
000370 a3 b7 55 bd ff 2b 8d bd dd 9b 2b bd 75 cd 4e 3d
       -0.052177083 -0.06893157 -0.04189669 0.050488908
000380 29 4b 2c bd 70 c9 36 bd eb 36 0a bd 4f d4 28 3d
       -0.042063866 -0.0446257 -0.03374378 0.0412181
000390 b3 d8 58 3c 2a 8c 8d bc 41 c5 87 bd 06 03 7c 3c
       0.013235259 -0.01727875 -0.0662942 0.01538158
0003a0 82 a6 38 3d 8a ad 01 3d 49 03 8a bd da a2 65 bc
       0.04508067 0.03165964 -0.06738908 -0.014015878
0003b0 49 d2 5c bd 0c 0b 84 bd 36 e6 23 ba 01 3c 1d 3d
       -0.05391148 -0.064474195 -0.00062522606 0.038387302
0003c0 6a 99 28 bd 32 cb 47 3d e1 e1 51 bd 4e b7 f1 bc
       -0.041161932 0.048777767 -0.051240806 -0.029506352
0003d0 ac 98 2b 3d f6 ed 41 3b 89 0c 93 bb 33 c1 42 3d
       0.041893646 0.0029591299 -0.0044875783 0.04754753
0003e0 4f b7 36 bd 68 46 6b bd 99 fd 6b bd 6f 20 67 bd
       -0.04460841 -0.05744019 -0.057614896 -0.056427415
0003f0 40 ac 81 bd 21 2a 87 bc a9 1d e0 3c 00 3d 02 bd
       -0.06331682 -0.01649958 0.027357893 -0.031796455

fc1.bias f4 [120]
000000 32 ad 4f 3d fb b2 ad 3c ba 0e 36 bd 0a 35 38 bd
       0.05070228 0.021203509 -0.044447638 -0.044972457
000010 25 a1 b2 3b c2 db 40 bd d2 f3 24 3d a8 9c e8 bc
       0.005451339 -0.047084577 0.040271588 -0.028395012
000020 22 8a 44 3d 85 e9 84 3d 12 d3 28 bd 9d 63 e7 3c
       0.047983296 0.06489853 -0.041216917 0.028245742
000030 fc 9c 81 3c ad 71 b8 bb 7b 62 41 bb 73 e3 36 bd
       0.015821926 -0.0056287856 -0.0029508162 -0.044650506
000040 20 57 b4 bc 6e 9f ef 3c 0c 6f 47 3d 83 37 64 bc
       -0.0220142 0.029250827 0.048689887 -0.013929251
000050 64 b4 04 3d ea a8 40 3d 9b b0 f6 bc 8a d5 27 bb
       0.032398596 0.04703609 -0.030113509 -0.0025609457
000060 93 62 d0 bb 27 05 e9 39 0c 10 5e bd b8 da 5d bd
       -0.006359407 0.00044445062 -0.054214522 -0.054163665
000070 e4 92 e9 bc a2 d1 79 bb 61 8f e5 bb a6 b6 03 3d
       -0.028512426 -0.0038119336 -0.0070056175 0.03215661
000080 46 fc 79 bd 80 f7 88 3b 4e 73 cc 3c 1f f1 1f 3d
       -0.061031602 0.004179895 0.024957325 0.03904831
000090 ed d3 49 3d 17 2a c6 3c 40 9d 1c 3d 58 e4 56 bd
       0.049274374 0.024189992 0.038235903 -0.05246386
0000a0 a0 65 98 bb da 2f 8a 3c d1 fd 0d bc 74 03 33 bd
       -0.0046507865 0.01686852 -0.008666472 -0.043704465
0000b0 d7 ad 9d bc db a6 4c 3d 5f 0e 0c bc 2c 96 4f bc
       -0.019247932 0.049963813 -0.008548348 -0.012670081
0000c0 bd 19 10 3c b3 e4 66 bc 81 d6 e2 3c 9d 11 32 3d
       0.008795199 -0.014092612 0.027690174 0.04347383
0000d0 20 e5 34 3d ce 42 25 3c 94 42 24 3c d3 bb 25 bd
       0.044163823 0.010086728 0.010025639 -0.040462326
0000e0 6f b1 0c bd a6 07 58 bd 4f cf 86 3d 6a 9b b5 3c
       -0.0343489 -0.05274167 0.0658251 0.022168834
0000f0 64 0d 48 bc 48 fa 78 bb cc 11 39 3c 98 35 23 3b
       -0.012210224 -0.0037990976 0.011295747 0.002490377
000100 62 68 5e bd 62 72 33 bd c8 27 06 3d 86 aa f4 bc
       -0.054298766 -0.043810256 0.032752782 -0.029866468
000110 ec 2f 26 bd 8b c3 09 bc 1e 5d 45 3d cc 4e 4d 3d
       -0.040573046 -0.0084084375 0.048184507 0.050123975
000120 25 6f 45 3d 94 76 d4 bc 0b 1b 96 bc ee 55 50 bd
       0.0482017 -0.025935449 -0.018323442 -0.0508632
000130 e8 2d 6d 3c e1 68 ae bb 17 11 5c 3d 32 a0 74 bd
       0.014476277 -0.005322561 0.053727236 -0.059723087
000140 39 a0 65 3d a6 1d c4 3c 3c f0 e0 bb 25 bb 26 bc
       0.056061003 0.023939919 -0.0068645757 -0.010176455
000150 a2 59 fc 3c 9b 41 cc bc cf 1b 80 3d 83 61 86 ba
       0.030804459 -0.024933627 0.06255304 -0.001025245
000160 d6 7b 7d bd 88 f5 bf bc 78 95 f2 bc 50 a6 3b 3c
       -0.061885677 -0.023432508 -0.029612288 0.011453226
000170 f2 01 15 3d 10 3c 17 3d 48 04 73 3d 7b ce 6b bd
       0.03637881 0.036922514 0.059330255 -0.057569962
000180 24 8c ad 3c 00 63 a2 3a 02 c7 34 3d 9e 09 3b 3d
       0.021184988 0.0012389123 0.0441351 0.04566347
000190 89 10 83 bd b9 6d 71 3d a7 c0 99 3c 5f 01 87 3c
       -0.06399638 0.05894253 0.018768622 0.016480146
0001a0 d0 d9 2f 3d f0 e9 33 3d 31 82 60 3d 1f dc 36 3d
       0.04293233 0.043924272 0.05481166 0.044643518
0001b0 dd 97 1b bd 94 9e 8a bd 1c 18 42 3d 88 de 2b 3d
       -0.037986625 -0.067685276 0.047386274 0.04196027
0001c0 d1 37 07 bd 90 3a cc bb 97 99 f9 bb 31 cf 28 3d
       -0.033012215 -0.006232567 -0.0076171863 0.041213218
0001d0 47 09 36 bd b7 d0 bb bb ec 05 ad bc d8 1e 01 bc
       -0.04444244 -0.005731668 -0.021120988 -0.007880889

fc2.weight f4 [84, 120]
000000 5c 11 36 3d fb f2 77 3d ba 20 99 3d cc 07 d3 3c
       0.04445015 0.06053446 0.07476945 0.025760554
000010 6e 12 aa bd 26 64 86 bd 74 22 a8 3c de 55 8b 3d
       -0.083042964 -0.065620705 0.020524241 0.06803487
000020 7e d0 a0 3d 9a 39 95 bd f0 06 bc bb be 0f 03 3d
       0.07852267 -0.07286377 -0.0057381317 0.031997435
000030 28 4c 09 bd d5 d1 36 bd 2c 36 a2 bd 4d 2e 1a bd
       -0.033519894 -0.044633705 -0.07920489 -0.037641812
000040 98 ea 84 bc 70 92 79 3c c4 47 d0 3c ea 0d 9c bd
       -0.016225144 0.015232667 0.025424846 -0.076198414
000050 04 3d ba bd 3b 4b 90 bd c2 98 42 bd 82 21 42 bc
       -0.09093669 -0.07045599 -0.047508962 -0.011848809
000060 f3 16 a6 bd eb 11 1a bd 68 69 5c 3c a8 d3 6e bd
       -0.08109846 -0.037614744 0.013452865 -0.05830732
000070 10 06 0d 3d bf ec 8c 3d 06 d6 b2 3d a7 a1 81 bc
       0.03442961 0.06881093 0.08732228 -0.015824152
000080 20 52 88 bb b0 d2 69 3d b0 9f 19 3d 08 ad 68 3d
       -0.0041601807 0.057085693 0.037505805 0.05680564
000090 dc a2 45 3d 20 5e 57 3b 96 58 11 3d 35 9d 2a bd
       0.048251018 0.00328625 0.035484873 -0.04165383
0000a0 e5 95 82 3b b1 fc a4 bd e0 28 0e bb b7 10 5a bd
       0.003985154 -0.080560096 -0.0021691844 -0.053238597
0000b0 20 be 59 3d cf d8 03 bd 1f a1 e9 bb 40 d0 04 bc
       0.053159833 -0.032189187 -0.007129803 -0.008106291
0000c0 9c d3 70 3d ef 13 57 bd 4e ca 9b 3d 92 03 68 3d
       0.058795556 -0.052509245 0.07606946 0.05664403
0000d0 68 ce 38 3c a2 d5 f7 bc 60 b2 a4 3d 67 15 a4 bd
       0.01127968 -0.030253235 0.08041835 -0.08011895
0000e0 00 26 2c 3b 3e 33 af bd cc df b2 3d 4d 91 ff bc
       0.0026267767 -0.085546955 0.08734092 -0.031197214
0000f0 20 ad 23 3d f0 e6 24 3c d8 f0 f5 bc c9 27 a2 3d
       0.039960027 0.010064825 -0.03002207 0.07917745
000100 f8 79 aa 3d e0 ad 98 bc 8b 0b 8f bd 23 a3 93 3d
       0.08324045 -0.018637598 -0.069846235 0.0720885
000110 90 58 64 3c 58 62 90 3c d0 6c 82 bd da ef 9f 3d
       0.013937131 0.017625019 -0.063684106 0.0780942
000120 64 01 d5 3b cc 9a 4b 3d e0 9a 76 bc d8 d1 54 3d
       0.00650041 0.049708173 -0.0150515735 0.051957935
000130 cb 43 14 bd 06 02 7f bd 68 eb 6a 3d 90 80 d0 3c
       -0.036197465 -0.06225779 0.057353407 0.025451928
000140 94 32 96 bc cc a0 8a bd d1 05 4d bd 9b 8d b3 3d
       -0.018334664 -0.06768951 -0.050054375 0.087672435
000150 92 75 12 bd 80 55 98 3d 09 1e 90 bc d7 2c 40 bd
       -0.035756655 0.07438183 -0.017592447 -0.046917763
000160 46 a1 97 bd 23 bb 5a 3d 1c 97 40 bd e4 a5 44 3d
       -0.07403807 0.053401124 -0.04701911 0.048009768
000170 9a 30 9a 3d 48 bd bc bc bb ac b4 bd 78 cc b0 3d
       0.07528801 -0.023039475 -0.08822008 0.08632749
000180 e8 71 94 3c ac 09 87 3d db 03 22 bd 71 eb 95 3c
       0.018120721 0.06593642 -0.039554458 0.018300744
000190 80 ad d3 bc f3 5a 2a bd 70 e1 5d bc 04 e3 87 bc
       -0.025839567 -0.041590642 -0.013542518 -0.016587742
0001a0 de 05 4d bd 5e 7b 95 3d 84 30 1d bc 70 ba dc bb
       -0.050054424 0.07298921 -0.009594087 -0.0067360923
0001b0 12 e5 99 3d ef 29 65 bd e4 7e 11 bd 5e d9 82 3d
       0.07514395 -0.055948194 -0.035521403 0.06389116
0001c0 24 aa 9b bd 4a 8e bf 3b c2 de 2b bd 3c fa 59 bc
       -0.07600811 0.0058458196 -0.041960485 -0.013304289
0001d0 52 0d 3c bd 40 2f df 3b ef c1 a1 bd e5 31 a9 3d
       -0.04591114 0.0068110526 -0.07898318 0.0826147
0001e0 d0 38 46 3d 50 e9 82 3b 76 d8 a5 bd eb 0d 08 bd
       0.048394024 0.003995098 -0.08097927 -0.0332164
0001f0 c8 e4 4c bc 0c a4 35 3d 81 b4 96 bd 5e e8 f9 bc
       -0.012505718 0.0443459 -0.07358647 -0.03050631
000200 1b 41 3d bd 68 4b a5 3c 50 31 b8 bc b4 28 8f bc
       -0.046204668 0.020177558 -0.022484452 -0.017475463
000210 eb 73 8b bd a0 ab 04 3c 1e 23 4b bd 1a 17 3d bd
       -0.06809219 0.008097559 -0.049594037 -0.04616461
000220 60 df 9a bc c4 c4 e8 3c b6 5b 8a bd 4c c8 9e 3d
       -0.018905342 0.028414138 -0.06755774 0.07753047
000230 c8 c7 ce 3c 88 03 8b bd e4 46 62 3d c6 29 ae 3d
       0.025241747 -0.06787783 0.055243388 0.085040614
000240 12 04 a7 3d 78 51 25 3c af de 73 bd 08 e8 b7 3d
       0.08155073 0.010090224 -0.05953854 0.08979803
000250 b0 ca 8c 3d 70 a9 cd bc e8 c7 aa 3d 6c 34 28 3d
       0.06874597 -0.025105208 0.0833891 0.04106562
000260 10 90 eb bc 60 16 76 3b 00 d8 67 3a fc e3 57 3d
       -0.028755218 0.0037549958 0.0008844137 0.052707657
000270 52 7d b9 3d 00 11 46 3a 50 a5 d8 3b af ba 5b bd
       0.09057106 0.0007555634 0.0066115037 -0.053644832
000280 cf 2c a3 bd 04 3d 9e 3d 04 c7 15 3d 90 dd 96 3d
       -0.07967531 0.077264816 0.03656675 0.073664784
000290 e8 dc 65 bc ac 06 aa 3d fb c4 75 bd b4 93 8a bd
       -0.014029719 0.08302054 -0.06000231 -0.067664534
0002a0 b0 00 b6 bc 7c ee a2 3c 40 ba 4d 3c f1 d2 a7 bd
       -0.022217125 0.019889109 0.0125566125 -0.08194531
0002b0 70 ca 14 bc f2 1f 9c 3d 0c 73 28 3d b7 9d 4e bd
       -0.009081468 0.076232806 0.041125342 -0.050443377
0002c0 27 2b 83 bd e0 ee 0b 3d 93 ad 1c bd f5 35 67 bd
       -0.06404715 0.034163356 -0.03825147 -0.05644794
0002d0 f0 d2 f1 3c d8 a3 5f 3c 08 75 41 3d 64 99 a1 3d
       0.029519528 0.013649903 0.04723075 0.07890585
0002e0 17 4d b9 bd f3 50 8f bd 6e 72 87 bd c0 bc 1d 3d
       -0.09047907 -0.06997862 -0.066136226 0.038510084
0002f0 8a ec 03 bd 40 b5 98 3d 5c 11 6a 3d de fa 86 bd
       -0.032208003 0.07456446 0.05714546 -0.06590818
000300 50 1a b9 bb 62 16 87 3d 4f 0c 68 bd 2d 8a a1 bd
       -0.0056488886 0.06596066 -0.056652363 -0.07887683
000310 1a d8 a9 3d d6 b9 96 3d d6 7a 87 3d 5a 67 8d 3d
       0.08293171 0.07359664 0.06615226 0.06904478
000320 40 1f ca bb dd d1 2e bd 6f 67 9d bd 4e 90 71 bd
       -0.006168276 -0.04268061 -0.07685744 -0.05897551
000330 c8 be e9 bc 5c 17 d3 3c b0 bd 29 3d 08 d2 3e 3d
       -0.028533354 0.025767975 0.041440666 0.04658702
000340 74 7b a9 bc e0 de 22 3c e4 b0 e8 bc a4 f3 0b bd
       -0.02068875 0.009940833 -0.02840466 -0.0341679
000350 58 ff 12 3d 7e cd 8a bd ae ad ac 3d d8 d6 80 3c
       0.035888046 -0.06777476 0.08431564 0.015727445
000360 06 b7 a0 3d ac 95 01 3d 02 fe 7a bd 90 0a 25 bd
       0.07847409 0.03163688 -0.061277397 -0.040293276
000370 28 0b 2c 3d 38 af 7e 3d 40 7b 53 bb 30 b9 29 3d
       0.042002827 0.06217882 -0.0032269508 0.041436374
000380 90 8d 23 3d b3 57 6b bd 39 ae 69 bd 84 eb 87 3d
       0.039929926 -0.057456683 -0.057050917 0.06636718
000390 74 0b 75 3d 7c 75 84 bd e6 f9 03 bd 28 c2 44 3d
       0.059825376 -0.06467721 -0.032220744 0.048036724
0003a0 f0 18 a4 bd 98 39 79 bc a1 06 5e bd e2 e6 67 bd
       -0.08012569 -0.015211485 -0.05420554 -0.05661667
0003b0 e8 43 88 3c 93 9c a9 bd 96 f5 8b bd 09 0d 12 bd
       0.016633943 -0.08281817 -0.06833951 -0.035656963
0003c0 00 f4 7f 3c 19 3e 8f bd cf 95 83 bd c0 43 84 bc
       0.015622139 -0.06994266 -0.06425058 -0.016145587
0003d0 a0 f0 0c 3b f1 b5 30 3c 2c 32 6a bc c2 b0 ac 3d
       0.0021505728 0.010785566 -0.0142941885 0.084321514
0003e0 9b 7b 88 bd dd 03 30 3d f1 f8 c1 bd d0 a1 5d 3d
       -0.06664201 0.042972434 -0.0947131 0.054109395
0003f0 38 3e a2 bd 82 bb 86 3d 2d f0 3e bc 34 4b 4c bc
       -0.079220235 0.06578733 -0.011653942 -0.012469102

fc2.bias f4 [84]
000000 61 6a 6e bd 40 e3 04 bb e9 c1 4c bd 17 bd b6 bd
       -0.05820692 -0.0020277053 -0.049989615 -0.08922785
000010 5d 46 51 bd 5c 67 a4 bc e6 2c 8e 3d 51 ae 6b 3c
       -0.051092494 -0.020068817 0.069421574 0.014384822
000020 c1 d6 36 bc cf e3 8d 3d fc e8 90 3d 36 bf 14 3d
       -0.0111596 0.06928217 0.07075688 0.036315165
000030 66 72 db 3b a2 af 04 3c ca 14 1c 3c 40 6b 65 bb
       0.006696987 0.008098515 0.009526441 -0.0035006553
000040 1b 3d 20 bd 4f 74 22 bd 68 a1 a7 bc 00 00 f7 bb
       -0.039120775 -0.0396617 -0.020462707 -0.007537842
000050 c1 c0 57 bd ed 29 07 bd b1 aa 8f 3b 38 00 d4 bb
       -0.05267406 -0.032998968 0.0043843617 -0.0064697526
000060 67 2c 94 bc 8c 9d d6 3c 2e 3d 3e bd 9c c2 a5 3d
       -0.018087579 0.026198171 -0.046445064 0.080937594
000070 7d f1 77 3c 84 94 30 3d 19 53 3e 3d b6 02 bd ba
       0.015133259 0.043110386 0.046465967 -0.0014420364
000080 b2 29 38 3d e2 c2 8a bc c5 9f 8b 3d 3c 74 e0 3c
       0.04496164 -0.01693863 0.06817583 0.027399175
000090 64 aa 3b bd 31 f3 84 bc 8b 67 f7 ba dd c3 14 3d
       -0.045816794 -0.016229244 -0.0018875463 0.036319602
0000a0 0a 71 f5 bc dd a8 a8 bc 31 04 53 bd 2a 0b 3b 3d
       -0.029961128 -0.020588333 -0.05151767 0.045664944
0000b0 a1 6d 12 bd 00 cb 53 3b fc ac 76 3d e3 df e7 bc
       -0.03574908 0.0032317042 0.060223565 -0.028305
0000c0 20 47 ec bc 7e 6b 28 3d 6e bb a1 3c ab 17 ad bc
       -0.028842509 0.041118138 0.019742694 -0.02112945
0000d0 51 32 20 3d a3 b5 aa bd 30 73 b5 3c b2 81 90 bd
       0.039110485 -0.08335426 0.022149652 -0.070559874
0000e0 4e af c3 3c 05 ed 65 bc d4 ff 97 bd 62 bf e5 bc
       0.023887303 -0.014033561 -0.07421842 -0.02804536
0000f0 df 1b 90 3d 1c 42 a0 bc 79 d3 33 3d ea 3f b2 bd
       0.07036566 -0.019562773 0.043902848 -0.08703597
000100 3a 8d e7 bc 93 cb 7d 3d 7a 56 5e 3d 9c 1f 30 3c
       -0.028265584 0.06196172 0.05428169 0.010749724
000110 8c b7 01 bd 8d be b6 3c c1 ef 94 bb 9b e1 9a 3c
       -0.031669185 0.022307659 -0.0045451825 0.018906405
000120 23 ea 74 3d 0d a2 a4 3d 39 34 23 3d d9 06 03 bd
       0.059793603 0.08038721 0.039844725 -0.031988952
000130 7c 4d 2e bd 1a bd ab bc 19 99 52 bd bf 33 86 3a
       -0.042554364 -0.020964194 -0.051415537 0.001023881
000140 ca ea 41 bd 9a 44 6b bc 5e 96 98 bd 69 2b 9a 3d
       -0.047343053 -0.014359618 -0.07450555 0.07527811

fc3.weight f4 [1, 84]
000000 9f af bf bd 00 ae e2 bb d6 08 93 bb 0a 09 2b bd
       -0.09359669 -0.006917715 -0.0044871373 -0.041756667
000010 ce f5 8c bd 23 58 f5 bc de c6 8b bd 1b a1 83 3d
       -0.06882821 -0.029949253 -0.0682504 0.06427213
000020 48 f9 ee bd b6 b8 51 bc 57 4c f0 bc 38 50 44 bd
       -0.116686404 -0.012800386 -0.029333277 -0.047928065
000030 3b b9 82 3b 2c 33 7d 3c 9c 99 4e 3b 65 8a 8b 3d
       0.0039893663 0.015454095 0.0031524664 0.06813506
000040 11 da c7 bc 26 98 9c 3d db 42 d4 bd 80 6c 60 ba
       -0.024395974 0.076462075 -0.10364314 -0.00085610896
000050 00 80 3e 37 22 03 ab bd c4 53 dc bd a0 05 c9 bc
       1.1354685e-05 -0.08350207 -0.107581645 -0.024538815
000060 c8 78 c0 3b 8a 5b 61 3d 65 08 f5 3d 5d db f2 bc
       0.0058737732 0.05501894 0.11964492 -0.029645616
000070 57 f6 96 3d ee 38 94 bd e9 2e 2c 3c aa a8 c0 3d
       0.07371204 -0.07237421 0.010509231 0.0940717
000080 96 fb ec bd 03 5c 03 bd c6 a7 de bd 42 11 df bd
       -0.11571424 -0.03207017 -0.10871844 -0.108919635
000090 b3 b7 4b 3d 5e 71 ba bd 8c 69 95 3d 17 6d bd bd
       0.049735736 -0.09103654 0.07295522 -0.09249323
0000a0 80 d9 94 bd bb 5f 43 3d 67 b2 d5 3d f3 b3 18 3d
       -0.07268047 0.047698718 0.10434418 0.037280988
0000b0 c2 cf 0b 3d 49 f9 bc bd 0d 82 2a bd 17 c6 dc 3d
       0.03413368 -0.09227235 -0.041627932 0.1077997
0000c0 b5 d1 c1 3d b2 db 6a 3d 09 02 7e bc 8b 66 be 3d
       0.094638266 0.057338424 -0.015503415 0.09296902
0000d0 83 70 0a bd b4 60 8d 3c 0f 6c 87 bd 4c 73 23 bd
       -0.033798706 0.017258026 -0.066124074 -0.039904878
0000e0 ae 10 66 bd 26 f3 2b 3d f1 b4 13 bc e1 fb 77 3d
       -0.05616825 0.04197993 -0.009015308 0.060542945
0000f0 d2 d1 cc bd 0f d9 de bd 01 b3 87 3c dc 4a ab bc
       -0.100009575 -0.108812444 0.016564848 -0.02090972
000100 86 97 69 bb 10 bc c8 3d 63 ae ad 3d 31 44 e2 bb
       -0.0035643294 0.09801495 0.08480527 -0.0069051017
000110 88 09 bf 3d 33 47 dc bd 6e a7 b2 bd 7f 7a 20 bd
       0.0932799 -0.10755768 -0.08723341 -0.03917932
000120 05 5b 80 bc c9 0d bf bd 30 74 6e 3d f2 f9 0d 3d
       -0.015668401 -0.09328801 0.058216274 0.034662195
000130 cd 95 b0 bd 49 00 da bb 71 b5 68 3d 01 f3 79 bd
       -0.08622322 -0.006652866 0.05681366 -0.061022762
000140 2e d9 c4 3d b3 87 16 3d 4c e9 ce 3c e0 bb 80 bd
       0.09611736 0.036750507 0.025257729 -0.06285834
