Week7/checkpoint/checkpoint_epoch_1.pth (torch, 178450 bytes, 9 tensors)

conv1.weight f4 [6, 1, 5, 5]
00000000: b6f7 963d 174f 8e3c 09d2 7e3d 05c8 04be
00000010: 1316 25be 035e 4a3e b448 49bc 4f4e 4ebe
00000020: e5db 13bd 8bc7 373d 6504 19bd 59f4 18be
00000030: 49d6 fd3d 2404 1cbe cb14 7fbc 3d0a 3dbe
00000040: e738 883d 53fa 2abe a38b 953d a753 f73d
00000050: 5c33 413d 68c3 093e 19d4 2cbe 47a4 0d3e
00000060: 9b21 163e 7f10 39bd 155c e23d 9f3e 973d
00000070: 2165 49be 9569 e43d 3f27 efbc 03d7 9b3d
00000080: e1d7 01be 62bc 1e3e d850 e73d de1d 523c
00000090: d13e a3bd 9847 90bd 15d0 3a3d 0004 16bd
000000a0: 85af 11be b1a3 29bc fd10 433e 0706 a63d
000000b0: 7e93 13be 9a88 373e 75a6 f33c 77d1 073e
000000c0: 03ed c7bc 9ab0 90bd 23a4 423e 5411 403d
000000d0: 8331 ddb9 ffc0 65bd eef8 e0bd 09a9 9c3d
000000e0: fb9d 9dbd 3b4e bdbd 9f80 bebd d43f bdbd
000000f0: 2a0a 423e 6017 06bd 09a0 39bc 2057 d7bd
00000100: a43c fd3d bf61 8bbd dd36 ad3d 50c9 053e
00000110: 75d7 fdbc bc0c 48bd 8308 b33d d1c8 333e
00000120: 752c 9abd 9d83 023e ad85 a8bd cea4 febc
00000130: 118f 27bd 461c 763d d2d4 d13d 6ecf 17be
00000140: f79a 27be e2d6 f43d 40e2 e13b 978a 0bbe
00000150: ec70 08be c10f 17be 0092 0c3e b8ff 14be
00000160: 965c fb3d ac36 9ebd 1b08 3fbd b42e 513e
00000170: 2e66 6ebc 92fa 1f3e 4a04 09be 68ac fcbd
00000180: 1f5d 4e3e 4f94 cc3c 77de 78bd 7d26 163e
00000190: 402a 4d3e e744 0a3e 610c 13be d11d b93d
000001a0: ab5c 27be c102 303e f555 abbd b75e 13be
000001b0: 1560 1a3e bf89 163e 00bb d7bd e9d9 1f3e
000001c0: 8da0 36be 7026 f7bd e5b8 5ebb b57f 1f3e
000001d0: cf3d 2b3e 0161 96bd ef8d 343e 6229 613d
000001e0: 71e7 723d 384e 023e 2752 3f3d 9a19 433e
000001f0: bc09 47be 6844 f9bc 52f9 13be ed0c a3bd
00000200: 6083 a7bb 074f 3abe 1015 bfbd 003b e03c
00000210: 6396 fdbd c35b 4a3e 7759 b7bd ea43 09be
00000220: ba74 983d 5a1b efbd 996b 0d3e 26b9 27be
00000230: 4006 a3bc d0c7 42be e3f8 25be 0811 19bd
00000240: 4883 3f3d 9812 46bd bd6e efbd 8213 a53d
00000250: cc83 333d a32a b9bd
0.07371466 0.017371697 0.062212024 -0.12966926 -0.16121702 0.19762425 -0.0122854 -0.2014706
-0.03609838 0.044868033 -0.037357707 -0.14936961 0.12394387 -0.15235955 -0.015568922 -0.18460937
0.06651478 -0.16697054 0.07302024 0.12076502 0.04716812 0.13453448 -0.16877784 0.13832198
0.14661257 -0.045181748 0.110527195 0.07384991 -0.19667484 0.11152951 -0.029193519 0.076093696
-0.12680008 0.1550155 0.112947166 0.012824504 -0.07970966 -0.070449054 0.0456086 -0.03662491
-0.14227112 -0.0103539685 0.1904945 0.081066184 -0.14411733 0.17923203 0.029742459 0.13263498
-0.024405008 -0.07064934 0.19007926 0.046891525 -0.00042189294 -0.05609226 -0.109849796 0.076494284
-0.07696148 -0.09243437 -0.09301876 -0.0924069 0.1894919 -0.032737136 -0.011329659 -0.10514665
0.12365082 -0.06805753 0.0845773 0.13065076 -0.030986527 -0.04884027 0.08741858 0.17557074
-0.07528011 0.12745519 -0.08228622 -0.031084444 -0.040907923 0.060085557 0.102456704 -0.14825222
-0.16367708 0.11955048 0.006893426 -0.13627087 -0.13324326 -0.14752103 0.1372757 -0.14550674
0.12273519 -0.077252716 -0.04663859 0.20427972 -0.014550729 0.15622929 -0.13380542 -0.123375714
0.2015271 0.024973063 -0.060759034 0.1466312 0.20035648 0.13502847 -0.14360191 0.0903889
-0.16343944 0.1718855 -0.083660044 -0.143916 0.15075715 0.14700983 -0.10533714 0.1561047
-0.17834683 -0.12067878 -0.0033984717 0.1557606 0.16722797 -0.07342721 0.17632268 0.054971106
0.05930275 0.1272515 0.046709206 0.19052735 -0.19437307 -0.030428126 -0.14450577 -0.0796145
-0.0051120967 -0.18194209 -0.09330189 0.027371883 -0.123821996 0.19761567 -0.08952611 -0.13404813
0.07444139 -0.11675139 0.13810576 -0.16379222 -0.019900441 -0.19021535 -0.16208224 -0.037369758
0.04675606 -0.048357576 -0.116910435 0.080603614 0.043826863 -0.090413354

conv1.bias f4 [6]
00000000: 9bb1 0dbd ff92 8fbd 7920 0dbe 424a 333e
00000010: 099b dd3c 7ec8 25be
-0.034593206 -0.07010459 -0.13781919 0.17508796 0.027051466 -0.16189763

conv2.weight f4 [16, 6, 5, 5]
00000000: e4b6 213d af98 71bd 0b0b a13d e2ef 353b
00000010: 043e 30bd d0b2 503d 3e6d c83c 755b 80bd
00000020: 104c 81bd fb41 8fbd ea2c 3a3d 08c0 1abc
00000030: 18e2 a4bd d18a 07bd 0e9e 47bd 3d19 e2bc
00000040: d4bc 6f3d d87d 4c39 c116 093c 8674 92bc
00000050: c8f9 663d f565 6a3d ab7c febc cea3 8fbc
00000060: 777b bcbc d2ee 48bd 971e 3b3c c97f 9b3d
00000070: 7ef1 423b 9617 95bd ebfd d83c f710 423d
00000080: 9055 0a3c f332 1fbc 72ed 5a3d 96f2 04bb
00000090: b9a3 9d3d c1f5 78bd 8f44 8e3d b7d2 9ebc
000000a0: 813a ffbb a206 ab3c 4841 85bc 1928 413d
000000b0: 287d 533d 2656 16bd 964f 9839 a0b1 36bd
000000c0: d868 81bd e45a a33d 71d8 713d bf16 983d
000000d0: 3299 453d cc6d 06bd 852c e53c a6e2 bb3a
000000e0: 85d7 5abd c2a5 853d 3b04 5bbd 8ad7 efbc
000000f0: 0306 1cbd db9b 913b c9af 333c 1583 05bb
00000100: 1916 683d a5e5 6cbd 1f4a 4abd 52a0 a93d
00000110: 2516 443d edf4 cb3c 0d86 a33d c890 8abd
00000120: a8f3 8a3d 412a 723c 7cd0 86bd 4ad7 6f3d
00000130: 4224 9a3d d334 a03d bb03 b43d f71e 94bd
00000140: f72b 293d 0570 95bd b0af 093d c27c 28bc
00000150: d567 b23c f87b 8e3d 3970 05bd a62a 25bd
00000160: c765 1b3c e44f 71bd 5ab6 65bd 3f23 1a3c
00000170: 0269 54ba 591b 0a3d dcca ba3a 7a01 18bd
00000180: e313 80bc 55c8 77bd 3fd6 96bd 7d2b a93d
00000190: f5e4 08bc 0e9c d43c 9273 083d 273b ea3c
000001a0: a555 123d af74 8c3c b1e9 8e3c c7f9 8ebd
000001b0: b094 e43c 4be1 8abd 3e09 69bd 8c89 eb3c
000001c0: c058 24bd f234 563d 9808 09bd 8825 3abd
000001d0: 22f6 5ebd 5ee4 5ebd 7ace 913d eaa1 f03c
000001e0: 375b 86bd 8180 a63d e8b0 4cbd e5c6 bc3b
000001f0: aaf2 743d 6808 89bd 8ed9 28bd bf93 43bd
00000200: 0898 65bc bc4e 9e3c f88d f8bc c840 85bd
00000210: a069 60bb ada9 88bd f81c 073c e990 70bd
00000220: 30a2 29bd 0ecb fcbc e0c1 8a3b 20ff 573b
00000230: 6c51 87bc b674 96bd 904e 62bc 30ae 11bd
00000240: fc92 943c 0eb8 6ebd c0e5 f13a d32e 65bd
00000250: 0867 1e3c 6021 1dbb 077a 4ebd b143 e93c
00000260: 995c 96bc 8255 3d3d 5c3b 3a3c a28f 863d
00000270: 5c25 963d e4fe 253d 1641 7a3c 4e15 a2bd
00000280: 41fb 8a3d b884 88bc ad6c 3f3d d91b 123d
00000290: 5d17 7ebc a074 1abd a862 b03d d8d0 22bc
000002a0: 6445 303b c794 04bd aab1 6a3d 88f3 913d
000002b0: 3ad8 5abd 4d81 07bd 4a76 9c3d ae2f 163c
000002c0: 8b8c 96bd 546d 3f3d 2f1e 35bd 9834 273d
000002d0: f92c 18bb e271 6cbc 5dfc 093d 2a87 8dbd
000002e0: 2476 843b 8758 0dbd 53ae 903c c38e e2bc
000002f0: b102 ad3a ba95 edbb 59f9 65bd 32bf a03c
00000300: a618 81bd 7e63 8cbc ec14 c6bb 4a39 bcbc
00000310: e33a bb3c f99e 3bbd 2a88 3abd 6acf a93c
00000320: b09c 813d 550f 7d3d 0831 49bc 75a3 133d
00000330: e514 a7bd 5778 f53a bb6f 7abd 2710 5a3d
00000340: a610 eb3b c9d8 6a3c a84a 45bd f878 8fbd
00000350: 2ace 01bd 914d f03c eea5 733d 9add 9ebd
00000360: ab85 f83c 1dd6 8bbd b949 83bd e719 5fbd
00000370: 71af d3bc 3f8b 963d 4376 a0bd 3e49 0b3c
00000380: 256a 9b3c 8224 893c 49c9 62bd f23c 7a3d
00000390: c54d f0bc ed9d e4bc 253c b03d 3431 36bd
000003a0: cbf0 94bc 3928 c53c 1a80 aa3c b00e 5a3d
000003b0: 5ada 27bc 87e1 52bd 0fbd 46bd e049 34bd
000003c0: bbe3 38bd 3908 403c 5c02 513b 1a6d 27bd
000003d0: 3790 afbc afea af3d 8ded 863d 2983 9f3d
000003e0: 3def c53c e3cc 863d 57d1 8539 055d 68bc
000003f0: 7c85 a2bd f29c a33c cb90 13bd def9 133d
0.03948106 -0.0589835 0.078634344 0.002776139 -0.043027893 0.05095178 0.024466153 -0.06267444
-0.06313336 -0.06995007 0.04545299 -0.009445198 -0.080509365 -0.03309137 -0.048734717 -0.027599925
0.05852969 0.00019501837 0.008367241 -0.017877828 0.056390554 0.05722614 -0.031065306 -0.017534163
-0.023008091 -0.04905588 0.011420867 0.075927325 0.0029745991 -0.07279889 0.026488265 0.04737946
0.008443251 -0.009716737 0.0534491 -0.0020286194 0.07697243 -0.060781244 0.0694667 -0.019387586
-0.0077889566 0.020877186 -0.01626648 0.04715738 0.05163303 -0.03670325 0.00029050995 -0.04460299
-0.063188255 0.079763204 0.059044305 0.074262135 0.0482418 -0.032819554 0.02797533 0.0014334514
-0.05342819 0.065257564 -0.05347083 -0.029277582 -0.03809167 0.0044436282 0.010967203 -0.002037232
0.0566617 -0.057836194 -0.049387094 0.08282532 0.04787268 0.024897063 0.079845525 -0.06765896
0.06784755 0.014780582 -0.06582734 0.058554925 0.07526447 0.078225754 0.08789774 -0.072324686
0.041301694 -0.07296757 0.033614814 -0.010283651 0.021778027 0.06957239 -0.032577727 -0.040323876
0.009484715 -0.05891408 -0.056082107 0.009407817 -0.00081028056 0.033717487 0.0014251131 -0.037110783
-0.015634483 -0.060493786 -0.07365083 0.08260248 -0.008355369 0.025953319 0.03331334 0.02859266
0.03572621 0.017145483 0.017445417 -0.06981235 0.027902931 -0.067812525 -0.05689358 0.02875211
-0.0401237 0.052296586 -0.03345546 -0.04544595 -0.05443395 -0.054417007 0.071194604 0.029374082
-0.065603666 0.08129979 -0.0499734 0.0057610148 0.059801735 -0.066910565 -0.0412231 -0.047748324
-0.014013298 0.019324653 -0.030341133 -0.06506497 -0.0034242645 -0.06672988 0.008246653 -0.058731947
-0.04141444 -0.030858543 0.0042345375 0.0032958463 -0.016518317 -0.073464796 -0.013812676 -0.03556651
0.018136494 -0.058280997 0.0018455312 -0.05595286 0.009668119 -0.0023976192 -0.050409343 0.02847466
-0.0183547 0.046224125 0.011366691 0.065703645 0.073313445 0.040526286 0.015274307 -0.0791422
0.06786204 -0.016664848 0.0467345 0.03567109 -0.0155085 -0.03770888 0.08612567 -0.009937488
0.0026896829 -0.032368448 0.05729834 0.07126528 -0.053428866 -0.033082295 0.07639749 0.009166641
-0.07351025 0.046735123 -0.04421824 0.04082164 -0.0023220165 -0.014431449 0.033687938 -0.06910546
0.004042404 -0.034508254 0.01766125 -0.027655965 0.0013199655 -0.007250515 -0.056146 0.019622419
-0.063035294 -0.017137285 -0.0060449746 -0.022976536 0.022855228 -0.045805905 -0.045540012 0.020728786
0.06328714 0.0617822 -0.012279756 0.036044557 -0.08158282 0.0018727881 -0.06114171 0.05323806
0.0071736155 0.014333912 -0.0481669 -0.07005495 -0.031690754 0.029333862 0.059484415 -0.07757111
0.030337175 -0.06827948 -0.06410546 -0.05446806 -0.025840493 0.07350778 -0.07835057 0.008501349
0.018971512 0.016741041 -0.05536774 0.06109328 -0.029333958 -0.027907336 0.08605222 -0.044480518
-0.018181225 0.024067031 0.020813037 0.053236663 -0.01024493 -0.05148461 -0.048520144 -0.044015765
-0.045139056 0.01172071 0.0031892275 -0.04087553 -0.021431072 0.08589684 0.06588278 0.07788689
0.02416193 0.06582048 0.00025523707 -0.014182334 -0.079356164 0.019972298 -0.036026757 0.036126964

conv2.bias f4 [16]
00000000: a953 b7bb 1b5c 653d 33cd 8abb e5c1 533d
00000010: 24a9 5d3d 5b18 75bd 74be 333c 1055 61bd
00000020: 39ae 653d 0ed8 353d 1e6a 87bd edf4 04bd
00000030: 50b4 1a3d 8ce2 6ebd bca9 8b3d cc14 263c
-0.00559469 0.05599604 -0.0042358874 0.051698584 0.054116383 -0.05983768 0.0109707005 -0.055012763
0.056074355 0.0443955 -0.06612037 -0.032460142 0.037769616 -0.05832152 0.06819484 0.010136794

fc1.weight f4 [120, 256]
00000000: 509d 4a3c ea18 763d a0eb 0d3d 7ab1 67bd
00000010: 2630 303d c07f c83b c67c 4fbd f3b3 67bd
00000020: 0054 893b 9075 4c3c 30af 433c 4824 3f3c
00000030: c8f7 3bbc ce68 5b3d 04e4 fe3c 0bef 45bd
00000040: f0a0 f6bb c821 4d3c ec51 143d d3e1 52bd
00000050: 1c72 033d d6a1 583d 6282 3e3c 4b2d 6e3c
00000060: f040 3bbc c19a 133d fe29 5e3d 50f8 d9bb
00000070: 0683 3fbd 9e06 353d 1873 133d 56a0 24bd
00000080: 12d9 ba3b 49e5 6d3d d61a 5b3d 5a6c 55bd
00000090: ec90 e9bc 7328 7ebd 4c2d 783d fe0f 09bd
000000a0: dda6 31bd 1269 cdbc 6544 e8bb 4e1a eabc
000000b0: fd4f 6d3b 106c 413d 11f0 6cbb 6614 4d3d
000000c0: e6ae 3dbd 9075 d83b d20b 3d3d 2917 0cbc
000000d0: 2442 cc3c d846 b0bc 881e 553d 2889 1f3d
000000e0: 1ef9 75bd d211 733d 5106 5d3c 83da 683c
000000f0: 0e25 4fbd 5cd0 f5bc 0055 e63a 7c34 a2bc
00000100: 7c00 7b3d 400a c4bc db15 8bbb c8e5 f23c
00000110: 6e59 4ebd 9db6 1639 2e0e 51bd 9877 ddbc
00000120: 9210 1c3d 20aa 0bbb e0a2 7e3b 106b ea3c
00000130: ec2b dfbc 2fbf 0cbd 00d6 283a 9235 583d
00000140: 3a17 2d3d e051 e63b 7506 bc3c 8008 693c
00000150: 3c85 afbc 526f 3fbd c43d b7bc f6c4 1abd
00000160: 7e3b 1bbc 002a 793b eb7c 063d c025 673b
00000170: c02b 52bb 3cf9 d0bc 4933 51bc 3434 d33c
00000180: 7f19 a7bb 911c 823c 6e10 62bc 13e4 fb3c
00000190: 15bd 5b3d 49ba 8d3b e884 2ebd 427f 273d
000001a0: dbe6 d03c a82b 1abd 7881 75bd babb 8c3c
000001b0: 5786 383c 9b24 42bd ba67 17bd e4fc 18bd
000001c0: 6d7a 0b3d d9cf 9ebc 09dd 62bd 8ad5 7a3c
000001d0: cd4c f23c 000a cbbc c81a cf3c 5a29 98ba
000001e0: 3844 32bd 8993 123d 62c9 3f3d 4427 9bbb
000001f0: 7c42 683d 30de 263c c860 6fbd 38c1 4bbd
00000200: 283d 4d3d fbbc 593c 82f1 493d c74b 293d
00000210: 6d67 513d 986a e1bc a964 2f3d 613c 51bc
00000220: 4690 043d bc69 f7bc 6648 593d 0902 88bb
00000230: 3d1f 30bb 5c37 c63c d7e2 cdbb cf55 833b
00000240: 7a73 e53c cb05 4bbd b6ae 0bbd 40e0 73bd
00000250: ff96 4b3d 6dda 28bd 19c2 5cbc 8611 303d
00000260: 6a34 84bd c8ce b739 9232 e03c f3f5 51bd
00000270: 0f12 13bd 3c96 f23c 9662 3f3d cfcd 32bd
00000280: 68ab a9bc c0df b4ba c0eb 9abb 34c7 6e3d
00000290: 08cc 073d be68 203d c029 f0ba 10fd b43b
000002a0: 4010 e6bb a0af 673c 4c5a ccbc 2c06 f2bc
000002b0: 2efe 5b3d 9cdd a4bc 669e 583d 60fb 7cbb
000002c0: 9adc 0d3d a07d 5dbc befd 5d3d 5806 613d
000002d0: 08ca db3c 5c6c 32bd e22d 1c3d e0bc fb3b
000002e0: be9d 583d 48bb ca3c 986a 733d 8078 7dbc
000002f0: 4aaf 7a3d 16e5 78bd 48e2 453d 221b 013d
00000300: c298 93bc 241a 513c 349a 6e3d 130a a2bc
00000310: 8654 7abd 8420 4a3d 831c e2bc 7429 98bc
00000320: af29 38bd 059c 053b 46fc 6ebc bb1b 56bd
00000330: 11a7 39bd babd 18bd fd0d 8c3c 6492 98bc
00000340: 4446 493c c322 a4bc e794 463d cbb7 1fbd
00000350: 450e 06bd b7fd 12bd cb43 1cbd 0074 263d
00000360: 1fe8 c73c fc57 403d c0e0 5a3d e757 30b9
00000370: 5d35 48bd 023e 86bd 4b8b 1dbd d15c 5c3d
00000380: a107 20bd e86b 29bd a1e9 09bd 8dd3 343d
00000390: 4d53 823c 9041 6ebc 177a 7dbd 5d42 963c
000003a0: 05d4 423d 741a 133d 8984 82bd 21a7 28bc
000003b0: 0f33 4cbd 9a7a 7ebd 1739 133b 5be5 2a3d
000003c0: 6062 14bd 07a8 533d eefd 3ebd 4183 cdbc
000003d0: 557f 403d 9d09 f23b 800f 9c38 108f 543d
000003e0: 74d5 25bd 2663 59bd 0a6d 5bbd da34 56bd
000003f0: 028e 71bd ac9a 46bc f0e4 013d 337d e1bc
0.012366608 0.060082354 0.034648538 -0.05656574 0.043014668 0.0061187446 -0.050656103 -0.056568097
0.004190922 0.012479201 0.011943623 0.011666365 -0.01147265 0.053566746 0.031114586 -0.048323672
-0.0075265095 0.012520261 0.03621094 -0.051484894 0.032091245 0.052888714 0.011627765 0.014537166
-0.0114290565 0.036036257 0.054239266 -0.0066519156 -0.046755813 0.044195764 0.035998434 -0.04019197
0.0057021463 0.05807999 0.05349239 -0.052105285 -0.028511487 -0.062050294 0.060590073 -0.033462517
-0.043372024 -0.025074515 -0.0070882314 -0.028576996 0.0036211007 0.047222197 -0.0036153833 0.05006828
-0.046309374 0.0066058114 0.04615385 -0.008550444 0.024933882 -0.021518156 0.05203107 0.03894916
-0.06005203 0.059343167 0.0134902755 0.0142122535 -0.050572447 -0.03000658 0.0017572939 -0.019800417
0.06127976 -0.023930669 -0.0042445487 0.029650584 -0.050378256 0.00014373143 -0.051038913 -0.027034566
0.03810174 -0.002131112 0.0038854405 0.028615505 -0.027242623 -0.034362014 0.000644058 0.052785464
0.04225848 0.007028803 0.022952298 0.014223218 -0.021425836 -0.046737023 -0.02236832 -0.037785493
-0.009474633 0.0038019419 0.032833975 0.0035270303 -0.0032069534 -0.02550947 -0.012768575 0.025781728
-0.005099475 0.015882762 -0.013797862 0.030748403 0.05364712 0.0043251854 -0.042607218 0.040892847
0.025500705 -0.03763929 -0.059937924 0.017179359 0.011262498 -0.04739819 -0.036964156 -0.03735055
0.0340523 -0.019386219 -0.055386577 0.015309701 0.029577637 -0.024785042 0.025281325 -0.0011609003
-0.04352209 0.03578523 0.046822913 -0.0047349054 0.05670403 0.01018481 -0.058441907 -0.049744815
0.05010715 0.013289685 0.049302585 0.041332033 0.051124025 -0.027516648 0.042820606 -0.012770743
0.032364152 -0.030201785 0.05304756 -0.0041506332 -0.0026874088 0.02419632 -0.006283145 0.004008032
0.028009165 -0.04956607 -0.034102164 -0.059540033 0.049704548 -0.041223932 -0.013474011 0.04298546
-0.0645531 0.00035058544 0.027367864 -0.051259946 -0.035905894 0.029612653 0.04672488 -0.043653306
-0.020711616 -0.0013799593 -0.0047278106 0.058295444 0.033153564 0.03916239 -0.0018322989 0.0055233315
-0.00702098 0.014140993 -0.0249454 -0.029543959 0.0537092 -0.020125203 0.052885436 -0.003860198
0.03463421 -0.013518721 0.054197066 0.05493769 0.026829734 -0.04356037 0.038129695 0.0076824278
0.05288481 0.024747506 0.059427828 -0.015470624 0.061202325 -0.06076535 0.0483115 0.031520016
-0.018017177 0.01276258 0.05825253 -0.019780194 -0.061115764 0.049347416 -0.027601486 -0.018574454
-0.044961628 0.0020387184 -0.014586514 -0.05227254 -0.045325343 -0.037290312 0.017096514 -0.018624492
0.012284819 -0.020036107 0.048481848 -0.038993638 -0.032728452 -0.035886493 -0.03815059 0.04063797
0.024402676 0.04695891 0.053436995 -0.00016817414 -0.048879016 -0.06554796 -0.03846292 0.053799454
-0.039069775 -0.041362673 -0.03367007 0.044147063 0.015908862 -0.0145419985 -0.061884012 0.018342191
0.04756548 0.0359139 -0.06372935 -0.010293753 -0.04985338 -0.06212864 0.0022464448 0.041722637
-0.03622663 0.051673915 -0.046628885 -0.025087 0.046996433 0.0073864 7.441547e-05 0.051894248
-0.040486768 -0.05307307 -0.053570785 -0.052296497 -0.05897332 -0.012121838 0.031712472 -0.02752552

fc1.bias f4 [120]
00000000: 64e3 5e3d 55fa 813c ba0e 36bd 0a35 38bd
00000010: a801 1f3c 82c5 35bd 6d7a 3e3d a89c e8bc
00000020: 3416 353d 04a6 733d 8ccd 1bbd 1a67 d73c
00000030: fc9c 813c 13f3 e9ba 51e2 58bc 0f9f 2dbd
00000040: 2057 b4bc 14ad dc3c c43e 5f3d 6569 92bc
00000050: 64b4 043d 6c7b 2e3d 04b9 ccbc 1808 f7bb
00000060: 6765 6abb 33ca 4e3a 0c10 5ebd b8da 5dbd
00000070: e492 e9bc f7e1 dbbb 3faf 9dbb eaba f83c
00000080: fe79 6ebd 523d ee3b fc09 e73c 6679 083d
00000090: bd50 5c3d 5823 d83c 2378 0d3d ab30 50bd
000000a0: c101 17bc 0425 453c 0f88 7fbb 668a 1bbd
000000b0: 9cec 81bc 5303 2c3d d750 4cbc f488 19bc
000000c0: d1c3 3c3c 8ea8 6bbc 39c8 9b3c 928e 1c3d
000000d0: 7702 453d 7a50 ac3b 8bc0 e13b 7e87 31bd
000000e0: e28e 04bd 06e2 64bd b084 623d 03b9 b23c
000000f0: 2d17 24bc 0000 d8ba b431 083b 5f2a 293a
00000100: f76a 55bd 35ef 56bd 15b2 183d f58d 05bd
00000110: 7674 1bbd 70c2 57bb 1e5d 453d 5d87 323d
00000120: 6cf0 323d 9476 d4bc 0004 59bc ee55 50bd
00000130: 1a21 a03c f62c 3dbb 864d 453d 32a0 74bd
00000140: 0f6a 6a3d 5e80 de3c d89d debb bd4c 99bc
00000150: c41c 083d bd53 a9bc ddc5 6e3d 3599 1cbc
00000160: d67b 7dbd 8ff2 d4bc 7895 f2bc 50a6 3b3c
00000170: f201 153d 9c2f e13c 3564 503d 1e35 54bd
00000180: e494 853c 0063 a23a 3263 3f3d a32d 2e3d
00000190: a983 80bd 732f 663d a979 ac3c d107 b53c
000001a0: 58ba 3d3d 93b8 1e3d 04fe 4c3d b32b 463d
000001b0: ceed 04bd f4fd 7fbd de9a 4f3d d077 433d
000001c0: 9d84 1fbd d3ed 4bbc 6edd 8fbb ce85 153d
000001d0: 8b31 1dbd a439 dbba bebd 02bd ebc4 20bc
0.054416075 0.015866438 -0.044447638 -0.044972457 0.009704985 -0.04437781 0.046503473 -0.028395012
0.044210628 0.059484497 -0.03803782 0.02629428 0.015821926 -0.0017848931 -0.013237552 -0.04238802
-0.0220142 0.026937999 0.054503217 -0.017872522 0.032398596 0.042598173 -0.024990566 -0.0075388066
-0.0035766007 0.00078884064 -0.054214522 -0.054163665 -0.028512426 -0.0067102867 -0.0048121507 0.030362565
-0.05822181 0.0072704935 0.028203003 0.0333189 0.053787936 0.02638404 0.0345384 -0.050827663
-0.009216727 0.012032751 -0.003899101 -0.037973784 -0.015859894 0.041995358 -0.012470446 -0.009371031
0.011521296 -0.014383448 0.019016372 0.038221903 0.048098054 0.005258617 0.006889408 -0.043342106
-0.032362826 -0.055879615 0.055302322 0.021816736 -0.010015291 -0.0016479492 0.0020781578 0.0006453152
-0.052103963 -0.05247422 0.037279207 -0.032606084 -0.037952863 -0.003292229 0.048184507 0.043586124
0.043686315 -0.025935449 -0.013245583 -0.0508632 0.019547034 -0.002886591 0.048169635 -0.059723087
0.05723005 0.02716082 -0.006793719 -0.01871335 0.033230558 -0.020669812 0.058294166 -0.009558012
-0.061885677 -0.025994567 -0.029612288 0.011453226 0.03637881 0.027488522 0.050876815 -0.05180847
0.016306348 0.0012389123 0.04672546 0.04252399 -0.06275112 0.056197595 0.021054106 0.022098454
0.04632029 0.038750242 0.050046936 0.04838152 -0.03245335 -0.062498048 0.050684802 0.047721684
-0.03894483 -0.012446838 -0.00439041 0.03650456 -0.038377326 -0.0016725552 -0.031919234 -0.009812574

fc2.weight f4 [84, 120]
00000000: 5c11 363d 3444 733d ba20 993d cc07 d33c
00000010: 6e12 aabd 2664 86bd 7422 a83c de55 8b3d
00000020: be16 a23d 746e 96bd f006 bcbb 06ba 003d
00000030: 284c 09bd d5d1 36bd 9cf6 a1bd 4d2e 1abd
00000040: 98ea 84bc 10dc 6e3c c447 d03c 5589 a5bd
00000050: 043d babd 7f97 90bd c298 42bd 084a 4bbc
00000060: f316 a6bd b4c1 19bd 6869 5c3c a8d3 6ebd
00000070: 1006 0d3d fa8d 8b3d 06d6 b23d 8c5e 80bc
00000080: 2052 88bb b0d2 693d b09f 193d 9882 6a3d
00000090: dca2 453d 205e 573b c4d0 103d 7e52 26bd
000000a0: a0c6 213b 3bb5 a8bd e028 0ebb b710 5abd
000000b0: 20be 593d ff12 05bd 90da fabb 40d0 04bc
000000c0: 9cd3 703d 9d00 6bbd 383f 9b3d 907f 663d
000000d0: 68ce 383c 86ae fbbc d80e a53d 6715 a4bd
000000e0: 0026 2c3b e519 b0bd 96ad b23d 30f3 fbbc
000000f0: 20ad 233d f0e6 243c facb f6bc 8e6c 9f3d
00000100: f879 aa3d f48c 9bbc 8b0b 8fbd ec72 933d
00000110: 9058 643c 5862 903c d06c 82bd dcc3 9d3d
00000120: 00b7 c93b cc9a 4b3d e09a 76bc d8d1 543d
00000130: cb43 14bd 0602 7fbd 5402 683d 9080 d03c
00000140: d426 90bc cca0 8abd 9b5f 4abd 4aed b23d
00000150: 9275 12bd 8055 983d bc92 9ebc e66f 3fbd
00000160: 46a1 97bd d038 5a3d 1c97 40bd e4a5 443d
00000170: 9a30 9a3d 50fa babc 98a8 b5bd 78cc b03d
00000180: c0f0 a23c ac09 873d db03 22bd 7820 943c
00000190: 80ad d3bc 4ca0 33bd 70e1 5dbc 04e3 87bc
000001a0: de05 4dbd 7858 933d 30ec 6fbc 70ba dcbb
000001b0: 12e5 993d ef29 65bd e47e 11bd 5ed9 823d
000001c0: cc68 9bbd 1090 b43b c2de 2bbd 48a2 5fbc
000001d0: e1d9 2dbd 402f df3b 54fd a1bd 0a31 a63d
000001e0: d038 463d 50e9 823b 76d8 a5bd eb0d 08bd
000001f0: c8e4 4cbc 0ca4 353d 81b4 96bd 5ee8 f9bc
00000200: 1b41 3dbd 684b a53c 5031 b8bc b428 8fbc
00000210: eb73 8bbd a0ab 043c 1e23 4bbd 1a17 3dbd
00000220: 60df 9abc c4c4 e83c b65b 8abd 4cc8 9e3d
00000230: c8c7 ce3c 8803 8bbd e446 623d c629 ae3d
00000240: 1204 a73d 7851 253c afde 73bd 08e8 b73d
00000250: b0ca 8c3d 70a9 cdbc e8c7 aa3d 6c34 283d
00000260: 1090 ebbc 6016 763b 00d8 673a fce3 573d
00000270: 527d b93d 0011 463a 50a5 d83b afba 5bbd
00000280: cf2c a3bd 043d 9e3d 04c7 153d 90dd 963d
00000290: e8dc 65bc ac06 aa3d fbc4 75bd b493 8abd
000002a0: b000 b6bc 7cee a23c 40ba 4d3c f1d2 a7bd
000002b0: 70ca 14bc f21f 9c3d 0c73 283d b79d 4ebd
000002c0: 272b 83bd e0ee 0b3d 93ad 1cbd f535 67bd
000002d0: f0d2 f13c d8a3 5f3c 0875 413d 6499 a13d
000002e0: 174d b9bd f350 8fbd 6e72 87bd c0bc 1d3d
000002f0: 8aec 03bd 40b5 983d 5c11 6a3d defa 86bd
00000300: 501a b9bb 6216 873d 4f0c 68bd 2d8a a1bd
00000310: 1ad8 a93d d6b9 963d d67a 873d 5a67 8d3d
00000320: 401f cabb ddd1 2ebd 6f67 9dbd 4e90 71bd
00000330: c8be e9bc 5c17 d33c b0bd 293d 08d2 3e3d
00000340: 747b a9bc e0de 223c e4b0 e8bc a4f3 0bbd
00000350: 58ff 123d 7ecd 8abd aead ac3d d8d6 803c
00000360: 06b7 a03d ac95 013d 02fe 7abd 900a 25bd
00000370: 280b 2c3d 38af 7e3d 407b 53bb 30b9 293d
00000380: 908d 233d b357 6bbd 39ae 69bd 84eb 873d
00000390: 740b 753d 7c75 84bd e6f9 03bd 28c2 443d
000003a0: f018 a4bd 9839 79bc a106 5ebd e2e6 67bd
000003b0: e843 883c 939c a9bd 96f5 8bbd 090d 12bd
000003c0: 1f10 903c 41fd 88bd cf95 83bd c043 84bc
000003d0: a0f0 0c3b f6ff 0a3c 190f 34bc c2b0 ac3d
000003e0: e772 80bd 7d32 3f3d 4409 bdbd c006 6c3d
000003f0: 383e a2bd c2a9 8c3d 7070 02bc b66e 56bc
0.04445015 0.059391215 0.07476945 0.025760554 -0.083042964 -0.065620705 0.020524241 0.06803487
0.07914494 -0.07345286 -0.0057381317 0.031427406 -0.033519894 -0.044633705 -0.07908365 -0.037641812
-0.016225144 0.014578834 0.025424846 -0.08082835 -0.09093669 -0.070601456 -0.047508962 -0.012407787
-0.08109846 -0.037538245 0.013452865 -0.05830732 0.03442961 0.06814189 0.08732228 -0.015670083
-0.0041601807 0.057085693 0.037505805 0.05725345 0.048251018 0.00328625 0.035355344 -0.040606014
0.002468504 -0.08237692 -0.0021691844 -0.053238597 0.053159833 -0.03248882 -0.007655449 -0.008106291
0.058795556 -0.05737363 0.075804174 0.056273997 0.01127968 -0.030722868 0.08059472 -0.08011895
0.0026267767 -0.08598689 0.08724515 -0.03075561 0.039960027 0.010064825 -0.03012656 0.07784377
0.08324045 -0.01898811 -0.069846235 0.07199654 0.013937131 0.017625019 -0.063684106 0.07703373
0.0061558485 0.049708173 -0.0150515735 0.051957935 -0.036197465 -0.06225779 0.056642845 0.025451928
-0.01759664 -0.06768951 -0.049407583 0.087366655 -0.035756655 0.07438183 -0.019357078 -0.046737574
-0.07403807 0.053276837 -0.04701911 0.048009768 0.07528801 -0.022824436 -0.08870047 0.08632749
0.01989019 0.06593642 -0.039554458 0.018081889 -0.025839567 -0.043854043 -0.013542518 -0.016587742
-0.050054424 0.071946084 -0.014643714 -0.0067360923 0.07514395 -0.055948194 -0.035521403 0.06389116
-0.07588348 0.0055103377 -0.041960485 -0.013649531 -0.042444114 0.0068110526 -0.07909647 0.08114822
0.048394024 0.003995098 -0.08097927 -0.0332164 -0.012505718 0.0443459 -0.07358647 -0.03050631
-0.046204668 0.020177558 -0.022484452 -0.017475463 -0.06809219 0.008097559 -0.049594037 -0.04616461
-0.018905342 0.028414138 -0.06755774 0.07753047 0.025241747 -0.06787783 0.055243388 0.085040614
0.08155073 0.010090224 -0.05953854 0.08979803 0.06874597 -0.025105208 0.0833891 0.04106562
-0.028755218 0.0037549958 0.0008844137 0.052707657 0.09057106 0.0007555634 0.0066115037 -0.053644832
-0.07967531 0.077264816 0.03656675 0.073664784 -0.014029719 0.08302054 -0.06000231 -0.067664534
-0.022217125 0.019889109 0.0125566125 -0.08194531 -0.009081468 0.076232806 0.041125342 -0.050443377
-0.06404715 0.034163356 -0.03825147 -0.05644794 0.029519528 0.013649903 0.04723075 0.07890585
-0.09047907 -0.06997862 -0.066136226 0.038510084 -0.032208003 0.07456446 0.05714546 -0.06590818
-0.0056488886 0.06596066 -0.056652363 -0.07887683 0.08293171 0.07359664 0.06615226 0.06904478
-0.006168276 -0.04268061 -0.07685744 -0.05897551 -0.028533354 0.025767975 0.041440666 0.04658702
-0.02068875 0.009940833 -0.02840466 -0.0341679 0.035888046 -0.06777476 0.08431564 0.015727445
0.07847409 0.03163688 -0.061277397 -0.040293276 0.042002827 0.06217882 -0.0032269508 0.041436374
0.039929926 -0.057456683 -0.057050917 0.06636718 0.059825376 -0.06467721 -0.032220744 0.048036724
-0.08012569 -0.015211485 -0.05420554 -0.05661667 0.016633943 -0.08281817 -0.06833951 -0.035656963
0.017585812 -0.06688929 -0.06425058 -0.016145587 0.0021505728 0.008483877 -0.010989928 0.084321514
-0.06271916 0.04667901 -0.09230283 0.057623625 -0.079220235 0.06868316 -0.0079613775 -0.013087919

fc2.bias f4 [84]
00000000: 7c2e 6fbd 40e3 04bb d777 3cbd 17bd b6bd
00000010: 5d46 51bd 153a c4bc b049 843d f233 953c
00000020: e13f 93bc 4114 893d e6de 883d 8e75 033d
00000030: 6746 3a3c 00ce 2cb9 31a9 603c 406b 65bb
00000040: 8c69 38bd 7351 19bd 68a1 a7bc 0000 f7bb
00000050: c1c0 57bd ed29 07bd 8677 8bbb 80b5 41ba
00000060: 5e31 82bc 8c9d d63c 1bc1 3bbd 74ee 9c3d
00000070: 2e3b 9c3c e1e6 1e3d d463 553d 7dee 8f3a
00000080: 1047 253d e8f4 24bc 2b9b 823d bf23 bc3c
00000090: 3795 4ebd b62d a9bc 2ad5 9e3b 1cc2 033d
000000a0: 0a71 f5bc ded0 8dbc 9441 53bd 1035 3e3d
000000b0: a16d 12bd 00cb 533b 755f 653d 5f06 20bd
000000c0: 2047 ecbc bc9a 473d 95fd 8d3c ace7 d1bc
000000d0: e9c7 ff3c a3b5 aabd 2342 923c b281 90bd
000000e0: 1e8b 9c3c d746 63bc a5bb a5bd 99f3 10bd
000000f0: 8ed7 863d 1c42 a0bc 9a3b 483d ea3f b2bd
00000100: 2b92 c4bc e746 6b3d 26bc 6f3d 1016 b13c
00000110: 7905 1dbd 3cb5 923c 4435 5ebc c3f4 db3b
00000120: 081c 683d c3ac 9b3d ec72 2e3d d906 03bd
00000130: 7c4d 2ebd 7769 d4bb 4930 3fbd 427d 50bb
00000140: 49f5 68bd 074e 47bc 5e96 98bd 4562 913d
-0.05839394 -0.0020277053 -0.046012726 -0.08922785 -0.051092494 -0.023953477 0.06459367 0.018213246
-0.017974796 0.06693316 0.066831395 0.03209453 0.011369324 -0.00016479939 0.013712213 -0.0035006553
-0.045022532 -0.03743119 -0.020462707 -0.007537842 -0.05267406 -0.032998968 -0.0042561917 -0.00073894113
-0.01589268 0.026198171 -0.045838457 0.07662669 0.019071188 0.038794402 0.052097157 0.0010981109
0.040350974 -0.010068156 0.06377252 0.022966264 -0.05043527 -0.02065168 0.0048471885 0.03216754
-0.029961128 -0.01731151 -0.051576212 0.046437323 -0.03574908 0.0032317042 0.055999238 -0.039068576
-0.028842509 0.04873155 0.017332831 -0.025623165 0.031223254 -0.08335426 0.017853802 -0.070559874
0.019109305 -0.01387187 -0.08092431 -0.035388563 0.065840825 -0.019562773 0.048884965 -0.08703597
-0.02399548 0.057440665 0.05852904 0.021616966 -0.038335297 0.017908685 -0.013562504 0.0067125275
0.056667358 0.07601311 0.042590067 -0.031988952 -0.042554364 -0.006482299 -0.046676908 -0.003181294
-0.056874547 -0.012164599 -0.07450555 0.070988216

fc3.weight f4 [1, 84]
00000000: 8930 bdbd 00ae e2bb 72ab 5fb9 0a09 2bbd
00000010: cef5 8cbd 86b8 b9bc 892b 5abd b8af 8c3d
00000020: fca9 debd bc78 f1bb 1f9f cebc 440a 20bd
00000030: d6c1 493c e08c b23b 59e7 e93b 658a 8b3d
00000040: 3745 44bc a82d 983d db42 d4bd 806c 60ba
00000050: 0080 3e37 2203 abbd f8b0 bebd 70a1 f7bc
00000060: bc30 043c 8a5b 613d b8f3 df3d ea14 93bc
00000070: bdfe a03d a86f 8fbd 44f3 793c f9f4 ac3d
00000080: 5506 dbbd c026 17bd af18 cbbd 226b cabd
00000090: dacf 213d 42ac a9bd 3047 a83d 720d adbd
000000a0: 80d9 94bd a85a 503d 03c3 ba3d 8116 1f3d
000000b0: c2cf 0b3d 49f9 bcbd c55c 0cbd 2517 a03d
000000c0: b5d1 c13d 5557 803d d267 f9bb 4d1c 9b3d
000000d0: 0287 33bc b460 8d3c e09a 77bd 4c73 23bd
000000e0: 6cc7 35bd a089 123d c315 25bb 5368 f73c
000000f0: 8fd2 b6bd 0fd9 debd bc9f ab3c dc4a abbc
00000100: 64bc 5e3a abfc 973d da9c b53d 5a13 5bbb
00000110: 95e5 b13d b1a5 cdbd a3ec 96bd 8613 a9bc
00000120: 0e72 36bc 7c82 aebd 17ef 7a3d f2f9 0d3d
00000130: cd95 b0bd e02a c5bc 61a3 783d 8ece 5fbd
00000140: 1301 883d 2d85 1f3d 4ce9 ce3c 0cf7 59bd
-0.09237773 -0.006917715 -0.00021330806 -0.041756667 -0.06882821 -0.022670995 -0.053264175 0.06869453
-0.10872266 -0.007369129 -0.02522236 -0.03907229 0.0123142805 0.0054489225 0.0071381745 0.06813506
-0.011979393 0.07430583 -0.10364314 -0.00085610896 1.1354685e-05 -0.08350207 -0.09311098 -0.030228347
0.00806826 0.05501894 0.109351575 -0.017954309 0.078610875 -0.070037186 0.015255753 0.08445162
-0.10694567 -0.03690219 -0.099168174 -0.09883715 0.039504863 -0.08284809 0.08216703 -0.0844983
-0.07268047 0.050867707 0.09119227 0.03883982 0.03413368 -0.09227235 -0.03426816 0.078169145
0.094638266 0.06266657 -0.0076112533 0.07573757 -0.010957481 0.017258026 -0.060450435 -0.039904878
-0.044379637 0.03577578 -0.0025189973 0.030201113 -0.089268796 -0.108812444 0.02095019 -0.02090972
0.00084967003 0.074212395 0.08867808 -0.0033428282 0.086863674 -0.10041369 -0.073693536 -0.020639192
-0.011135591 -0.08520982 0.06126317 0.034662195 -0.08622322 -0.024068296 0.060702685 -0.054640345
0.0664083 0.038945366 0.025257729 -0.053214118
