Week7/checkpoint/checkpoint_epoch_4.pth (torch, 178450 bytes, 9 tensors)

conv1.weight f4 [6, 1, 5, 5]
0	0x3daebb28	0.08531791
1	0x3cf142b6	0.029450756
2	0x3d963221	0.0733378
3	0xbdfce3b5	-0.12348119
4	0xbe212bc4	-0.15739352
5	0x3e52e840	0.20596409
6	0xbbe26d5c	-0.0069100093
7	0xbe4ca77a	-0.19985762
8	0xbd0fd17a	-0.03511188
9	0x3d4b80b4	0.049683288
10	0xbd0673b3	-0.032825183
11	0xbe16fbfe	-0.14744565
12	0x3e00d2e1	0.12580444
13	0xbe138cab	-0.1440913
14	0xbb0c033f	-0.002136424
15	0xbe3912bf	-0.18073557
16	0x3d908e67	0.07058411
17	0xbe22322b	-0.1583945
18	0x3db16943	0.08662655
19	0x3e0a1a84	0.13486677
20	0x3d5d7ad1	0.054072205
21	0x3e1473d2	0.14497307
22	0xbe1eb785	-0.15499695
23	0x3e1bec0f	0.15226768
24	0x3e2283ee	0.1587064
25	0xbd3eb6b7	-0.04656097
26	0x3ddae8f5	0.10688964
27	0x3d900337	0.07031863
28	0xbe4c7907	-0.19968043
29	0x3ddd2bf2	0.107993975
30	0xbd033454	-0.032032326
31	0x3d9377d6	0.07200591
32	0xbe064e09	-0.13115706
33	0x3e1a29b0	0.15054965
34	0x3ddf3c29	0.109001465
35	0x3c1c9217	0.009556315
36	0xbdabc263	-0.08386686
37	0xbd9d4cb5	-0.07680646
38	0x3d20192d	0.03908651
39	0xbd2c5c4d	-0.042080212
40	0xbe11c81a	-0.14236489
41	0xbc448a29	-0.011995831
42	0x3e3efe82	0.18651775
43	0x3d9b8f88	0.07595736
44	0xbe19d24d	-0.1502163
45	0x3e370463	0.17872767
46	0x3ce9c1e7	0.028534843
47	0x3e059303	0.13044362
48	0xbce20f18	-0.027595088
49	0xbd9bc8f3	-0.076066874
50	0x3e435ef9	0.19079198
51	0x3d421631	0.047384445
52	0xb9e378b6	-0.0004338675
53	0xbd697bdf	-0.0570029
54	0xbde56e9e	-0.11202739
55	0x3d9bd37e	0.07608698
56	0xbd9d2d02	-0.076746
57	0xbdbd452b	-0.09241708
58	0xbdc3890d	-0.09547625
59	0xbdc5484d	-0.09632931
60	0x3e435792	0.19076374
61	0xbcff566e	-0.031169143
62	0xbc361879	-0.011114233
63	0xbddd7b55	-0.10814539
64	0x3df5f479	0.1200952
65	0xbd853a7a	-0.06505294
66	0x3dafe816	0.08589189
67	0x3e0688fd	0.13138194
68	0xbd05b154	-0.032639816
69	0xbd575a4a	-0.05257634
70	0x3db82214	0.08990875
71	0x3e34f71d	0.17672391
72	0xbd96b19e	-0.073580965
73	0x3e031e11	0.12804438
74	0xbdab0581	-0.08350659
75	0xbd17a6ff	-0.037024494
76	0xbd4cd682	-0.050009258
77	0x3d589af9	0.05288217
78	0x3dc5490d	0.09633074
79	0xbe20cbf7	-0.15702806
80	0xbe31b0aa	-0.17352548
81	0x3ddf7007	0.109100394
82	0xbaee7026	-0.0018191382
83	0xbe15d14a	-0.14630619
84	0xbe12c9b1	-0.14334752
85	0xbe1c5eb9	-0.15270509
86	0x3e08b535	0.13350375
87	0xbe17907b	-0.14801209
88	0x3df44759	0.11927671
89	0xbda64003	-0.08117678
90	0xbd4213b9	-0.04738209
91	0x3e54c64b	0.20778768
92	0xbc36e654	-0.011163313
93	0x3e22e3e3	0.15907244
94	0xbe092b8e	-0.13395521
95	0xbe0046c8	-0.12527001
96	0x3e52aad3	0.20572977
97	0x3ce3527b	0.02774929
98	0xbd7156de	-0.058920734
99	0x3e189139	0.14899148
100	0x3e4cbf02	0.19994739
101	0x3e0aaa01	0.13541414
102	0xbe11c8a9	-0.14236702
103	0x3db8e32c	0.090277046
104	0xbe2876fb	-0.16451637
105	0x3e2fc6a5	0.1716562
106	0xbda9f7b3	-0.08299198
107	0xbe12f9f7	-0.14353167
108	0x3e1932f5	0.14960845
109	0x3e1563b3	0.14588813
110	0xbdd6c419	-0.104866214
111	0x3e1ff358	0.15620172
112	0xbe376741	-0.17910482
113	0xbdfc3ce9	-0.12316305
114	0xbbb8d0de	-0.0056401333
115	0x3e1ffb96	0.15623316
116	0x3e2b437e	0.16724965
117	0xbd9665ba	-0.073436216
118	0x3e326662	0.17421868
119	0x3d55641b	0.05209742
120	0x3d741046	0.059585832
121	0x3e02f2fd	0.12788005
122	0x3d4040cd	0.0469368
123	0x3e41d37a	0.18928328
124	0xbe494f32	-0.19659117
125	0xbcf94468	-0.030428126
126	0xbe13f952	-0.14450577
127	0xbda30ced	-0.0796145
128	0xbba78360	-0.0051120967
129	0xbe3a4f07	-0.18194209
130	0xbdbf1510	-0.09330189
131	0x3ce03b00	0.027371883
132	0xbdfd9663	-0.123821996
133	0x3e4a5bc3	0.19761567
134	0xbdb75977	-0.08952611
135	0xbe0943ea	-0.13404813
136	0x3d9874ba	0.07444139
137	0xbdef1b5a	-0.11675139
138	0x3e0d6b99	0.13810576
139	0xbe27b926	-0.16379222
140	0xbca30640	-0.019900441
141	0xbe42c7d0	-0.19021535
142	0xbe25f8e3	-0.16208224
143	0xbd191108	-0.037369758
144	0x3d3f8348	0.04675606
145	0xbd461298	-0.048357576
146	0xbdef6ebd	-0.116910435
147	0x3da51382	0.080603614
148	0x3d3383cc	0.043826863
149	0xbdb92aa3	-0.090413354

conv1.bias f4 [6]
0	0xbcbd0103	-0.023071771
1	0xbd9662b6	-0.07343046
2	0xbe0c9941	-0.13730337
3	0x3e38d0fa	0.18048468
4	0x3cd0fb41	0.025510432
5	0xbe25c87e	-0.16189763

conv2.weight f4 [16, 6, 5, 5]
0	0x3d6d8e6a	0.057997145
1	0xbd152983	-0.03641654
2	0x3dcb2d65	0.09920768
3	0x3c0528b2	0.008127378
4	0xbd248a79	-0.04017112
5	0x3d9849fd	0.07435987
6	0x3d2b7251	0.041857067
7	0xbd822ef9	-0.063566156
8	0xbd723998	-0.059136957
9	0xbd73cd11	-0.05952174
10	0x3d51492d	0.051095176
11	0xbc61078d	-0.01373471
12	0xbda500a6	-0.08056764
13	0xbd0f0c70	-0.03492397
14	0xbd706e72	-0.05869908
15	0xbce4c1b2	-0.027924392
16	0x3d5f26c9	0.054480348
17	0xbbfd23b2	-0.0077252025
18	0x3a7764b7	0.000943731
19	0xbcdac087	-0.026703132
20	0x3d2ee6c0	0.04270053
21	0x3d25d8bc	0.040489897
22	0xbd30988c	-0.04311423
23	0xbc6b57e8	-0.01436422
24	0xbbedfcdd	-0.0072628097
25	0xbd369e87	-0.044584777
26	0x3c866fa8	0.016410664
27	0x3dacd20a	0.08438499
28	0x3bbd8e22	0.005784766
29	0xbd9916df	-0.074750654
30	0x3d058159	0.03259406
31	0x3d546591	0.051854674
32	0x3c1e767d	0.0096718045
33	0xbc366910	-0.011133447
34	0x3d4adbd0	0.049526036
35	0xb987d85b	-0.00025910404
36	0x3d9e39f6	0.07725899
37	0xbd7617fa	-0.06008146
38	0x3d8f5f08	0.07000548
39	0xbc9d5ef5	-0.019210318
40	0xbbcb328f	-0.0062010954
41	0x3ca44ebf	0.02005708
42	0xbcb2bbbc	-0.021818034
43	0x3d3b34f3	0.045704793
44	0x3d5dc07a	0.054138638
45	0xbd0ee71a	-0.034888364
46	0xbb398aa1	-0.002831139
47	0xbd47f6e0	-0.048819423
48	0xbd7b7b26	-0.06139674
49	0x3da38f59	0.07986326
50	0x3d85fd7c	0.06542489
51	0x3db04b7e	0.08608149
52	0x3d6b2301	0.05740643
53	0xbce7269a	-0.028216649
54	0x3cf8174f	0.030284552
55	0x3c6e58d2	0.014547544
56	0xbd42d53b	-0.047566634
57	0x3d87b5e4	0.0662649
58	0xbd407fe2	-0.04699696
59	0xbcba18ab	-0.02271684
60	0xbd176f73	-0.03697152
61	0x3c195e30	0.009360835
62	0x3cb16591	0.021654876
63	0x3bfb23ee	0.0076641953
64	0x3d602faf	0.054732975
65	0xbd6591ca	-0.05604724
66	0xbd372162	-0.04470957
67	0x3db1d84c	0.086838335
68	0x3d51ea11	0.051248614
69	0x3ccb52c0	0.024819732
70	0x3da7924d	0.081822015
71	0xbd8d581e	-0.06901573
72	0x3d8658c1	0.06559897
73	0x3c69aafa	0.014261955
74	0xbd777eff	-0.060423847
75	0x3d7d886b	0.061897676
76	0x3db6437e	0.08899592
77	0x3dc4cda7	0.096095376
78	0x3dd0ce72	0.10195626
79	0xbd733e5a	-0.059385635
80	0x3d5bfc3f	0.053707357
81	0xbd899bbe	-0.067191586
82	0x3d405296	0.04695376
83	0xbba837da	-0.005133611
84	0x3cab616e	0.020920482
85	0x3da91617	0.082561664
86	0xbccbb90a	-0.024868507
87	0xbcfee89f	-0.031116782
88	0x3c31722d	0.010830444
89	0xbd8837df	-0.066512816
90	0xbd479e69	-0.048735056
91	0x3c5143e3	0.012772533
92	0x3b15916b	0.0022822272
93	0x3d0674ee	0.032826357
94	0x3b20b5c9	0.0024522415
95	0xbcee2957	-0.029072447
96	0xbca04423	-0.01956374
97	0xbd886cbd	-0.06661365
98	0xbd950399	-0.07276077
99	0x3db94000	0.0904541
100	0xbbe647d8	-0.0070276074
101	0x3ce25531	0.027628513
102	0x3d0d1424	0.034443036
103	0x3cefa3bc	0.02925288
104	0x3d0966df	0.03354537
105	0x3ca7a36f	0.020463673
106	0x3ca4032e	0.020021047
107	0xbd9069a5	-0.070514
108	0x3ceccc1b	0.028905919
109	0xbd8bab04	-0.06819728
110	0xbd665166	-0.05622997
111	0x3cfb5b36	0.030683141
112	0xbd1f11ce	-0.03883534
113	0x3d62a667	0.055334475
114	0xbd0eb86b	-0.034843843
115	0xbd38634f	-0.045016583
116	0xbd5a290a	-0.053261794
117	0xbd5d5003	-0.054031383
118	0x3d91bece	0.07116471
119	0x3ce8015d	0.028320963
120	0xbd85354c	-0.06504306
121	0x3da50c9e	0.08059047
122	0xbd536751	-0.051612202
123	0x3b9028dc	0.004399402
124	0x3d713cee	0.058895998
125	0xbd890868	-0.066910565
126	0xbd28d98e	-0.0412231
127	0xbd4393bf	-0.047748324
128	0xbc659808	-0.014013298
129	0x3c9e4ebc	0.019324653
130	0xbcf88df8	-0.030341133
131	0xbd8540c8	-0.06506497
132	0xbb6069a0	-0.0034242645
133	0xbd88a9ad	-0.06672988
134	0x3c071cf8	0.008246653
135	0xbd7090e9	-0.058731947
136	0xbd29a230	-0.04141444
137	0xbcfccb0e	-0.030858543
138	0x3b8ac1e0	0.0042345375
139	0x3b57ff20	0.0032958463
140	0xbc87516c	-0.016518317
141	0xbd9674b6	-0.073464796
142	0xbc624e90	-0.013812676
143	0xbd11ae30	-0.03556651
144	0x3c9492fc	0.018136494
145	0xbd6eb80e	-0.058280997
146	0x3af1e5c0	0.0018455312
147	0xbd652ed3	-0.05595286
148	0x3c1e6708	0.009668119
149	0xbb1d2160	-0.0023976192
150	0xbd2431f7	-0.040086713
151	0x3d0b8d8a	0.03407053
152	0xbca90b9f	-0.020635424
153	0x3d58759d	0.05284654
154	0x3ca43bcd	0.020048046
155	0x3d902fd6	0.07040374
156	0x3d969c3a	0.073540166
157	0x3d3c7e0b	0.04601864
158	0x3cdbc0c2	0.026825313
159	0xbd96c971	-0.07362641
160	0x3d90d09f	0.07071041
161	0xbb9a13ef	-0.0047020833
162	0x3d72fca7	0.05932298
163	0x3d39bfbe	0.045348875
164	0xbc3f36f5	-0.011670818
165	0xbccb7603	-0.024836546
166	0x3dc61129	0.09671242
167	0xba5f3bc1	-0.0008515679
168	0x3b8b615d	0.00425355
169	0xbd0715f3	-0.032979917
170	0x3d8cbda7	0.06872111
171	0x3da11abb	0.078664266
172	0xbd3c2eac	-0.045942947
173	0xbcf89a31	-0.030346962
174	0x3d9e2c71	0.0772332
175	0x3c81aac8	0.015828505
176	0xbd8378e3	-0.06419542
177	0x3d52fb8e	0.051509432
178	0xbd1a40cc	-0.03765945
179	0x3d46060d	0.048345614
180	0x3b8f2a6b	0.0043690703
181	0xbc3797d4	-0.011205632
182	0x3d1a684d	0.037697125
183	0xbd7f4397	-0.062320318
184	0x3c47ba95	0.012190481
185	0xbce02ba8	-0.027364567
186	0x3cc0c477	0.023531182
187	0xbcae9dd5	-0.021315495
188	0x3c0e31d7	0.008678875
189	0xb951f628	-0.00020023494
190	0xbd52f927	-0.05150714
191	0x3cd6cb89	0.0262201
192	0xbd5a3b9e	-0.05327951
193	0xbc0b127d	-0.008488295
194	0x3a98e94a	0.0011666205
195	0xbc7c56a4	-0.015401516
196	0x3d00173b	0.031272154
197	0xbd204696	-0.039129816
198	0xbd1dced0	-0.03852731
199	0x3cdbf12b	0.026848396
200	0x3d8f0038	0.069824636
201	0x3d8e6ae3	0.06953981
202	0xbbd22ecc	-0.00641427
203	0x3d246693	0.040136885
204	0xbda7213a	-0.08160634
205	0x3b08495a	0.0020795674
206	0xbd732c67	-0.059368517
207	0x3d83a048	0.064270556
208	0x3c27b7bc	0.010236677
209	0x3c866b0e	0.01640847
210	0xbd4f5f1f	-0.050627824
211	0xbd84a53e	-0.0647683
212	0xbcc1d8af	-0.023662893
213	0x3d09b26b	0.03361742
214	0x3d808057	0.06274479
215	0xbd9636ba	-0.07334657
216	0x3d1ea7e5	0.038734335
217	0xbd796022	-0.060882695
218	0xbd71dbd6	-0.059047543
219	0xbd5338d0	-0.051567852
220	0xbca64340	-0.02029574
221	0x3da0d43c	0.078529805
222	0xbd9d93e5	-0.07694224
223	0x3c3db909	0.01157976
224	0x3cb83d80	0.022490263
225	0x3cfacda1	0.03061563
226	0xbd34c817	-0.044136133
227	0x3d8f608e	0.07000838
228	0xbce6c0e4	-0.02816815
229	0xbcca63da	-0.024705816
230	0x3dca9165	0.09891013
231	0xbd0defa5	-0.03465237
232	0xbc09d007	-0.008411414
233	0x3cf4d900	0.02988863
234	0x3ccd4755	0.025058428
235	0x3d8b7034	0.068085104
236	0xbb915304	-0.004434945
237	0xbd317ea0	-0.04333365
238	0xbd23b636	-0.03996869
239	0xbd152fa5	-0.03642239
240	0xbcff019f	-0.031128703
241	0x3cbcf641	0.023066642
242	0x3c8ac6c9	0.016940491
243	0xbcfdae56	-0.030966919
244	0xbc71e3f7	-0.014763824
245	0x3dc1ba54	0.094593674
246	0x3d953c96	0.072869465
247	0x3dad37e2	0.084579244
248	0x3ce93aaa	0.028470356
249	0x3d8eca78	0.069722116
250	0x3bbc6a81	0.005750001
251	0xbbd3d06c	-0.006464055
252	0xbd95530d	-0.07291231
253	0x3cd6d3c1	0.026224019
254	0xbcf78828	-0.030216292
255	0x3d201607	0.039083507

conv2.bias f4 [16]
0	0xbba64436	-0.0050740493
1	0x3d8103e9	0.06299574
2	0xbba781b2	-0.0051118964
3	0x3d4a651b	0.049412828
4	0x3d62aa61	0.055338267
5	0xbd6f422f	-0.058412727
6	0x3c1cc73f	0.009568988
7	0xbd6a51e9	-0.05720702
8	0x3d64d3d1	0.055866066
9	0x3d369989	0.044580016
10	0xbd65167d	-0.05592965
11	0xbca6071c	-0.020267062
12	0x3d1832f3	0.037157964
13	0xbd72e19c	-0.05929719
14	0x3d8b89a9	0.06813366
15	0x3c21585b	0.009847726

fc1.weight f4 [120, 256]
0	0x3c4a9d50	0.012366608
1	0x3d7618ea	0.060082354
2	0x3d0deba0	0.034648538
3	0xbd67b17a	-0.05656574
4	0x3d303026	0.043014668
5	0x3bc87fc0	0.0061187446
6	0xbd4f7cc6	-0.050656103
7	0xbd6fb95d	-0.058526386
8	0x3b895400	0.004190922
9	0x3c2e34e2	0.010632725
10	0x3c43af30	0.011943623
11	0x3c3f2448	0.011666365
12	0xbc3bf7c8	-0.01147265
13	0x3d5b68ce	0.053566746
14	0x3cfee404	0.031114586
15	0xbd4dfae9	-0.050288115
16	0xbbf6a0f0	-0.0075265095
17	0x3c4d21c8	0.012520261
18	0x3d0c3fa9	0.0342404
19	0xbd5afe68	-0.053465277
20	0x3d03721c	0.032091245
21	0x3d514737	0.051093306
22	0x3c1dfa52	0.009642201
23	0x3c4e0f1d	0.0125768455
24	0xbc5b8cb7	-0.013400248
25	0x3d0b846e	0.03406184
26	0x3d5e29fe	0.054239266
27	0xbbd9f850	-0.0066519156
28	0xbd3f8306	-0.046755813
29	0x3d35069e	0.044195764
30	0x3d137318	0.035998434
31	0xbd2c9ce4	-0.04214181
32	0x3b74bee9	0.0037345237
33	0x3d760654	0.06006463
34	0x3d62bc5d	0.05535542
35	0xbd4d5257	-0.050127354
36	0xbcf9cb6f	-0.030492513
37	0xbd832450	-0.064034104
38	0x3d8027d5	0.06257597
39	0xbd110b86	-0.03541138
40	0xbd38078e	-0.04492908
41	0xbcdda5b9	-0.027056562
42	0xbc1471b2	-0.00906031
43	0xbcfa3e8a	-0.0305474
44	0x3adafd81	0.001670763
45	0x3d39510e	0.045243315
46	0xbbb778cf	-0.0055991183
47	0x3d44f9c6	0.048089765
48	0xbd358f81	-0.04432631
49	0x3bd87590	0.0066058114
50	0x3d452ae3	0.048136603
51	0xbbe09166	-0.0068532703
52	0x3cbc200f	0.022964505
53	0xbcb046d8	-0.021518156
54	0x3d5d3a0e	0.054010443
55	0x3d1f8928	0.03894916
56	0xbd75f91e	-0.06005203
57	0x3d7311d2	0.059343167
58	0x3c3ce54e	0.01152928
59	0x3c4992f1	0.0123031
60	0xbd4f250e	-0.050572447
61	0xbcf5d05c	-0.03000658
62	0x3ae65500	0.0017572939
63	0xbca2347c	-0.019800417
64	0x3d7b007c	0.06127976
65	0xbcc40a40	-0.023930669
66	0xbb18543e	-0.0023243572
67	0x3cf2e5c8	0.029650584
68	0xbd4e596e	-0.050378256
69	0x3ae53113	0.0017485939
70	0xbd510e2e	-0.051038913
71	0xbcdd7798	-0.027034566
72	0x3d1c1092	0.03810174
73	0xbb0baa20	-0.002131112
74	0x3b7ea2e0	0.0038854405
75	0x3cea6b10	0.028615505
76	0xbcdf2bec	-0.027242623
77	0xbd14917b	-0.036271553
78	0x3a28d600	0.000644058
79	0x3d583592	0.052785464
80	0x3d2d173a	0.04225848
81	0x3be651e0	0.007028803
82	0x3ccc2cf4	0.02492378
83	0x3c690880	0.014223218
84	0xbcaf853c	-0.021425836
85	0xbd3f6f52	-0.046737023
86	0xbca771cb	-0.020440003
87	0xbd22abde	-0.039714687
88	0xbbfb5165	-0.007669615
89	0x3af3c44e	0.0018597932
90	0x3d0e9a8f	0.034815367
91	0x3b6725c0	0.0035270303
92	0xbb522bc0	-0.0032069534
93	0xbcd0f93c	-0.02550947
94	0xbc3115cb	-0.0108084185
95	0x3cd33434	0.025781728
96	0xbbe83904	-0.007086875
97	0x3c63a806	0.01389504
98	0xbc814aea	-0.015782792
99	0x3ceba197	0.028763575
100	0x3d539912	0.05165965
101	0x3b196e4b	0.0023411687
102	0xbd36a70f	-0.044592913
103	0x3d1f5c5e	0.038906448
104	0x3cc0a1d1	0.02351466
105	0xbd224e8e	-0.039625697
106	0xbd7da31b	-0.061923128
107	0x3c78fa7d	0.01519644
108	0x3c17f913	0.0092756925
109	0xbd4a48d9	-0.04938588
110	0xbd1f8458	-0.038944572
111	0xbd211e5a	-0.039335586
112	0x3d0427c4	0.032264486
113	0xbc8f16ce	-0.017466929
114	0xbd693ead	-0.056944538
115	0x3c5b11d0	0.013370946
116	0x3ce216c9	0.027598755
117	0xbccb0a00	-0.024785042
118	0x3cbf85c8	0.023379222
119	0x3a4d6624	0.00078353495
120	0xbd3a5c34	-0.045498088
121	0x3d1a76e8	0.037711054
122	0x3d3fc962	0.046822913
123	0xbbdbca67	-0.006707478
124	0x3d6fd91a	0.058556654
125	0x3c26de30	0.01018481
126	0xbd777885	-0.06041767
127	0xbd52983e	-0.05141472
128	0x3d54d969	0.05196515
129	0x3c7a4545	0.015275304
130	0x3d521138	0.051285952
131	0x3d212b40	0.039347887
132	0x3d49451b	0.04913817
133	0xbcd13096	-0.025535863
134	0x3d3786c0	0.044806242
135	0xbc717cd4	-0.014739234
136	0x3cf8de3c	0.030379407
137	0xbd03d5be	-0.032186262
138	0x3d51f2f7	0.0512571
139	0xbbc8a2c0	-0.006122917
140	0xbb99028f	-0.0046694945
141	0x3cd64e78	0.026160464
142	0xbc075ea9	-0.008262315
143	0x3b04b815	0.0020251323
144	0x3cd5397c	0.026028387
145	0xbd5325f8	-0.05154988
146	0xbd13d19a	-0.036088564
147	0xbd7c042e	-0.061527424
148	0x3d43792d	0.047722984
149	0xbd30e106	-0.04318335
150	0xbc7d4df8	-0.015460484
151	0x3d27ede3	0.04099835
152	0xbd8844b9	-0.06653733
153	0xbad61bc2	-0.0016335177
154	0x3cd0229f	0.025407134
155	0xbd5a1770	-0.053245008
156	0xbd1b35f9	-0.03789327
157	0x3ce25311	0.0276275
158	0x3d373fbe	0.044738524
159	0xbd3aee3e	-0.04563736
160	0xbca9ab68	-0.020711616
161	0xbab4dfc0	-0.0013799593
162	0xbb9aebc0	-0.0047278106
163	0x3d6ec734	0.058295444
164	0x3d07cc08	0.033153564
165	0x3d2068be	0.03916239
166	0xbaf029c0	-0.0018322989
167	0x3bb4fd10	0.0055233315
168	0xbbe61040	-0.00702098
169	0x3c67afa0	0.014140993
170	0xbccc5a4c	-0.0249454
171	0xbcf2062c	-0.029543959
172	0x3d5bfe2e	0.0537092
173	0xbca4dd9c	-0.020125203
174	0x3d589e66	0.052885436
175	0xbb7cfb60	-0.003860198
176	0x3d0ddc9a	0.03463421
177	0xbc5d7da0	-0.013518721
178	0x3d5dfdbe	0.054197066
179	0x3d610658	0.05493769
180	0x3cdbca08	0.026829734
181	0xbd326c5c	-0.04356037
182	0x3d1c2de2	0.038129695
183	0x3bfbbce0	0.0076824278
184	0x3d589dbe	0.05288481
185	0x3ccabb48	0.024747506
186	0x3d736a98	0.059427828
187	0xbc7d7880	-0.015470624
188	0x3d7aaf4a	0.061202325
189	0xbd78e516	-0.06076535
190	0x3d45e248	0.0483115
191	0x3d011b22	0.031520016
192	0xbc9fd57e	-0.01951098
193	0x3c308c5c	0.010775652
194	0x3d6682a8	0.056276947
195	0xbcb23552	-0.02175394
196	0xbd813afd	-0.06310079
197	0x3d41fc70	0.047359884
198	0xbcd2839c	-0.025697522
199	0xbca7fee7	-0.02050729
200	0xbd404bae	-0.046947174
201	0x3857c477	5.1442967e-05
202	0xbc87b596	-0.01656608
203	0xbd5e3106	-0.05424597
204	0xbd41ca8e	-0.04731231
205	0xbd20da72	-0.039270826
206	0x3c77c42e	0.0151224565
207	0xbc8a399b	-0.016873172
208	0x3c28be6d	0.010299307
209	0xbcb46907	-0.022022737
210	0x3d3e70e8	0.046494395
211	0xbd27db43	-0.04098059
212	0xbd0e3201	-0.034715656
213	0xbd1b21e9	-0.037874136
214	0xbd14b8ee	-0.036309175
215	0x3d1e5211	0.038652483
216	0x3cb7a02d	0.022415245
217	0x3d383328	0.04497066
218	0x3d52bbc1	0.051448587
219	0xbb0d3329	-0.0021545386
220	0xbd5057e3	-0.050865065
221	0xbd8a4e64	-0.06753233
222	0xbd25ac5d	-0.04044758
223	0x3d543a08	0.051813155
224	0xbd282a29	-0.041055832
225	0xbd318df3	-0.043348264
226	0xbd01d2c8	-0.031695157
227	0x3d2caed2	0.04215891
228	0x3c641f31	0.013923452
229	0xbc87692f	-0.016529648
230	0xbd82c9da	-0.063861564
231	0x3c85f9bf	0.01635444
232	0x3d3ab606	0.045583747
233	0x3d0affc8	0.03393534
234	0xbd869402	-0.06571199
235	0xbc4935be	-0.01228088
236	0xbd54514b	-0.05183534
237	0xbd834f40	-0.064116
238	0x398757ee	0.0002581472
239	0x3d22c086	0.039734386
240	0xbd1c81f6	-0.038209878
241	0x3d4b82b4	0.049685195
242	0xbd4720eb	-0.048615377
243	0xbcddc98c	-0.027073644
244	0x3d386f67	0.045028117
245	0x3bb0f417	0.0054001915
246	0xbafa8ed7	-0.0019116056
247	0x3d4c6b5c	0.049907073
248	0xbd2df9de	-0.04247462
249	0xbd61861f	-0.05505955
250	0xbd6391eb	-0.05555908
251	0xbd5e58a9	-0.05428377
252	0xbd79b112	-0.060959883
253	0xbc672a8a	-0.014109263
254	0x3cf38194	0.029724874
255	0xbcf1c239	-0.029511558

fc1.bias f4 [120]
0	0x3d56bd38	0.052426547
1	0x3c905b77	0.017621739
2	0xbd360eba	-0.044447638
3	0xbd38350a	-0.044972457
4	0x3bc5b929	0.0060340357
5	0xbd3fd345	-0.04683234
6	0x3d2754cd	0.040852357
7	0xbce89ca8	-0.028395012
8	0x3d3d72f0	0.04625219
9	0x3d7b2cef	0.06132215
10	0xbd279c6e	-0.040920667
11	0x3cece539	0.028917896
12	0x3c819cfc	0.015821926
13	0xbbacb4ba	-0.0052705677
14	0xbc4c9a16	-0.012487909
15	0xbd36065d	-0.044439662
16	0xbcb45720	-0.0220142
17	0x3ce493a2	0.027902428
18	0x3d5735e7	0.05254164
19	0xbc8d9242	-0.017281655
20	0x3d04b464	0.032398596
21	0x3d345ee2	0.0440358
22	0xbcd7f409	-0.026361482
23	0xbbd6c8fa	-0.00655472
24	0xbbc7e318	-0.0061000697
25	0x3b25f457	0.002532264
26	0xbd5e100c	-0.054214522
27	0xbd5ddab8	-0.054163665
28	0xbce992e4	-0.028512426
29	0xbbc0cb6f	-0.005883626
30	0xbbdedd41	-0.006801278
31	0x3cfa548d	0.030557895
32	0xbd77aaff	-0.06046581
33	0x3b926796	0.004467915
34	0x3cceed95	0.025259772
35	0x3d0bab5d	0.03409897
36	0x3d4b8cf6	0.049694978
37	0x3cc7d6cc	0.024394415
38	0x3d0d728a	0.03453306
39	0xbd4b21fb	-0.049592953
40	0xbc07eea0	-0.008296639
41	0x3c578bb5	0.013155867
42	0xbc06b666	-0.008222198
43	0xbd277d72	-0.04089112
44	0xbc81ec9c	-0.015859894
45	0x3d33fb90	0.04394108
46	0xbc2fb7e2	-0.010724993
47	0xbc4a8cb1	-0.012362645
48	0x3c14434d	0.009049249
49	0xbc43352b	-0.011914532
50	0x3ca4af50	0.020103127
51	0x3d35e4bc	0.04440759
52	0x3d366593	0.044530462
53	0x3bd3845f	0.006454989
54	0x3bf6d3b2	0.0075325603
55	0xbd348f25	-0.044081826
56	0xbd053f19	-0.032530878
57	0xbd63ae6d	-0.055586267
58	0x3d6ac175	0.0573134
59	0x3cadb771	0.021205636
60	0xbc44b374	-0.012005676
61	0xbad80000	-0.0016479492
62	0x3b941cca	0.0045200335
63	0xbb20fdf8	-0.002456544
64	0xbd5d91ec	-0.05409424
65	0xbd4f021b	-0.050539117
66	0x3d07e21a	0.03317461
67	0xbd0741b6	-0.03302165
68	0xbd252fe3	-0.04032887
69	0xbc01f3b6	-0.00793164
70	0x3d455d1e	0.048184507
71	0x3d2f10a9	0.042740498
72	0x3d341932	0.04396934
73	0xbcd47694	-0.025935449
74	0xbc923ab9	-0.017850267
75	0xbd5055ee	-0.0508632
76	0x3c7501cd	0.014954043
77	0xbba6f93c	-0.005095629
78	0x3d486531	0.04892463
79	0xbd74a032	-0.059723087
80	0x3d6b780e	0.05748754
81	0x3cc69303	0.024240023
82	0xbb91f063	-0.004453705
83	0xbc86dd92	-0.016463075
84	0x3cfe329d	0.031029994
85	0xbcc90046	-0.024536263
86	0x3d71ad5b	0.059003215
87	0xbbefb1a6	-0.0073148785
88	0xbd7d7bd6	-0.061885677
89	0xbcd08085	-0.025451908
90	0xbcf29578	-0.029612288
91	0x3c3ba650	0.011453226
92	0x3d1501f2	0.03637881
93	0x3cf49c1a	0.029859591
94	0x3d5aba4a	0.053400315
95	0xbd5f0319	-0.054446314
96	0x3c8594e4	0.016306348
97	0x3aa26300	0.0012389123
98	0x3d3a2050	0.04544097
99	0x3d326f48	0.043563157
100	0xbd82d3b1	-0.06388033
101	0x3d633314	0.055468634
102	0x3c9b7f51	0.018981608
103	0x3caf8c69	0.021429257
104	0x3d3dba58	0.04632029
105	0x3d298e5f	0.04139554
106	0x3d4e8520	0.050419927
107	0x3d384967	0.044991877
108	0xbd14c55d	-0.036321033
109	0xbd892550	-0.0669657
110	0x3d435a70	0.04769367
111	0x3d38a9df	0.045083877
112	0xbd12026c	-0.03564684
113	0xbc377797	-0.011197946
114	0xbbefbf0c	-0.0073164757
115	0x3d1d1b5f	0.03835618
116	0xbd16d526	-0.036824368
117	0xbbaf6b78	-0.0053533874
118	0xbcd84b96	-0.02640323
119	0xbc198271	-0.009369479

fc2.weight f4 [84, 120]
0	0x3d36115c	0.04445015
1	0x3d734434	0.059391215
2	0x3d9920ba	0.07476945
3	0x3cd307cc	0.025760554
4	0xbdaa126e	-0.083042964
5	0xbd866426	-0.065620705
6	0x3ca82274	0.020524241
7	0x3d8b55de	0.06803487
8	0x3da216be	0.07914494
9	0xbd966e74	-0.07345286
10	0xbbbc06f0	-0.0057381317
11	0x3d00ba06	0.031427406
12	0xbd094c28	-0.033519894
13	0xbd36d1d5	-0.044633705
14	0xbda1f69c	-0.07908365
15	0xbd1a2e4d	-0.037641812
16	0xbc84ea98	-0.016225144
17	0x3c6edc10	0.014578834
18	0x3cd047c4	0.025424846
19	0xbda58955	-0.08082835
20	0xbdba3d04	-0.09093669
21	0xbd90977f	-0.070601456
22	0xbd4298c2	-0.047508962
23	0xbc4b4a08	-0.012407787
24	0xbda616f3	-0.08109846
25	0xbd19c1b4	-0.037538245
26	0x3c5c6968	0.013452865
27	0xbd6ed3a8	-0.05830732
28	0x3d0d0610	0.03442961
29	0x3d8b8dfa	0.06814189
30	0x3db2d606	0.08732228
31	0xbc805e8c	-0.015670083
32	0xbb885220	-0.0041601807
33	0x3d69d2b0	0.057085693
34	0x3d199fb0	0.037505805
35	0x3d6a8298	0.05725345
36	0x3d45a2dc	0.048251018
37	0x3b575e20	0.00328625
38	0x3d10d0c4	0.035355344
39	0xbd26527e	-0.040606014
40	0x3b21c6a0	0.002468504
41	0xbda8b53b	-0.08237692
42	0xbb0e28e0	-0.0021691844
43	0xbd5a10b7	-0.053238597
44	0x3d59be20	0.053159833
45	0xbd0512ff	-0.03248882
46	0xbbfada90	-0.007655449
47	0xbc04d040	-0.008106291
48	0x3d70d39c	0.058795556
49	0xbd6b009d	-0.05737363
50	0x3d9b3f38	0.075804174
51	0x3d667f90	0.056273997
52	0x3c38ce68	0.01127968
53	0xbcfbae86	-0.030722868
54	0x3da50ed8	0.08059472
55	0xbda41567	-0.08011895
56	0x3b2c2600	0.0026267767
57	0xbdb019e5	-0.08598689
58	0x3db2ad96	0.08724515
59	0xbcfbf330	-0.03075561
60	0x3d23ad20	0.039960027
61	0x3c24e6f0	0.010064825
62	0xbcf6cbfa	-0.03012656
63	0x3d9f6c8e	0.07784377
64	0x3daa79f8	0.08324045
65	0xbc9b8cf4	-0.01898811
66	0xbd8f0b8b	-0.069846235
67	0x3d9372ec	0.07199654
68	0x3c645890	0.013937131
69	0x3c906258	0.017625019
70	0xbd826cd0	-0.063684106
71	0x3d9dc3dc	0.07703373
72	0x3bc9b700	0.0061558485
73	0x3d4b9acc	0.049708173
74	0xbc769ae0	-0.0150515735
75	0x3d54d1d8	0.051957935
76	0xbd1443cb	-0.036197465
77	0xbd7f0206	-0.06225779
78	0x3d680254	0.056642845
79	0x3cd08090	0.025451928
80	0xbc9026d4	-0.01759664
81	0xbd8aa0cc	-0.06768951
82	0xbd4a5f9b	-0.049407583
83	0x3db2ed4a	0.087366655
84	0xbd127592	-0.035756655
85	0x3d985580	0.07438183
86	0xbc9e92bc	-0.019357078
87	0xbd3f6fe6	-0.046737574
88	0xbd97a146	-0.07403807
89	0x3d5a38d0	0.053276837
90	0xbd40971c	-0.04701911
91	0x3d44a5e4	0.048009768
92	0x3d9a309a	0.07528801
93	0xbcbafa50	-0.022824436
94	0xbdb5a898	-0.08870047
95	0x3db0cc78	0.08632749
96	0x3ca2f0c0	0.01989019
97	0x3d8709ac	0.06593642
98	0xbd2203db	-0.039554458
99	0x3c942078	0.018081889
100	0xbcd3ad80	-0.025839567
101	0xbd33a04c	-0.043854043
102	0xbc5de170	-0.013542518
103	0xbc87e304	-0.016587742
104	0xbd4d05de	-0.050054424
105	0x3d935878	0.071946084
106	0xbc6fec30	-0.014643714
107	0xbbdcba70	-0.0067360923
108	0x3d99e512	0.07514395
109	0xbd6529ef	-0.055948194
110	0xbd117ee4	-0.035521403
111	0x3d82d95e	0.06389116
112	0xbd9b68cc	-0.07588348
113	0x3bb49010	0.0055103377
114	0xbd2bdec2	-0.041960485
115	0xbc5fa248	-0.013649531
116	0xbd2dd9e1	-0.042444114
117	0x3bdf2f40	0.0068110526
118	0xbda1fd54	-0.07909647
119	0x3da6310a	0.08114822
120	0x3d4638d0	0.048394024
121	0x3b82e950	0.003995098
122	0xbda5d876	-0.08097927
123	0xbd080deb	-0.0332164
124	0xbc4ce4c8	-0.012505718
125	0x3d35a40c	0.0443459
126	0xbd96b481	-0.07358647
127	0xbcf9e85e	-0.03050631
128	0xbd3d411b	-0.046204668
129	0x3ca54b68	0.020177558
130	0xbcb83150	-0.022484452
131	0xbc8f28b4	-0.017475463
132	0xbd8b73eb	-0.06809219
133	0x3c04aba0	0.008097559
134	0xbd4b231e	-0.049594037
135	0xbd3d171a	-0.04616461
136	0xbc9adf60	-0.018905342
137	0x3ce8c4c4	0.028414138
138	0xbd8a5bb6	-0.06755774
139	0x3d9ec84c	0.07753047
140	0x3ccec7c8	0.025241747
141	0xbd8b0388	-0.06787783
142	0x3d6246e4	0.055243388
143	0x3dae29c6	0.085040614
144	0x3da70412	0.08155073
145	0x3c255178	0.010090224
146	0xbd73deaf	-0.05953854
147	0x3db7e808	0.08979803
148	0x3d8ccab0	0.06874597
149	0xbccda970	-0.025105208
150	0x3daac7e8	0.0833891
151	0x3d28346c	0.04106562
152	0xbceb9010	-0.028755218
153	0x3b761660	0.0037549958
154	0x3a67d800	0.0008844137
155	0x3d57e3fc	0.052707657
156	0x3db97d52	0.09057106
157	0x3a461100	0.0007555634
158	0x3bd8a550	0.0066115037
159	0xbd5bbaaf	-0.053644832
160	0xbda32ccf	-0.07967531
161	0x3d9e3d04	0.077264816
162	0x3d15c704	0.03656675
163	0x3d96dd90	0.073664784
164	0xbc65dce8	-0.014029719
165	0x3daa06ac	0.08302054
166	0xbd75c4fb	-0.06000231
167	0xbd8a93b4	-0.067664534
168	0xbcb600b0	-0.022217125
169	0x3ca2ee7c	0.019889109
170	0x3c4dba40	0.0125566125
171	0xbda7d2f1	-0.08194531
172	0xbc14ca70	-0.009081468
173	0x3d9c1ff2	0.076232806
174	0x3d28730c	0.041125342
175	0xbd4e9db7	-0.050443377
176	0xbd832b27	-0.06404715
177	0x3d0beee0	0.034163356
178	0xbd1cad93	-0.03825147
179	0xbd6735f5	-0.05644794
180	0x3cf1d2f0	0.029519528
181	0x3c5fa3d8	0.013649903
182	0x3d417508	0.04723075
183	0x3da19964	0.07890585
184	0xbdb94d17	-0.09047907
185	0xbd8f50f3	-0.06997862
186	0xbd87726e	-0.066136226
187	0x3d1dbcc0	0.038510084
188	0xbd03ec8a	-0.032208003
189	0x3d98b540	0.07456446
190	0x3d6a115c	0.05714546
191	0xbd86fade	-0.06590818
192	0xbbb91a50	-0.0056488886
193	0x3d871662	0.06596066
194	0xbd680c4f	-0.056652363
195	0xbda18a2d	-0.07887683
196	0x3da9d81a	0.08293171
197	0x3d96b9d6	0.07359664
198	0x3d877ad6	0.06615226
199	0x3d8d675a	0.06904478
200	0xbbca1f40	-0.006168276
201	0xbd2ed1dd	-0.04268061
202	0xbd9d676f	-0.07685744
203	0xbd71904e	-0.05897551
204	0xbce9bec8	-0.028533354
205	0x3cd3175c	0.025767975
206	0x3d29bdb0	0.041440666
207	0x3d3ed208	0.04658702
208	0xbca97b74	-0.02068875
209	0x3c22dee0	0.009940833
210	0xbce8b0e4	-0.02840466
211	0xbd0bf3a4	-0.0341679
212	0x3d12ff58	0.035888046
213	0xbd8acd7e	-0.06777476
214	0x3dacadae	0.08431564
215	0x3c80d6d8	0.015727445
216	0x3da0b706	0.07847409
217	0x3d0195ac	0.03163688
218	0xbd7afe02	-0.061277397
219	0xbd250a90	-0.040293276
220	0x3d2c0b28	0.042002827
221	0x3d7eaf38	0.06217882
222	0xbb537b40	-0.0032269508
223	0x3d29b930	0.041436374
224	0x3d238d90	0.039929926
225	0xbd6b57b3	-0.057456683
226	0xbd69ae39	-0.057050917
227	0x3d87eb84	0.06636718
228	0x3d750b74	0.059825376
229	0xbd84757c	-0.06467721
230	0xbd03f9e6	-0.032220744
231	0x3d44c228	0.048036724
232	0xbda418f0	-0.08012569
233	0xbc793998	-0.015211485
234	0xbd5e06a1	-0.05420554
235	0xbd67e6e2	-0.05661667
236	0x3c8843e8	0.016633943
237	0xbda99c93	-0.08281817
238	0xbd8bf596	-0.06833951
239	0xbd120d09	-0.035656963
240	0x3c81656e	0.015795436
241	0xbd8ea8f8	-0.06965822
242	0xbd8395cf	-0.06425058
243	0xbc8443c0	-0.016145587
244	0x3b0cf0a0	0.0021505728
245	0x3c2d74e9	0.010586956
246	0xbc652822	-0.013986619
247	0x3dacb0c2	0.084321514
248	0xbd87bbfe	-0.066276535
249	0x3d316e01	0.0433178
250	0xbdc18370	-0.09448898
251	0x3d5ef912	0.05443675
252	0xbda23e38	-0.079220235
253	0x3d874879	0.0660562
254	0xbc394d3c	-0.011309918
255	0xbc4d3793	-0.012525457

fc2.bias f4 [84]
0	0xbd6f2e7c	-0.05839394
1	0xbb04e340	-0.0020277053
2	0xbd4b3d4c	-0.049619004
3	0xbdb6bd17	-0.08922785
4	0xbd51465d	-0.051092494
5	0xbcb629d4	-0.022236742
6	0x3d8850bd	0.066560246
7	0x3c756807	0.014978415
8	0xbc81e7c1	-0.01585758
9	0x3d8a3fb3	0.06750431
10	0x3d8c7718	0.06858653
11	0x3d0b325c	0.033983573
12	0x3c048ab4	0.00808971
13	0xb92cce00	-0.00016479939
14	0x3c2278e9	0.009916523
15	0xbb656b40	-0.0035006553
16	0xbd338b9a	-0.043834306
17	0xbd1fdc72	-0.039028592
18	0xbca7a168	-0.020462707
19	0xbbf70000	-0.007537842
20	0xbd57c0c1	-0.05267406
21	0xbd0729ed	-0.032998968
22	0xbb2b05ad	-0.0026095912
23	0xbb6f9f1f	-0.003656335
24	0xbc927f72	-0.017883036
25	0x3cd69d8c	0.026198171
26	0xbd349596	-0.04408797
27	0x3da00475	0.0781335
28	0x3c7df4c2	0.015500249
29	0x3d2739ce	0.04082661
30	0x3d407961	0.046990756
31	0x3a387f1f	0.00070379855
32	0x3d2dc415	0.042423327
33	0xbc24f4e8	-0.010068156
34	0x3d86d342	0.06583263
35	0x3ccd415e	0.025055584
36	0xbd3c849e	-0.04602491
37	0xbc986252	-0.01860157
38	0xba620a98	-0.00086227944
39	0x3d0b418f	0.03399807
40	0xbcf5710a	-0.029961128
41	0xbca62870	-0.020282954
42	0xbd53e1b3	-0.051728915
43	0x3d33fc85	0.043941993
44	0xbd126da1	-0.03574908
45	0x3b53cb00	0.0032317042
46	0x3d6d0264	0.057863608
47	0xbd17687d	-0.036964882
48	0xbcec4720	-0.028842509
49	0x3d479abc	0.04873155
50	0x3c929888	0.017894998
51	0xbca9f193	-0.020745074
52	0x3d0906a1	0.033453587
53	0xbdaab5a3	-0.08335426
54	0x3ca2a69d	0.019854838
55	0xbd9081b2	-0.070559874
56	0x3cac2fcc	0.021018885
57	0xbc50942b	-0.0127306385
58	0xbda91260	-0.08255458
59	0xbd1c2535	-0.03812142
60	0x3d8b053b	0.06788107
61	0xbca0421c	-0.019562773
62	0x3d35ba54	0.04436715
63	0xbdb23fea	-0.08703597
64	0xbce44ab3	-0.02786765
65	0x3d62f3d9	0.055408332
66	0x3d5ff587	0.054677512
67	0x3c88744b	0.016657015
68	0xbd1d0579	-0.038335297
69	0x3ca3a831	0.01997766
70	0xbc4b8304	-0.012421373
71	0x3c124a0a	0.008928785
72	0x3d6cec58	0.057842582
73	0x3d9fe302	0.0780697
74	0x3d24407f	0.04010057
75	0xbd0306d9	-0.031988952
76	0xbd2e4d7c	-0.042554364
77	0xbc3b1d58	-0.01142057
78	0xbd50ca09	-0.050973926
79	0xbaa61cd2	-0.0012673384
80	0xbd5b97ab	-0.05361144
81	0xbc67ea9c	-0.014155056
82	0xbd98965e	-0.07450555
83	0x3d956ad8	0.072957695

fc3.weight f4 [1, 84]
0	0xbdbd3089	-0.09237773
1	0xbbe2ae00	-0.006917715
2	0xbb85fbb9	-0.0040888456
3	0xbd2b090a	-0.041756667
4	0xbd8cf5ce	-0.06882821
5	0xbcbbfb79	-0.02294706
6	0xbd65bf51	-0.056090657
7	0x3d84a573	0.064768694
8	0xbde04612	-0.10950865
9	0xbc04787c	-0.008085366
10	0xbcd2ff02	-0.025756363
11	0xbd245ba9	-0.040126476
12	0x3ba6a3ae	0.00508543
13	0x3bb28ce0	0.0054489225
14	0x3b66f13a	0.0035238997
15	0x3d8b8a65	0.06813506
16	0xbc5dbca6	-0.013533747
17	0x3d94ef26	0.072721764
18	0xbdd442db	-0.10364314
19	0xba606c80	-0.00085610896
20	0x373e8000	1.1354685e-05
21	0xbdab0322	-0.08350207
22	0xbdc0a636	-0.09406702
23	0xbcdfe399	-0.027330207
24	0x3bc72c1f	0.0060782577
25	0x3d615b8a	0.05501894
26	0x3de78669	0.113049336
27	0xbcaa7ad9	-0.020810531
28	0x3d97e5b3	0.074168585
29	0xbd8eae01	-0.06966782
30	0x3c336e3f	0.010951578
31	0x3daee750	0.08540213
32	0xbddd25b8	-0.1079821
33	0xbd1726c0	-0.03690219
34	0xbdcf1659	-0.10111684
35	0xbdcea8f0	-0.10090816
36	0x3d29ba41	0.04143739
37	0xbdab2d4e	-0.083582506
38	0x3d97a302	0.07404138
39	0xbdaf3907	-0.08555799
40	0xbd94d980	-0.07268047
41	0x3d449565	0.047994036
42	0x3dc15309	0.09439666
43	0x3d1127f7	0.035438504
44	0x3d0bcfc2	0.03413368
45	0xbdbcf949	-0.09227235
46	0xbd0f73af	-0.035022434
47	0x3da51615	0.080608524
48	0x3dc1d1b5	0.094638266
49	0x3d805755	0.06266657
50	0xbc0afc63	-0.008483025
51	0x3d9e566f	0.0773133
52	0xbc8f1898	-0.017467782
53	0x3c8d60b4	0.017258026
54	0xbd79d0a2	-0.060989983
55	0xbd23734c	-0.039904878
56	0xbd3f6582	-0.046727665
57	0x3d209eea	0.039214052
58	0xbb1da349	-0.0024053624
59	0x3cec9f32	0.028884504
60	0xbdbb23f8	-0.0913772
61	0xbdded90f	-0.108812444
62	0x3c8b0c15	0.016973535
63	0xbcab4adc	-0.02090972
64	0xbb4ea228	-0.0031529758
65	0x3d93a118	0.072084606
66	0x3dae6b9f	0.08516621
67	0xbbddb6ae	-0.006766162
68	0x3db1e595	0.086863674
69	0xbdcf2379	-0.10114188
70	0xbd9a49bb	-0.07533594
71	0xbcb92fff	-0.022605894
72	0xbc3d0577	-0.011536947
73	0xbdaf58ee	-0.08561884
74	0x3d6f9dec	0.058500215
75	0x3d0df9f2	0.034662195
76	0xbdb095cd	-0.08622322
77	0xbc8abecb	-0.01693668
78	0x3d6a3179	0.057176087
79	0xbd63d8e2	-0.055626757
80	0x3d8df203	0.06930926
81	0x3d175e2c	0.036955044
82	0x3ccee94c	0.025257729
83	0xbd61c97c	-0.05512379
