Week7/checkpoint/checkpoint_epoch_6.pth (torch, 178450 bytes, 9 tensors)

conv1.weight f4 [6, 1, 5, 5]
000000 72 73 b2 3d 39 93 fc 3c 2c 10 97 3d 6a cb fe bd
       0.08713426 0.03083192 0.073761314 -0.12441142
000010 a7 b0 21 be 2a 2d 54 3e 53 56 fc bb a7 be 4f be
       -0.15790044 0.20720354 -0.0077007203 -0.20287572
000020 e0 e9 1a bd 0a 9b 4d 3d 72 51 0a bd 9a 92 19 be
       -0.037820697 0.050196685 -0.03376908 -0.1499733
000030 19 c6 fb 3d 63 82 14 be e1 4c 90 39 e1 4e 3b be
       0.122936435 -0.14502864 0.000275231 -0.18291809
000040 6b b6 8d 3d 73 eb 22 be 3d df b4 3d 9d 6c 0d 3e
       0.06919559 -0.15910129 0.08831642 0.13810964
000050 f8 64 5d 3d 9e 64 15 3e ea fd 1c be b1 dc 1e 3e
       0.05405137 0.14589164 -0.15331236 0.15513875
000060 7d 17 25 3e 4a 58 3e bd ff 11 d7 3d 0d 06 89 3d
       0.16122241 -0.046470918 0.10501479 0.06690607
000070 63 f1 4f be ac 1e d9 3d ca 48 07 bd d7 da 8c 3d
       -0.20306925 0.10601553 -0.0330284 0.06877678
000080 ea f0 0a be bf d2 16 3e 81 76 db 3d 79 35 ea 3b
       -0.13568464 0.14728831 0.10715962 0.0071474877
000090 82 d9 b3 bd cb 8f a5 bd 9f a8 12 3d 41 41 36 bd
       -0.08781721 -0.08084067 0.03580534 -0.044495825
0000a0 91 79 11 be 41 63 4a bc b2 22 3e 3e 3c 65 98 3d
       -0.1420653 -0.012352766 0.18567923 0.07441184
0000b0 8c d2 1c be 8b 06 38 3e 52 7c f2 3c b1 ad 05 3e
       -0.15314692 0.17971246 0.029600296 0.1305454
0000c0 f7 a2 ea bc ba 1b a1 bd 59 1c 46 3e 94 94 47 3d
       -0.02864216 -0.078666165 0.19346751 0.04872568
0000d0 cb 94 8b ba 5a 9f 78 bd 08 ff f0 bd 9d 16 a0 3d
       -0.0010649202 -0.060698844 -0.11767393 0.07816813
0000e0 aa 00 9c bd 5f f5 c1 bd 9c a4 cd bd f4 f6 cd bd
       -0.07617314 -0.09470629 -0.10041162 -0.10056868
0000f0 c8 95 46 3e f3 22 ef bc 6f ed 2d bc ab 6e e0 bd
       0.19393075 -0.02919147 -0.010615691 -0.10958608
000100 31 69 f3 3d 6a 8d 78 bd 7f 75 b6 3d ec fe 09 3e
       0.11885298 -0.060681738 0.08909129 0.13476151
000110 e6 ee fb bc fa ba 5a bd 2b 83 c1 3d f1 7e 38 3e
       -0.030753564 -0.05340097 0.094488464 0.18017174
000120 bc bf 8e bd 1d 4c 06 3e 7d 04 a9 bd 1a 3c 15 bd
       -0.06970164 0.13114972 -0.08252809 -0.03643427
000130 3c d7 47 bd 35 27 62 3d 5e db c7 3d 60 81 1f be
       -0.048789248 0.055213172 0.09758638 -0.15576696
000140 60 22 34 be 21 0d de 3d 4f 9a b7 ba 8f db 16 be
       -0.17591238 0.10842348 -0.001400778 -0.14732192
000150 03 c1 11 be 31 7a 1d be 59 4c 0a 3e 96 0d 15 be
       -0.14233784 -0.15378644 0.13505687 -0.14555964
000160 c9 e5 f9 3d fa 6c 9d bd 0b 77 36 bd 5a 2f 5a 3e
       0.12202031 -0.07686801 -0.044547122 0.21307126
000170 48 9c b0 bb 77 30 29 3e 2c f0 02 be 77 d2 f7 bd
       -0.005389724 0.16522394 -0.12786931 -0.1210069
000180 73 9e 58 3e 77 c0 07 3d 1e de 5a bd 47 e1 1e 3e
       0.21154194 0.033142533 -0.053434484 0.15515624
000190 89 10 4e 3e 4e 3d 0c 3e 71 43 10 be 85 60 ba 3d
       0.20123495 0.13695261 -0.14088227 0.09100441
0001a0 1b f2 27 be 24 31 31 3e 2c a1 a6 bd e5 bf 11 be
       -0.1640095 0.17303902 -0.0813621 -0.14233358
0001b0 ca 8b 19 3e b8 1d 16 3e 10 24 d3 bd 24 9a 21 3e
       0.14994732 0.14659774 -0.10309613 0.15781456
0001c0 b8 eb 35 be e6 d4 fb bd 40 80 ac bb 6e f1 21 3e
       -0.17765701 -0.122964665 -0.005264312 0.15814754
0001d0 85 27 2d 3e 89 e0 92 bd 14 de 32 3e 99 ae 55 3d
       0.16909607 -0.07171733 0.17467529 0.052168462
0001e0 35 ab 7c 3d 16 18 05 3e 86 a5 46 3d 39 a9 42 3e
       0.061686713 0.1299747 0.0484977 0.19009866
0001f0 7b 38 49 be 68 44 f9 bc 52 f9 13 be ed 0c a3 bd
       -0.19650452 -0.030428126 -0.14450577 -0.0796145
000200 60 83 a7 bb 07 4f 3a be 10 15 bf bd 00 3b e0 3c
       -0.0051120967 -0.18194209 -0.09330189 0.027371883
000210 63 96 fd bd c3 5b 4a 3e 77 59 b7 bd ea 43 09 be
       -0.123821996 0.19761567 -0.08952611 -0.13404813
000220 ba 74 98 3d 5a 1b ef bd 99 6b 0d 3e 26 b9 27 be
       0.07444139 -0.11675139 0.13810576 -0.16379222
000230 40 06 a3 bc d0 c7 42 be e3 f8 25 be 08 11 19 bd
       -0.019900441 -0.19021535 -0.16208224 -0.037369758
000240 48 83 3f 3d 98 12 46 bd bd 6e ef bd 82 13 a5 3d
       0.04675606 -0.048357576 -0.116910435 0.080603614
000250 cc 83 33 3d a3 2a b9 bd
       0.043826863 -0.090413354

conv1.bias f4 [6]
000000 2e fb a3 bc 5c 72 97 bd e7 16 09 be 36 7e 40 3e
       -0.020017233 -0.07394859 -0.13387643 0.18798146
000010 65 e7 d3 3c 7e c8 25 be
       0.025867173 -0.16189763

conv2.weight f4 [16, 6, 5, 5]
000000 a0 96 94 3d 6d 3d a2 bc d5 38 e5 3d 9f 1d 58 3c
       0.07255292 -0.01980468 0.111924805 0.013190656
000010 ba 5c 0c bd 93 f0 ba 3d 63 72 5c 3d 6f ba 6d bd
       -0.03426812 0.09127917 0.053820025 -0.058039125
000020 e6 47 5f bd 9a e6 52 bd 4e a8 65 3d 4e 52 8b bc
       -0.054511927 -0.05148945 0.05606871 -0.01700702
000030 08 db 9d bd c3 cf f3 bc 07 e3 6e bd 1c 87 d5 bc
       -0.077077925 -0.029762154 -0.05832198 -0.026065402
000040 99 37 5c 3d c8 a1 00 bc 34 a3 65 38 c8 d0 e3 bc
       0.05376396 -0.007851072 5.474985e-05 -0.027809516
000050 9b 87 26 3d f5 38 10 3d b7 27 3b bd 36 80 3d bc
       0.040656667 0.03521057 -0.045692172 -0.011566212
000060 cc 78 41 3a 82 10 35 bd 96 0a 9b 3c 43 e9 b8 3d
       0.0007380366 -0.044205196 0.018925946 0.09028866
000070 42 b1 f6 3b 78 32 9b bd a8 c9 0f 3d 09 6b 60 3d
       0.007528455 -0.075779855 0.035104424 0.054789577
000080 c4 1a 1d 3c fa 79 48 bc 4a 4f 45 3d 1c 48 10 ba
       0.009588901 -0.012236113 0.04817132 -0.0005503909
000090 06 fd 9e 3d 95 96 79 bd 79 c8 8c 3d 55 a6 a0 bc
       0.07763104 -0.06093462 0.068741746 -0.019610563
0000a0 9b b2 d3 bb d4 dc 97 3c 0c 23 c5 bc 74 fd 33 3d
       -0.0064605004 0.018537916 -0.024064563 0.043942884
0000b0 cd 2a 5d 3d 3a 11 0d bd 40 f6 70 bb f8 46 52 bd
       0.053995896 -0.034440257 -0.003676787 -0.051337212
0000c0 f6 3d 7c bd 46 52 a2 3d 88 9f 8d 3d 51 f8 be 3d
       -0.061582528 0.07925849 0.06915194 0.09324706
0000d0 2c 3e 81 3d e4 fa d8 bc 44 9d ec 3c ec 46 9d 3c
       0.063106865 -0.026486821 0.028883584 0.019198857
0000e0 2c 56 36 bd 42 fa 87 3d ec 60 30 bd d5 5c ac bc
       -0.044515774 0.0663953 -0.043061182 -0.02104036
0000f0 a9 f2 1d bd 01 17 11 3c ff ff d5 3c c1 ab 56 3c
       -0.038561497 0.008855582 0.026123045 0.013102473
000100 a6 bb 67 3d 4c e8 71 bd 32 bd 32 bd 4e 11 b6 3d
       0.05657544 -0.059059426 -0.043637462 0.08890019
000110 ba 93 56 3d c7 c7 bf 3c 13 bb a5 3d 51 09 92 bd
       0.052386977 0.023410691 0.08092322 -0.07130683
000120 9f 1e 85 3d 85 a3 5c 3c b9 fa 78 bd cb bf 90 3d
       0.06499981 0.0134667205 -0.060785983 0.070678316
000130 7a 8c d0 3d dc 71 df 3d a0 5d e5 3d f6 79 52 bd
       0.10183044 0.10910389 0.11199498 -0.051385842
000140 f3 b5 7e 3d f4 0a 7b bd 83 35 6b 3d 98 18 24 3b
       0.06218524 -0.061289743 0.05742408 0.0025039073
000150 8b 1c e6 3c fa 84 bc 3d 1d 0b 8e bc f2 a8 d8 bc
       0.028089782 0.09205051 -0.017339284 -0.026447747
000160 18 26 72 3c 31 19 86 bd c6 fe 35 bd 65 a3 88 3c
       0.01477959 -0.06547774 -0.044432424 0.016679475
000170 a4 96 a0 3b 33 3a 02 3d bd 68 33 3b 10 ea ca bc
       0.0049007703 0.031793784 0.0027375661 -0.024769813
000180 e2 15 8f bc 3b bb 87 bd 9e 0a 98 bd 99 eb bd 3d
       -0.01746649 -0.06627508 -0.074239 0.09273452
000190 9d ff 01 bc 44 02 e1 3c 00 54 0c 3d 0d 66 e9 3c
       -0.007934478 0.0274669 0.034259796 0.028491044
0001a0 10 ba ff 3c 1d 9b a6 3c fb 5e a6 3c ed e5 92 bd
       0.031216651 0.020337636 0.020308962 -0.07172761
0001b0 63 58 e7 3c 8a d1 8f bd 23 50 6c bd da 57 f5 3c
       0.028240388 -0.07022388 -0.05769361 0.029949117
0001c0 62 ba 1f bd fc 84 61 3d f1 08 13 bd c6 a5 40 bd
       -0.038996108 0.055058464 -0.0358972 -0.047033094
0001d0 d1 78 5d bd f0 75 5f bd 6b 4a 90 3d 2f aa da 3c
       -0.054070298 -0.054555833 0.07045444 0.026692478
0001e0 1e e5 87 bd 71 cf a1 3d 57 8b 57 bd 5a 47 43 3b
       -0.066354975 0.079008944 -0.05262312 0.0029797168
0001f0 3b cd 6a 3d 68 08 89 bd 8e d9 28 bd bf 93 43 bd
       0.05732463 -0.066910565 -0.0412231 -0.047748324
000200 08 98 65 bc bc 4e 9e 3c f8 8d f8 bc c8 40 85 bd
       -0.014013298 0.019324653 -0.030341133 -0.06506497
000210 a0 69 60 bb ad a9 88 bd f8 1c 07 3c e9 90 70 bd
       -0.0034242645 -0.06672988 0.008246653 -0.058731947
000220 30 a2 29 bd 0e cb fc bc e0 c1 8a 3b 20 ff 57 3b
       -0.04141444 -0.030858543 0.0042345375 0.0032958463
000230 6c 51 87 bc b6 74 96 bd 90 4e 62 bc 30 ae 11 bd
       -0.016518317 -0.073464796 -0.013812676 -0.03556651
000240 fc 92 94 3c 0e b8 6e bd c0 e5 f1 3a d3 2e 65 bd
       0.018136494 -0.058280997 0.0018455312 -0.05595286
000250 08 67 1e 3c 60 21 1d bb 80 e4 07 bd 7c 2d 0a 3d
       0.009668119 -0.0023976192 -0.0331769 0.033734784
000260 cd b0 b2 bc 0f 85 81 3d 6a ac f4 3c eb eb 95 3d
       -0.02181282 0.06324207 0.02986737 0.073203884
000270 16 ff a1 3d 4a 4f 57 3d 28 ec 1a 3d a6 7f 8b bd
       0.07909982 0.05256585 0.037822872 -0.068114564
000280 c4 e0 9b 3d 9e 7f cd 3b 1d e9 8b 3d ea da 37 3d
       0.0761123 0.0062713167 0.06831572 0.044886507
000290 e9 fb 85 bc 90 e9 ae bc cf 12 d2 3d 29 63 95 3b
       -0.016355472 -0.021351606 0.10257494 0.00455894
0002a0 ea a0 9e 3a 99 66 29 bd 4f 22 98 3d 54 a6 ab 3d
       0.00121024 -0.04135761 0.07428419 0.08381334
0002b0 88 cb 2d bd 5c c0 25 bd f8 89 90 3d e6 cf 67 3c
       -0.04243043 -0.04046665 0.070575655 0.014148688
0002c0 66 85 86 bd 45 d6 47 3d fc 46 28 bd 7c 5e 44 3d
       -0.065684125 0.048788328 -0.04108332 0.04794167
0002d0 7b 7a b6 3b 65 64 48 bc 98 15 1e 3d 2c 61 84 bd
       0.0055688 -0.012230967 0.038594812 -0.064638466
0002e0 df 42 2d 3c c0 5d e6 bc 22 1a af 3c c2 8e aa bc
       0.010575025 -0.028120875 0.021374766 -0.020820025
0002f0 bf 82 2c 3c 60 19 d0 b9 16 c1 59 bd 6a 6c c0 3c
       0.010529219 -0.00039691757 -0.053162657 0.023489196
000300 4c e5 5f bd f7 6e 16 bc f8 1f bb b9 38 99 61 bc
       -0.054662034 -0.0091817295 -0.00035691238 -0.01376944
000310 c1 67 0c 3d e9 c4 16 bd 9f e3 1e bd 25 81 b9 3c
       0.034278635 -0.036808882 -0.038791295 0.022644589
000320 55 4b 8b 3d 5b 7d 88 3d 4f 7f 28 bc 2d 00 25 3d
       0.06801478 0.06664535 -0.010284259 0.04028337
000330 6e ce a4 bd db 24 af bb fb 57 86 bd f6 c5 7b 3d
       -0.08047186 -0.0053449697 -0.0655975 0.061468087
000340 56 a6 00 3c 82 21 69 3c 0d 94 5b bd 54 8a 8b bd
       0.007852158 0.01422918 -0.05360799 -0.06813493
000350 57 9c f0 bc 1c 05 f9 3c e8 85 68 3d c8 3e 9d bd
       -0.029371424 0.030397944 0.056768328 -0.0767799
000360 16 82 f8 3c f2 6f 91 bd 53 d7 75 bd e2 e4 59 bd
       0.030335467 -0.0710143 -0.060019802 -0.053196795
000370 10 2f 89 bc 17 00 9b 3d af 97 b2 bd 5e 87 1b 3b
       -0.016746074 0.075683765 -0.087203376 0.0023731808
000380 80 2e 9a 3c 49 97 28 3d 54 98 0d bd 33 a7 9d 3d
       0.018821001 0.0411599 -0.0345691 0.07697906
000390 a4 70 ac bc e5 af 55 bc 96 a9 dc 3d e4 ef cc bc
       -0.021049805 -0.013042425 0.107745335 -0.025016733
0003a0 27 a4 30 3a b4 3a 04 3d ae 69 f9 3c 28 31 a2 3d
       0.0006738328 0.032282546 0.0304459 0.07919532
0003b0 45 76 c9 3b bd cf 01 bd 0e ff 19 bd b6 ee 16 bd
       0.006148132 -0.031692255 -0.037596755 -0.036848746
0003c0 b2 a2 cf bc e2 e5 b1 3c 0d 94 d5 3c 48 51 bb bc
       -0.025346134 0.021716062 0.026071573 -0.022865906
0003d0 1c eb 64 bc 81 58 cf 3d 64 aa 9b 3d ee e7 b3 3d
       -0.01397207 0.10124303 0.07600859 0.087844715
0003e0 b7 a9 ff 3c d7 3c 85 3d 2d f4 21 3b 7e f1 11 bc
       0.031208856 0.06505745 0.002471219 -0.008907674
0003f0 19 a8 9a bd b7 04 c7 3c e8 7d 01 bd fe d8 0a 3d
       -0.07551593 0.02429424 -0.031614214 0.033898346

conv2.bias f4 [16]
000000 80 38 bf bb 32 b0 7b 3d 7e 1c 8d bb c7 8e 49 3d
       -0.0058355927 0.06144733 -0.004306375 0.04920843
000010 f7 e3 73 3d f2 2f 57 bd ea ea 1f 3c aa 1f 6b bd
       0.059543576 -0.05253596 0.009760598 -0.057403244
000020 67 43 6d 3d 49 0d 3d 3d 73 77 5d bd 8e 3c ae bc
       0.057925608 0.046155248 -0.054068994 -0.02126911
000030 83 61 18 3d 7a 95 71 bd e3 14 98 3d 11 9f 38 3c
       0.03720237 -0.058980443 0.07425859 0.011268393

fc1.weight f4 [120, 256]
000000 50 9d 4a 3c ea 18 76 3d a0 eb 0d 3d 7a b1 67 bd
       0.012366608 0.060082354 0.034648538 -0.05656574
000010 26 30 30 3d c0 7f c8 3b c6 7c 4f bd 4d 6f 70 bd
       0.043014668 0.0061187446 -0.050656103 -0.058699895
000020 00 54 89 3b 27 9c 2b 3c 30 af 43 3c 48 24 3f 3c
       0.004190922 0.010474241 0.011943623 0.011666365
000030 c8 f7 3b bc ce 68 5b 3d 04 e4 fe 3c bc b1 4e bd
       -0.01147265 0.053566746 0.031114586 -0.05046247
000040 f0 a0 f6 bb c8 21 4d 3c f1 87 0b 3d 92 b7 5b bd
       -0.0075265095 0.012520261 0.03406519 -0.053641863
000050 1c 72 03 3d ea a7 50 3d a2 12 1b 3c 36 36 4b 3c
       0.032091245 0.050941385 0.009464892 0.012403062
000060 f9 6b 5e bc 25 cc 0a 3d fe 29 5e 3d 50 f8 d9 bb
       -0.013575547 0.033886094 0.054239266 -0.0066519156
000070 06 83 3f bd 9e 06 35 3d 18 73 13 3d 98 51 2d bd
       -0.046755813 0.044195764 0.035998434 -0.042314142
000080 43 4a 69 3b 1a c0 76 3d d1 64 63 3d 8b 99 4c bd
       0.0035597242 0.060241796 0.055516068 -0.049951117
000090 f0 3d fb bc 26 81 83 bd d2 84 80 3d 18 c0 11 bd
       -0.030669183 -0.064211175 0.062753335 -0.035583586
0000a0 0b 89 38 bd 8a 18 df bc 75 51 17 bc f1 ad fb bc
       -0.04505257 -0.02723338 -0.009235729 -0.03072259
0000b0 83 64 c4 3a 1d 98 38 3d 05 46 bd bb e4 40 44 3d
       0.0014983568 0.04506694 -0.0057761692 0.047913447
0000c0 f4 d5 34 bd 90 75 d8 3b 65 e4 45 3d e7 fc db bb
       -0.044149354 0.0066058114 0.048313517 -0.006713498
0000d0 f8 b0 ba 3c d8 46 b0 bc 0f f3 5d 3d 28 89 1f 3d
       0.022789463 -0.021518156 0.054186877 0.03894916
0000e0 1e f9 75 bd d2 11 73 3d 01 0c 3a 3c 5c d7 46 3c
       -0.06005203 0.059343167 0.011355401 0.012136307
0000f0 0e 25 4f bd 5c d0 f5 bc 00 55 e6 3a 7c 34 a2 bc
       -0.050572447 -0.03000658 0.0017572939 -0.019800417
000100 7c 00 7b 3d 40 0a c4 bc e6 4c 0d bb c8 e5 f2 3c
       0.06127976 -0.023930669 -0.0021560728 0.029650584
000110 6e 59 4e bd 9f 16 f6 3a 2e 0e 51 bd 98 77 dd bc
       -0.050378256 0.0018775052 -0.051038913 -0.027034566
000120 92 10 1c 3d 20 aa 0b bb e0 a2 7e 3b 10 6b ea 3c
       0.03810174 -0.002131112 0.0038854405 0.028615505
000130 ec 2b df bc 6f 40 15 bd 00 d6 28 3a 92 35 58 3d
       -0.027242623 -0.0364384 0.000644058 0.052785464
000140 3a 17 2d 3d e0 51 e6 3b a9 9c cd 3c 80 08 69 3c
       0.04225848 0.007028803 0.025099115 0.014223218
000150 3c 85 af bc 52 6f 3f bd 8d 0e a6 bc 9d 5d 23 bd
       -0.021425836 -0.046737023 -0.02027061 -0.0398842
000160 c2 4c f6 bb 1d 51 dd 3a dd 53 0f 3d c0 25 67 3b
       -0.0075164745 0.0016885136 0.034992088 0.0035270303
000170 c0 2b 52 bb 3c f9 d0 bc fa 3c 2e bc 34 34 d3 3c
       -0.0032069534 -0.02550947 -0.010634655 0.025781728
000180 8e 0a ee bb 12 bf 60 3c 92 be 82 bc f6 2d ea 3c
       -0.007264442 0.01371743 -0.015960012 0.028586369
000190 dd de 52 3d 32 d3 0d 3b 01 61 37 bd 52 a2 1e 3d
       0.05148207 0.0021640775 -0.044770245 0.03872902
0001a0 d4 2d bf 3c 9b 08 23 bd f9 5c 7e bd 5d 14 76 3c
       0.023337282 -0.03980313 -0.062100384 0.015019503
0001b0 a9 10 15 3c 14 03 4b bd 82 3d 20 bd 31 d8 21 bd
       0.00909821 -0.049563482 -0.03912116 -0.039512817
0001c0 7a 89 03 3d 26 b6 8d bc 45 c0 69 bd 5c 45 58 3c
       0.03211353 -0.01729877 -0.05706813 0.01320013
0001d0 ea a4 e0 3c 00 0a cb bc fb 29 be 3c 9c 61 7a 3a
       0.027422387 -0.024785042 0.023213377 0.0009551288
0001e0 b7 14 3b bd 2c 28 1b 3d 62 c9 3f 3d 82 8a e1 bb
       -0.045674052 0.037880108 0.046822913 -0.0068829665
0001f0 20 80 70 3d 30 de 26 3c 03 31 78 bd 63 27 53 bd
       0.05871594 0.01018481 -0.060593616 -0.051551234
000200 2c 81 55 3d ff 2c 7d 3c d3 ca 52 3d 8a 71 20 3d
       0.05212514 0.015452622 0.05146296 0.03917078
000210 25 8b 48 3d 29 be cf bc ad 40 38 3d 81 5a 74 bc
       0.048960824 -0.02535923 0.044983555 -0.014914156
000220 a1 6a f7 3c 80 8f 04 bd 53 54 51 3d 86 62 ce bb
       0.030202212 -0.032363415 0.05110581 -0.006298366
000230 d6 cd 9e bb 09 bc d7 3c 97 42 0a bc 3d 3f f2 3a
       -0.004846315 0.02633478 -0.008438728 0.0018481981
000240 0f c7 d3 3c a0 df 53 bd a6 8b 14 bd 5c be 7c bd
       0.025851754 -0.051726937 -0.03626599 -0.06170498
000250 d7 bf 42 3d 1e 97 31 bd 18 1b 80 bc be 33 27 3d
       0.047546234 -0.043357007 -0.01563792 0.04082083
000260 96 a1 88 bd 5c 52 ed ba 0c b6 ce 3c 48 d1 5a bd
       -0.06671445 -0.001810621 0.025233291 -0.053422242
000270 27 f0 1b bd 58 df e0 3c b4 85 36 3d f1 a7 3b bd
       -0.038070824 0.027450249 0.044561103 -0.04581446
000280 68 ab a9 bc c0 df b4 ba c0 eb 9a bb 34 c7 6e 3d
       -0.020711616 -0.0013799593 -0.0047278106 0.058295444
000290 08 cc 07 3d be 68 20 3d c0 29 f0 ba 10 fd b4 3b
       0.033153564 0.03916239 -0.0018322989 0.0055233315
0002a0 40 10 e6 bb a0 af 67 3c 4c 5a cc bc 2c 06 f2 bc
       -0.00702098 0.014140993 -0.0249454 -0.029543959
0002b0 2e fe 5b 3d 9c dd a4 bc 66 9e 58 3d 60 fb 7c bb
       0.0537092 -0.020125203 0.052885436 -0.003860198
0002c0 9a dc 0d 3d a0 7d 5d bc be fd 5d 3d 58 06 61 3d
       0.03463421 -0.013518721 0.054197066 0.05493769
0002d0 08 ca db 3c 5c 6c 32 bd e2 2d 1c 3d e0 bc fb 3b
       0.026829734 -0.04356037 0.038129695 0.0076824278
0002e0 be 9d 58 3d 48 bb ca 3c 98 6a 73 3d 80 78 7d bc
       0.05288481 0.024747506 0.059427828 -0.015470624
0002f0 4a af 7a 3d 16 e5 78 bd 48 e2 45 3d 22 1b 01 3d
       0.061202325 -0.06076535 0.0483115 0.031520016
000300 d3 c9 a0 bc df a3 2d 3c 33 ca 65 3d b2 a5 b3 bc
       -0.019627487 0.010598152 0.056101035 -0.021929596
000310 e9 97 81 bd 38 42 41 3d 47 27 d1 bc 6f 63 a9 bc
       -0.06327803 0.04718229 -0.025531424 -0.020677296
000320 98 05 41 bd 5a 3b 04 b9 a9 27 89 bc 29 e9 5e bd
       -0.047124475 -0.00012610611 -0.016742544 -0.054421578
000330 b1 84 42 bd a0 93 21 bd 41 e3 74 3c 99 06 89 bc
       -0.047489826 -0.039447427 0.01494676 -0.016726779
000340 c5 d6 25 3c 31 dd b5 bc b4 b6 3d 3d 65 95 28 bd
       0.010122006 -0.022200199 0.046316817 -0.0411581
000350 2b ec 0e bd 24 dc 1b bd 70 13 14 bd 28 98 1d 3d
       -0.034893196 -0.03805174 -0.03615135 0.038475186
000360 c7 2b b6 3c d7 78 37 3d 6b 01 52 3d cb d3 18 bb
       0.022237672 0.044792976 0.051270884 -0.0023319598
000370 e2 11 51 bd 43 ab 8a bd 26 66 26 bd 01 80 53 3d
       -0.051042445 -0.06770947 -0.04062476 0.051635746
000380 28 e4 28 bd df 47 32 bd 6b 1a 01 bd 84 f4 2b 3d
       -0.04123321 -0.043525573 -0.031519335 0.041981235
000390 99 37 61 3c a6 dd 88 bc 3a 26 83 bd 44 85 84 3c
       0.013746166 -0.016707253 -0.064037755 0.016176827
0003a0 a9 fc 39 3d e4 46 0a 3d c1 f0 86 bd 5b 1e 4c bc
       0.04540697 0.033759013 -0.06588889 -0.012458409
0003b0 b0 0a 55 bd 58 ac 83 bd 96 b9 a8 38 35 06 22 3d
       -0.052012146 -0.06429356 8.045432e-05 0.0395567
0003c0 89 3b 1d bd 50 c8 4a 3d fa da 47 bd b7 3d df bc
       -0.038386855 0.04950744 -0.048792817 -0.027251108
0003d0 01 b8 37 3d f5 23 ab 3b 3d e7 08 bb 34 b1 4b 3d
       0.044853214 0.0052227923 -0.0020889782 0.04972954
0003e0 1f b4 2e bd 2e 40 62 bd 3e 4c 64 bd d5 12 5f bd
       -0.042652246 -0.055236988 -0.055736773 -0.05446132
0003f0 23 6b 7a bd 51 13 6a bc 25 0d f2 3c 34 36 f3 bc
       -0.06113733 -0.014286832 0.029547283 -0.029688932

fc1.bias f4 [120]
000000 b4 02 56 3d bc bc a5 3c ba 0e 36 bd 0a 35 38 bd
       0.05224867 0.020231597 -0.044447638 -0.044972457
000010 dd 1b b5 3b 6a b9 40 bd e6 42 25 3d a8 9c e8 bc
       0.005527003 -0.047051825 0.040347002 -0.028395012
000020 71 38 34 3d 16 a2 82 3d bc aa 28 bd 52 5b e7 3c
       0.04399914 0.06378572 -0.04117845 0.028241787
000030 fc 9c 81 3c 78 eb b6 bb ba 35 da bb be c6 36 bd
       0.015821926 -0.0055822693 -0.0066592367 -0.04462313
000040 20 57 b4 bc 6f 60 eb 3c 78 7b 49 3d 04 c2 88 bc
       -0.0220142 0.028732507 0.049190015 -0.016694076
000050 64 b4 04 3d 54 06 3c 3d f4 b2 f2 bc a4 c5 48 bb
       0.032398596 0.045904472 -0.029626347 -0.003063538
000060 14 48 cf bb 5d f3 66 3a 0c 10 5e bd b8 da 5d bd
       -0.006325731 0.00088100677 -0.054214522 -0.054163665
000070 e4 92 e9 bc 17 45 8b bb d3 b0 e4 bb 45 3f f4 3c
       -0.028512426 -0.0042501795 -0.006979087 0.029815326
000080 3c af 79 bd 3d 31 8a 3b ab c5 cc 3c a9 ac 19 3d
       -0.060958132 0.0042172954 0.0249966 0.037518177
000090 32 0d 4a 3d c1 61 c6 3c 4f 76 17 3d 0c a8 55 bd
       0.04932899 0.024216535 0.036978062 -0.052162215
0000a0 d5 f2 b5 bb 34 97 6b 3c d7 0b 0d bc 64 84 31 bd
       -0.0055526295 0.014379311 -0.00860878 -0.04333915
0000b0 9c ec 81 bc c7 13 4c 3d a6 22 1c bc bc ee 4e bc
       -0.015859894 0.04982355 -0.009529745 -0.012630161
0000c0 1c a4 10 3c e7 b1 64 bc 6e ad d5 3c e7 04 39 3d
       0.008828189 -0.013958431 0.026083674 0.04517069
0000d0 0c 17 35 3d 71 dd 10 3c 88 fa 17 3c ad 5f 31 bd
       0.044211432 0.008841858 0.00927604 -0.043304134
0000e0 e3 b9 0b bd a6 b4 5e bd 33 9c 8b 3d 92 cc ab 3c
       -0.034112822 -0.0543715 0.06816902 0.02097157
0000f0 fc 9d 47 bc 07 96 42 bb 5e 60 32 3c db d2 81 39
       -0.0121836625 -0.0029691474 0.010887234 0.00024761897
000100 8a 4c 5e bd 07 86 35 bd 39 61 06 3d 7e f0 fb bc
       -0.054272212 -0.04431727 0.032807563 -0.030754324
000110 ac 0e 26 bd da bf 08 bc 1e 5d 45 3d 0f e8 3f 3d
       -0.040541336 -0.008346522 0.048184507 0.046852168
000120 43 59 3f 3d 94 76 d4 bc 30 9a 95 bc ee 55 50 bd
       0.046715986 -0.025935449 -0.018261999 -0.0508632
000130 20 32 6e 3c b6 71 ad bb cc 4f 58 3d 32 a0 74 bd
       0.014538318 -0.0052930964 0.052810475 -0.059723087
000140 0a 67 60 3d 5e 6f c4 3c bf 4c e0 bb 09 38 43 bc
       0.054785766 0.023978885 -0.0068450863 -0.011915215
000150 fd 96 fc 3c 64 d5 cb bc be b3 77 3d 38 93 0a bb
       0.030833716 -0.024882026 0.06047415 -0.0021144878
000160 d6 7b 7d bd f8 5e bf bc 78 95 f2 bc 50 a6 3b 3c
       -0.061885677 -0.023360714 -0.029612288 0.011453226
000170 f2 01 15 3d e9 fd 10 3d f9 a2 6a 3d 2e 25 6a bd
       0.03637881 0.035398398 0.05728433 -0.057164364
000180 c0 2a a0 3c 00 63 a2 3a 4b 8b 32 3d 25 e9 39 3d
       0.019551635 0.0012389123 0.04358987 0.04538836
000190 a3 08 83 bd 5c 6e 69 3d a7 fa 99 3c 74 39 8c 3c
       -0.06398132 0.056990013 0.018796278 0.01711724
0001a0 58 ba 3d 3d 16 2b 2e 3d 46 86 5c 3d 8f 0b 37 3d
       0.04632029 0.04252156 0.05383899 0.044688758
0001b0 12 b5 1a bd 98 6d 8a bd f6 41 42 3d d4 87 2d 3d
       -0.03777034 -0.067591846 0.047426187 0.042365864
0001c0 3a da 18 bd 20 5f 09 bc 06 52 f8 bb f2 f6 21 3d
       -0.037317492 -0.008384496 -0.0075781373 0.039542146
0001d0 f0 81 33 bd a8 34 ba bb 73 94 c2 bc 44 6e 08 bc
       -0.04382509 -0.0056825466 -0.023752427 -0.008327071

fc2.weight f4 [84, 120]
000000 5c 11 36 3d 93 36 78 3d ba 20 99 3d cc 07 d3 3c
       0.04445015 0.06059892 0.07476945 0.025760554
000010 6e 12 aa bd 26 64 86 bd 74 22 a8 3c de 55 8b 3d
       -0.083042964 -0.065620705 0.020524241 0.06803487
000020 33 5d a4 3d 25 09 94 bd f0 06 bc bb 95 6d 05 3d
       0.08025589 -0.07228307 -0.0057381317 0.03257521
000030 28 4c 09 bd d5 d1 36 bd dd b8 9f bd 4d 2e 1a bd
       -0.033519894 -0.044633705 -0.07798932 -0.037641812
000040 98 ea 84 bc f5 fe 80 3c c4 47 d0 3c df 33 a2 bd
       -0.016225144 0.015746573 0.025424846 -0.0792005
000050 04 3d ba bd 77 4a 8e bd c2 98 42 bd 33 46 38 bc
       -0.09093669 -0.06947797 -0.047508962 -0.011247206
000060 f3 16 a6 bd df 59 15 bd 68 69 5c 3c a8 d3 6e bd
       -0.08109846 -0.03646266 0.013452865 -0.05830732
000070 10 06 0d 3d 10 00 8e 3d 06 d6 b2 3d ee c7 6e bc
       0.03442961 0.06933606 0.08732228 -0.014574034
000080 20 52 88 bb b0 d2 69 3d b0 9f 19 3d 59 de 6e 3d
       -0.0041601807 0.057085693 0.037505805 0.058317516
000090 dc a2 45 3d 20 5e 57 3b 21 9c 14 3d 74 56 22 bd
       0.048251018 0.00328625 0.03628171 -0.03963323
0000a0 14 3f 74 3b 93 0c a6 bd e0 28 0e bb b7 10 5a bd
       0.0037269043 -0.08107867 -0.0021691844 -0.053238597
0000b0 20 be 59 3d 55 66 00 bd cc 34 d5 bb 40 d0 04 bc
       0.053159833 -0.03134759 -0.006506538 -0.008106291
0000c0 9c d3 70 3d 37 3b 64 bd 1b 97 9d 3d 2d 25 6b 3d
       0.058795556 -0.055720534 0.07694837 0.0574085
0000d0 68 ce 38 3c 02 4e f2 bc b4 66 a7 3d 67 15 a4 bd
       0.01127968 -0.029578213 0.08173886 -0.08011895
0000e0 00 26 2c 3b d3 c5 ad bd 62 f1 b4 3d dd 5c f4 bc
       0.0026267767 -0.084849976 0.088351026 -0.029829437
0000f0 20 ad 23 3d f0 e6 24 3c bb ad ed bc 01 8d a1 3d
       0.039960027 0.010064825 -0.029013505 0.078882225
000100 f8 79 aa 3d ad 24 92 bc 8b 0b 8f bd 26 94 95 3d
       0.08324045 -0.017839754 -0.069846235 0.07303648
000110 90 58 64 3c 58 62 90 3c d0 6c 82 bd 80 31 a0 3d
       0.013937131 0.017625019 -0.063684106 0.078219414
000120 a7 97 ee 3b cc 9a 4b 3d e0 9a 76 bc d8 d1 54 3d
       0.007281262 0.049708173 -0.0150515735 0.051957935
000130 cb 43 14 bd 06 02 7f bd fe b1 6c 3d 90 80 d0 3c
       -0.036197465 -0.06225779 0.057786934 0.025451928
000140 ac 16 89 bc cc a0 8a bd ec 52 47 bd 73 36 b5 3d
       -0.016734444 -0.06768951 -0.048663065 0.08848276
000150 92 75 12 bd 80 55 98 3d 4a 8f 93 bc 9e f2 3a bd
       -0.035756655 0.07438183 -0.018012661 -0.045641534
000160 46 a1 97 bd 1b dc 5e 3d 1c 97 40 bd e4 a5 44 3d
       -0.07403807 0.054409128 -0.04701911 0.048009768
000170 9a 30 9a 3d c7 05 b2 bc 96 4d b3 bd 78 cc b0 3d
       0.07528801 -0.02173127 -0.08755033 0.08632749
000180 53 95 a8 3c ac 09 87 3d db 03 22 bd ef 66 9d 3c
       0.020579016 0.06593642 -0.039554458 0.019214122
000190 80 ad d3 bc 6b 70 2e bd 70 e1 5d bc 04 e3 87 bc
       -0.025839567 -0.04258768 -0.013542518 -0.016587742
0001a0 de 05 4d bd c7 da 95 3d d7 85 58 bc 70 ba dc bb
       -0.050054424 0.07317119 -0.013215504 -0.0067360923
0001b0 12 e5 99 3d ef 29 65 bd e4 7e 11 bd 5e d9 82 3d
       0.07514395 -0.055948194 -0.035521403 0.06389116
0001c0 db 27 99 bd 8f 08 da 3b c2 de 2b bd e7 1e 4d bc
       -0.07478305 0.0066538523 -0.041960485 -0.012519575
0001d0 0a c5 2d bd 40 2f df 3b 9c b6 9f bd 76 bc a8 3d
       -0.04242424 0.0068110526 -0.07798502 0.08239071
0001e0 d0 38 46 3d 50 e9 82 3b 76 d8 a5 bd eb 0d 08 bd
       0.048394024 0.003995098 -0.08097927 -0.0332164
0001f0 c8 e4 4c bc 0c a4 35 3d 81 b4 96 bd 5e e8 f9 bc
       -0.012505718 0.0443459 -0.07358647 -0.03050631
000200 1b 41 3d bd 68 4b a5 3c 50 31 b8 bc b4 28 8f bc
       -0.046204668 0.020177558 -0.022484452 -0.017475463
000210 eb 73 8b bd a0 ab 04 3c 1e 23 4b bd 1a 17 3d bd
       -0.06809219 0.008097559 -0.049594037 -0.04616461
000220 60 df 9a bc c4 c4 e8 3c b6 5b 8a bd 4c c8 9e 3d
       -0.018905342 0.028414138 -0.06755774 0.07753047
000230 c8 c7 ce 3c 88 03 8b bd e4 46 62 3d c6 29 ae 3d
       0.025241747 -0.06787783 0.055243388 0.085040614
000240 12 04 a7 3d 78 51 25 3c af de 73 bd 08 e8 b7 3d
       0.08155073 0.010090224 -0.05953854 0.08979803
000250 b0 ca 8c 3d 70 a9 cd bc e8 c7 aa 3d 6c 34 28 3d
       0.06874597 -0.025105208 0.0833891 0.04106562
000260 10 90 eb bc 60 16 76 3b 00 d8 67 3a fc e3 57 3d
       -0.028755218 0.0037549958 0.0008844137 0.052707657
000270 52 7d b9 3d 00 11 46 3a 50 a5 d8 3b af ba 5b bd
       0.09057106 0.0007555634 0.0066115037 -0.053644832
000280 cf 2c a3 bd 04 3d 9e 3d 04 c7 15 3d 90 dd 96 3d
       -0.07967531 0.077264816 0.03656675 0.073664784
000290 e8 dc 65 bc ac 06 aa 3d fb c4 75 bd b4 93 8a bd
       -0.014029719 0.08302054 -0.06000231 -0.067664534
0002a0 b0 00 b6 bc 7c ee a2 3c 40 ba 4d 3c f1 d2 a7 bd
       -0.022217125 0.019889109 0.0125566125 -0.08194531
0002b0 70 ca 14 bc f2 1f 9c 3d 0c 73 28 3d b7 9d 4e bd
       -0.009081468 0.076232806 0.041125342 -0.050443377
0002c0 27 2b 83 bd e0 ee 0b 3d 93 ad 1c bd f5 35 67 bd
       -0.06404715 0.034163356 -0.03825147 -0.05644794
0002d0 f0 d2 f1 3c d8 a3 5f 3c 08 75 41 3d 64 99 a1 3d
       0.029519528 0.013649903 0.04723075 0.07890585
0002e0 17 4d b9 bd f3 50 8f bd 6e 72 87 bd c0 bc 1d 3d
       -0.09047907 -0.06997862 -0.066136226 0.038510084
0002f0 8a ec 03 bd 40 b5 98 3d 5c 11 6a 3d de fa 86 bd
       -0.032208003 0.07456446 0.05714546 -0.06590818
000300 50 1a b9 bb 62 16 87 3d 4f 0c 68 bd 2d 8a a1 bd
       -0.0056488886 0.06596066 -0.056652363 -0.07887683
000310 1a d8 a9 3d d6 b9 96 3d d6 7a 87 3d 5a 67 8d 3d
       0.08293171 0.07359664 0.06615226 0.06904478
000320 40 1f ca bb dd d1 2e bd 6f 67 9d bd 4e 90 71 bd
       -0.006168276 -0.04268061 -0.07685744 -0.05897551
000330 c8 be e9 bc 5c 17 d3 3c b0 bd 29 3d 08 d2 3e 3d
       -0.028533354 0.025767975 0.041440666 0.04658702
000340 74 7b a9 bc e0 de 22 3c e4 b0 e8 bc a4 f3 0b bd
       -0.02068875 0.009940833 -0.02840466 -0.0341679
000350 58 ff 12 3d 7e cd 8a bd ae ad ac 3d d8 d6 80 3c
       0.035888046 -0.06777476 0.08431564 0.015727445
000360 06 b7 a0 3d ac 95 01 3d 02 fe 7a bd 90 0a 25 bd
       0.07847409 0.03163688 -0.061277397 -0.040293276
000370 28 0b 2c 3d 38 af 7e 3d 40 7b 53 bb 30 b9 29 3d
       0.042002827 0.06217882 -0.0032269508 0.041436374
000380 90 8d 23 3d b3 57 6b bd 39 ae 69 bd 84 eb 87 3d
       0.039929926 -0.057456683 -0.057050917 0.06636718
000390 74 0b 75 3d 7c 75 84 bd e6 f9 03 bd 28 c2 44 3d
       0.059825376 -0.06467721 -0.032220744 0.048036724
0003a0 f0 18 a4 bd 98 39 79 bc a1 06 5e bd e2 e6 67 bd
       -0.08012569 -0.015211485 -0.05420554 -0.05661667
0003b0 e8 43 88 3c 93 9c a9 bd 96 f5 8b bd 09 0d 12 bd
       0.016633943 -0.08281817 -0.06833951 -0.035656963
0003c0 2e 28 80 3c bb 2a 8f bd cf 95 83 bd c0 43 84 bc
       0.01564416 -0.06990572 -0.06425058 -0.016145587
0003d0 a0 f0 0c 3b f6 4c 30 3c bc 8a 69 bc c2 b0 ac 3d
       0.0021505728 0.010760536 -0.014254268 0.084321514
0003e0 ba 62 88 bd e3 32 30 3d b3 e9 c1 bd 60 ce 5d 3d
       -0.066594556 0.04301728 -0.09468403 0.054151893
0003f0 38 3e a2 bd c9 cd 86 3d d3 34 3e bc 9d 69 4c bc
       -0.079220235 0.06582219 -0.011609274 -0.012476352

fc2.bias f4 [84]
000000 b8 8e 6a bd 40 e3 04 bb 73 8f 4c bd 17 bd b6 bd
       -0.057265013 -0.0020277053 -0.04994149 -0.08922785
000010 5d 46 51 bd d5 b8 a6 bc 39 ee 8c 3d 35 76 6d 3c
       -0.051092494 -0.020351807 0.06881375 0.014493515
000020 fc 61 5c bc 1a 73 8d 3d 40 56 90 3d e6 3b 13 3d
       -0.013451096 0.069067195 0.07047701 0.035945795
000030 ab 3b e1 3b e4 93 8b 3b 40 e9 1c 3c 40 6b 65 bb
       0.006873568 0.0042595733 0.0095770955 -0.0035006553
000040 91 a5 22 bd 64 6d 23 bd 68 a1 a7 bc 00 00 f7 bb
       -0.039708678 -0.039899245 -0.020462707 -0.007537842
000050 c1 c0 57 bd ed 29 07 bd 1c 95 5e 3b a1 07 c8 bb
       -0.05267406 -0.032998968 0.0033963388 -0.006104425
000060 b3 f4 93 bc 8c 9d d6 3c da 1d 3d bd 2c 00 a4 3d
       -0.018061018 0.026198171 -0.046171047 0.08007845
000070 5f b9 78 3c 87 56 2f 3d 8e 9a 3e 3d 16 78 9b ba
       0.015180915 0.04280713 0.046534114 -0.001186135
000080 a0 0e 36 3d 4d bb 4c bc 7c fb 8a 3d 96 e5 dd 3c
       0.04444754 -0.012495828 0.06786248 0.027087014
000090 77 1e 41 bd 7f e0 87 bc 31 f4 e5 ba a5 7f 13 3d
       -0.047148194 -0.01658654 -0.0017544088 0.036010403
0000a0 0a 71 f5 bc b3 55 a8 bc 5d a9 56 bd ae 96 2f 3d
       -0.029961128 -0.020548677 -0.05240761 0.04286831
0000b0 a1 6d 12 bd 00 cb 53 3b 82 f8 74 3d 61 a3 f6 bc
       -0.03574908 0.0032317042 0.059807308 -0.030107202
0000c0 20 47 ec bc 34 b3 35 3d 4c c7 9f 3c ac 87 b5 bc
       -0.028842509 0.044360355 0.019504212 -0.02215942
0000d0 b7 7f 1d 3d a3 b5 aa bd bb f0 b2 3c b2 81 90 bd
       0.038451876 -0.08335426 0.021843305 -0.070559874
0000e0 ea a4 bc 3c e5 97 64 bc 0c 49 a0 bd b4 f6 fa bc
       0.023027856 -0.01395223 -0.078264326 -0.030635215
0000f0 5e 2a 8f 3d 1c 42 a0 bc b1 12 34 3d ea 3f b2 bd
       0.06990503 -0.019562773 0.043963138 -0.08703597
000100 dc 20 e7 bc 43 a9 74 3d 5f 8c 5e 3d 57 8b 76 3c
       -0.02821391 0.059731733 0.054333087 0.01504787
000110 79 05 1d bd 13 31 b4 3c de 5c e9 bb 33 52 6d 3c
       -0.038335297 0.021996057 -0.0071216663 0.01448493
000120 7f e5 73 3d af ff a3 3d 0f 57 23 3d d9 06 03 bd
       0.059545036 0.08007752 0.039877947 -0.031988952
000130 7c 4d 2e bd d0 d4 78 bc f7 5c 52 bd af 12 3c 3a
       -0.042554364 -0.015187457 -0.05135819 0.0007174415
000140 a1 83 4a bd 30 d5 6a bc 5e 96 98 bd a7 89 99 3d
       -0.049441937 -0.014333054 -0.07450555 0.07496958

fc3.weight f4 [1, 84]
000000 62 2c bf bd 00 ae e2 bb f8 56 91 bb 0a 09 2b bd
       -0.09334637 -0.006917715 -0.0044354163 -0.041756667
000010 ce f5 8c bd 1d 4a db bc b3 51 80 bd d2 c8 83 3d
       -0.06882821 -0.026768738 -0.06265583 0.06434788
000020 9c 5a e7 bd d4 15 31 bc e6 c5 e5 bc 09 b9 33 bd
       -0.11296579 -0.010808427 -0.028048467 -0.043877635
000030 e9 09 92 3a 1e ba 2d 3c d1 c2 51 3b 65 8a 8b 3d
       0.001114187 0.010603456 0.0032006989 0.06813506
000040 b6 f9 9d bc 89 0b 94 3d db 42 d4 bd 80 6c 60 ba
       -0.01928411 0.07228763 -0.10364314 -0.00085610896
000050 00 80 3e 37 22 03 ab bd 81 24 cf bd ee fc cb bc
       1.1354685e-05 -0.08350207 -0.101143844 -0.02490088
000060 84 57 c1 3b 8a 5b 61 3d f0 23 ec 3d 57 4a d0 bc
       0.0059003253 0.05501894 0.11530292 -0.025426073
000070 6d 15 97 3d 3a f2 91 bd d6 1f 2d 3c 78 ab b3 3d
       0.073771335 -0.07126279 0.010566672 0.087729394
000080 e6 35 e5 bd 0c 92 0f bd 9b 80 d7 bd 3c 09 d8 bd
       -0.11191921 -0.03505139 -0.105225764 -0.10548636
000090 fc 27 2d 3d 0f 71 b3 bd 7e b3 95 3d ce 48 b7 bd
       0.04227446 -0.087617986 0.07309626 -0.08949433
0000a0 80 d9 94 bd f1 87 43 3d e3 fa c8 3d 92 42 0f 3d
       -0.07268047 0.047737066 0.09813478 0.034975596
0000b0 c2 cf 0b 3d 49 f9 bc bd 78 06 1c bd a3 44 c7 3d
       0.03413368 -0.09227235 -0.038092107 0.09729888
0000c0 b5 d1 c1 3d 0f c7 73 3d 21 fe 45 bc f6 53 ac 3d
       0.094638266 0.05951601 -0.012084515 0.08414452
0000d0 11 74 e0 bc b4 60 8d 3c 24 68 82 bd 4c 73 23 bd
       -0.027399095 0.017258026 -0.063675195 -0.039904878
0000e0 ab a2 53 bd 58 6d 27 3d 7f 0c aa bb 82 bb 48 3d
       -0.051668804 0.040875763 -0.005189478 0.049006946
0000f0 65 2d c4 bd 0f d9 de bd 4d 22 88 3c dc 4a ab bc
       -0.09578971 -0.108812444 0.016617918 -0.02090972
000100 57 17 66 bb e6 8a b2 3d f7 c6 ad 3d 82 3a e7 bb
       -0.0035109126 0.08717899 0.08485215 -0.007056535
000110 95 e5 b1 3d e6 46 d6 bd 32 9d a3 bd 0a 67 ef bc
       0.086863674 -0.104627416 -0.07988967 -0.029223938
000120 07 08 65 bc dd 11 b7 bd da 9a 6e 3d f2 f9 0d 3d
       -0.013978965 -0.08938954 0.058253147 0.034662195
000130 cd 95 b0 bd 01 7b 57 bc cb e6 68 3d 36 85 6f bd
       -0.08622322 -0.013151885 0.056860726 -0.05847665
000140 21 b5 ac 3d 8c a3 16 3d 4c e9 ce 3c 14 24 73 bd
       0.08432985 0.036777064 0.025257729 -0.05936058
