Week7/checkpoint/checkpoint_epoch_3.pth (torch, 178450 bytes, 9 tensors)

conv1.weight f4 [6, 1, 5, 5]
00000000: 9b86 ab3d 1335 e63c ad43 943d 14ba fdbd
00000010: 5b9a 21be 3e96 513e 305e f3bb e867 4cbe
00000020: 7827 0fbd 7be6 483d a8a3 08bd eb28 17be
00000030: 60df 003e e325 14be d20d 75bb 7c23 39be
00000040: 69ad 8f3d f7ff 22be 6191 ae3d 4129 083e
00000050: 5bc0 5a3d a54f 133e e748 20be 1e28 1a3e
00000060: 62d5 203e d0cc 33bd 268a e13d 7d09 973d
00000070: 1d11 49be edb6 e33d c682 edbc 26a1 9a3d
00000080: a196 02be 17b8 1d3e 1bdb e53d dee4 533c
00000090: ee49 a4bd 9467 95bd fd6e 2f3d e00a 1ebd
000000a0: a531 0fbe cb49 15bc 953b 423e 3386 a23d
000000b0: 120e 16be 9a73 393e 60fc fe3c ca72 083e
000000c0: 4539 c9bc 6893 94bd f9bd 453e 3275 4c3d
000000d0: 06fd 203b 6d54 5bbd e874 ddbd 301a a13d
000000e0: 0a89 97bd a19f b6bd 6c8a bbbd 1638 bdbd
000000f0: e0a4 453e e012 ecbc b406 09bc ac9b d6bd
00000100: 0dfa fc3d 1ba5 81bd 556a b43d a8d7 083e
00000110: 644c f5bc c1d8 49bd e8b9 bb3d bf36 373e
00000120: b583 92bd 5c67 053e 2a76 a5bd 42b1 10bd
00000130: 1576 44bd caa4 5f3d c131 ca3d db2d 1dbe
00000140: 6431 2ebe ca95 e53d f5c4 303a 11b6 11be
00000150: a769 0ebe e0f4 19be 845a 0a3e 27f4 15be
00000160: ac69 f83d a411 a2bd 800d 3fbd d590 543e
00000170: e8e4 3abc c7dc 223e 792f 08be a375 ffbd
00000180: bc5d 523e 61f9 e33c 27a6 6fbd 62e8 183e
00000190: 0dd0 4e3e 5d9d 0c3e b9ee 0fbe 6036 bd3d
000001a0: 0930 26be 98d9 313e 7028 a6bd 5601 11be
000001b0: e686 1b3e 61a3 173e efe2 d2bd 53f2 213e
000001c0: 0e52 35be 664b f7bd 5475 5abb 5ddf 213e
000001d0: 9739 2d3e dc72 92bd c0d0 343e 3d56 5f3d
000001e0: 4677 7b3d bec2 043e 9ffc 473d f814 443e
000001f0: bfe2 46be 6844 f9bc 52f9 13be ed0c a3bd
00000200: 6083 a7bb 074f 3abe 1015 bfbd 003b e03c
00000210: 6396 fdbd c35b 4a3e 7759 b7bd ea43 09be
00000220: ba74 983d 5a1b efbd 996b 0d3e 26b9 27be
00000230: 4006 a3bc d0c7 42be e3f8 25be 0811 19bd
00000240: 4883 3f3d 9812 46bd bd6e efbd 8213 a53d
00000250: cc83 333d a32a b9bd
0.08375283 0.02810148 0.07239471 -0.12389007 -0.15781538 0.20467469 -0.0074269995 -0.19961512
-0.03494975 0.04904793 -0.0333592 -0.14761703 0.12585211 -0.14467578 -0.003739227 -0.18079942
0.07015497 -0.15917955 0.085238226 0.13296987 0.0534061 0.1438585 -0.1565281 0.15054366
0.15706399 -0.043896496 0.11012678 0.073748566 -0.19635434 0.11118875 -0.028993022 0.07550268
-0.12752773 0.15402256 0.11223432 0.012932984 -0.080219135 -0.072951466 0.042830456 -0.03858459
-0.13983782 -0.009111832 0.18968041 0.07935753 -0.14653805 0.18110505 0.031126201 0.13325039
-0.024563441 -0.07254678 0.1931075 0.049916454 0.0024564876 -0.05354731 -0.10813314 0.07866323
-0.07399185 -0.089171655 -0.09157261 -0.09239213 0.19301176 -0.028817594 -0.008363415 -0.10478911
0.12352381 -0.063303195 0.08809344 0.13363516 -0.029943652 -0.04927898 0.09166318 0.17891978
-0.071540274 0.1302771 -0.08079179 -0.035325296 -0.047964174 0.054600514 0.09872771 -0.15349524
-0.17011029 0.112102106 0.0006743216 -0.14229609 -0.1390749 -0.15034819 0.13511091 -0.14643918
0.1212953 -0.07913521 -0.046643734 0.20758374 -0.011407115 0.15904532 -0.1329936 -0.12473609
0.2054357 0.027828874 -0.058508065 0.14932397 0.20196553 0.13731904 -0.14055909 0.09238887
-0.16229261 0.17368162 -0.081131816 -0.14160666 0.15188178 0.14808418 -0.102971904 0.15815096
-0.17707083 -0.12074928 -0.0033334093 0.15807863 0.169165 -0.07150814 0.17657757 0.054525603
0.061393045 0.12964913 0.048824903 0.19148624 -0.19422434 -0.030428126 -0.14450577 -0.0796145
-0.0051120967 -0.18194209 -0.09330189 0.027371883 -0.123821996 0.19761567 -0.08952611 -0.13404813
0.07444139 -0.11675139 0.13810576 -0.16379222 -0.019900441 -0.19021535 -0.16208224 -0.037369758
0.04675606 -0.048357576 -0.116910435 0.080603614 0.043826863 -0.090413354

conv1.bias f4 [6]
00000000: 9b2d ccbc bc21 90bd bb47 0abe 1c8e 373e
00000010: 51ec e33c 7ec8 25be
-0.02492409 -0.07037684 -0.13503926 0.17925304 0.027822645 -0.16189763

conv2.weight f4 [16, 6, 5, 5]
00000000: 28a0 543d 8675 34bd ae66 be3d 9a03 ad3b
00000010: c7c2 2cbd e705 893d fc38 143d d151 85bd
00000020: a778 79bd 688c 7ebd 3bb1 433d 754a 4bbc
00000030: d8e5 a6bd b1ab 12bd bc3f 6abd 1474 edbc
00000040: 9885 5e3d 4f45 d1bb 4eb3 353b 37c6 b8bc
00000050: a587 353d d5be 393d fd48 21bd dc35 7cbc
00000060: bac4 45bc d3f6 3cbd f678 6f3c e1f2 a63d
00000070: 14fa 8f3b 9ce2 99bd 0d29 fb3c 8210 4c3d
00000080: 29db 0f3c bcfb 3fbc 1e7c 4c3d 2b0f 64ba
00000090: aa59 9c3d ce8d 78bd 27f7 8d3d 4270 a3bc
000000a0: fec7 debb 8d56 a33c 77d2 acbc 5a7a 393d
000000b0: 4a7c 593d 4bd3 13bd eae9 30bb f81c 47bd
000000c0: 1680 7fbd 3f3a a23d b182 813d fdc5 a83d
000000d0: 9911 5e3d e2f9 f4bc a77b f13c d6d2 323c
000000e0: 294d 4dbd c061 853d 32be 48bd 6b44 c5bc
000000f0: 2c98 1cbd 2252 013c 0397 993c 6d16 9c3b
00000100: f23c 5d3d 9a18 67bd 4dc1 3dbd 2399 ae3d
00000110: a7d1 4c3d 3a91 c73c e522 a63d 7f34 8dbd
00000120: caf6 853d 3c42 5e3c 055a 7dbd b6d2 743d
00000130: ac77 ab3d 052a b83d 9fea c63d b3d6 82bd
00000140: e0b7 483d cc0f 90bd f9f4 2b3d abfc e6bb
00000150: 4948 9d3c 490f a03d ad80 e8bc 7603 0bbd
00000160: 0e64 273c 24ec 85bd 39bd 4dbd c3ee 293c
00000170: 58ec 623a 000e 073d bb3a 2d3b eeb0 01bd
00000180: 852c a3bc 2a78 85bd eb8c 94bd 3aa1 b53d
00000190: e5a8 f9bb 6bfc db3c df10 0a3d 7c9c ea3c
000001a0: 0ed1 093d b5cf 9e3c 0a42 9b3c fe0c 91bd
000001b0: 70da e73c 41d0 8bbd ddc9 68bd fda9 f53c
000001c0: 0381 22bd 9972 5f3d 0c23 10bd 077d 39bd
000001d0: d070 5cbd ed1b 60bd 50c7 903d dd44 e63c
000001e0: 1506 86bd 1f8b a43d ae10 54bd 49de 873b
000001f0: 9276 703d 6808 89bd 8ed9 28bd bf93 43bd
00000200: 0898 65bc bc4e 9e3c f88d f8bc c840 85bd
00000210: a069 60bb ada9 88bd f81c 073c e990 70bd
00000220: 30a2 29bd 0ecb fcbc e0c1 8a3b 20ff 573b
00000230: 6c51 87bc b674 96bd 904e 62bc 30ae 11bd
00000240: fc92 943c 0eb8 6ebd c0e5 f13a d32e 65bd
00000250: 0867 1e3c 6021 1dbb f7a0 34bd 539d 033d
00000260: 7a60 95bc 54a5 513d 70aa 7e3c d92f 8a3d
00000270: 337c 913d b039 363d 6027 bb3c a430 9fbd
00000280: c7b5 883d 97bb 0abc 991a 643d ab53 313d
00000290: a0eb 53bc 0186 e2bc 8c41 c03d 2176 3dbb
000002a0: 1e06 563b 6776 07bd 19d5 863d b410 9c3d
000002b0: 97c5 46bd 520e fdbc 9364 9f3d 1847 643c
000002c0: 8d6c 87bd f001 4b3d 1f24 23bd 46ad 3c3d
000002d0: 6007 f63a d488 57bc ef95 0f3d f61a 85bd
000002e0: b81f 203c 70c4 f1bc 7a9c b23c ebf7 c3bc
000002f0: 09da ba3b fb2f 23bb 6abd 5abd 5e64 c63c
00000300: 5bbd 63bd eea2 34bc b16d 6fba 6028 95bc
00000310: 44e1 e83c dab8 2abd 7044 27bd 5ba0 c93c
00000320: 6b3d 8a3d bc6a 8a3d 9748 f1bb 528b 1a3d
00000330: fad2 abbd 00e6 d83a dc40 75bd 0e30 813d
00000340: 4df8 013c 823f 6d3c ce98 52bd db42 86bd
00000350: 3ea3 c5bc 57a2 003d c72c 7a3d 8704 99bd
00000360: 8d04 1e3d f39a 77bd 6a61 7bbd 1002 5cbd
00000370: 45ce bbbc 54a3 9e3d 9515 9ebd c391 2b3c
00000380: c6df a83c 4cfe cd3c db29 48bd ef50 883d
00000390: ccd5 efbc 9297 d0bc 4fba bf3d cb44 21bd
000003a0: 54b3 4ebc a83f dd3c f346 c23c c025 803d
000003b0: dd5d 13bc d3b9 43bd f152 31bd e094 1cbd
000003c0: f108 0fbd 4916 a83c b60e 523c a6b8 0ebd
000003d0: 7abb 8abc 0897 bb3d e345 903d 58dd a63d
000003e0: a193 cf3c 2851 8b3d 3780 873b 75f5 07bc
000003f0: f334 99bd 1b78 c63c db2c 04bd 58d0 1a3d
0.05191055 -0.04405739 0.09296928 0.0052799704 -0.04217794 0.06690579 0.036187157 -0.06509746
-0.06090608 -0.06214562 0.047776442 -0.012407889 -0.08149308 -0.03580827 -0.057189688 -0.028986014
0.054326624 -0.006386436 0.0027725282 -0.022555454 0.044318814 0.045348007 -0.039376248 -0.0153937
-0.012070829 -0.046133827 0.014616242 0.08151794 0.0043938253 -0.075139254 0.030659223 0.04982043
0.008780279 -0.011717733 0.049923055 -0.000869977 0.076342896 -0.06068211 0.06931906 -0.01995099
-0.0067987433 0.019938732 -0.021096451 0.0452827 0.053097047 -0.036090177 -0.0026994892 -0.04861161
-0.06237801 0.07921266 0.063237555 0.08240888 0.054216 -0.02990431 0.029477907 0.010914525
-0.050122414 0.06512785 -0.04900951 -0.024080476 -0.03823106 0.007893117 0.018748766 0.0047634155
0.0540132 -0.056419946 -0.046326924 0.08525302 0.050004628 0.024361242 0.08112124 -0.068947785
0.06541212 0.013565596 -0.061853427 0.059771262 0.08372435 0.089923896 0.09712719 -0.06388607
0.049003482 -0.07034263 0.04198167 -0.0070491633 0.019199507 0.078154154 -0.02838167 -0.033938847
0.010216726 -0.06539181 -0.050229285 0.010371867 0.0008656434 0.032972336 0.0026432711 -0.031662874
-0.01991869 -0.0651706 -0.072534405 0.08868642 -0.0076190108 0.02685376 0.033707496 0.02863907
0.033646636 0.019386152 0.018952388 -0.07082556 0.028302401 -0.06826831 -0.056833137 0.029988283
-0.039673816 0.05455265 -0.035189673 -0.04528525 -0.053818524 -0.054714132 0.07069266 0.028109008
-0.06544129 0.08034348 -0.05177372 0.0041463715 0.058706827 -0.066910565 -0.0412231 -0.047748324
-0.014013298 0.019324653 -0.030341133 -0.06506497 -0.0034242645 -0.06672988 0.008246653 -0.058731947
-0.04141444 -0.030858543 0.0042345375 0.0032958463 -0.016518317 -0.073464796 -0.013812676 -0.03556651
0.018136494 -0.058280997 0.0018455312 -0.05595286 0.009668119 -0.0023976192 -0.04409882 0.032132458
-0.01823448 0.05118306 0.015543565 0.067474075 0.07103767 0.04448861 0.022845924 -0.07772949
0.06675296 -0.0084675765 0.055689428 0.043292683 -0.012934595 -0.027651789 0.09387502 -0.0028909522
0.0032657455 -0.0330719 0.06583614 0.07620373 -0.04852828 -0.030890618 0.07782855 0.013932966
-0.06612501 0.049562395 -0.03982937 0.046063684 0.0018770508 -0.013155181 0.035055097 -0.06499283
0.009773187 -0.029512614 0.02180313 -0.023921927 0.0057022613 -0.0024900425 -0.053403296 0.02421778
-0.055600505 -0.011025174 -0.0009133472 -0.018207729 0.028427728 -0.041680194 -0.04083675 0.024612596
0.06749996 0.06758639 -0.0073633897 0.037730522 -0.0838985 0.0016548038 -0.059876308 0.06307994
0.007932735 0.0144804735 -0.051415257 -0.065557204 -0.024125692 0.03140482 0.06107786 -0.07471567
0.03857856 -0.060450505 -0.0613722 -0.053712904 -0.022925505 0.07745996 -0.0771896 0.010471764
0.020614516 0.025145672 -0.04886804 0.06656062 -0.029276751 -0.0254629 0.093617074 -0.039372247
-0.012615997 0.027007893 0.023715472 0.062572 -0.008994547 -0.047784638 -0.04329199 -0.038227916
-0.034920637 0.020518439 0.01282089 -0.034844063 -0.016935099 0.09159666 0.0704458 0.08147687
0.02533895 0.06802589 0.0041351574 -0.008298268 -0.074808024 0.024227193 -0.03226934 0.03779635

conv2.bias f4 [16]
00000000: f310 b7bb 1173 793d 0aa0 4cbb 9098 4b3d
00000010: 6211 6d3d 6aff 6dbd 9a3a 453c c22a 69bd
00000020: 451b 6c3d f30b 3e3d 9b8f 6dbd f520 b8bc
00000030: 3a7c 213d 98e8 69bd 688a 8d3d 9ccb 403c
-0.0055867373 0.06090075 -0.003122332 0.04970604 0.057877906 -0.05810491 0.0120378975 -0.056925543
0.057643194 0.046398114 -0.05799828 -0.022476653 0.039425112 -0.057106584 0.069111645 0.011767294

fc1.weight f4 [120, 256]
00000000: 509d 4a3c ea18 763d a0eb 0d3d 7ab1 67bd
00000010: 2630 303d c07f c83b c67c 4fbd 63b3 6ebd
00000020: 0054 893b 4ffe 313c 30af 433c 4824 3f3c
00000030: c8f7 3bbc ce68 5b3d 04e4 fe3c d6f3 4cbd
00000040: f0a0 f6bb c821 4d3c d247 0d3d 7bf4 59bd
00000050: 1c72 033d d530 523d c325 223c 7428 523c
00000060: 996b 57bc 488d 0c3d fe29 5e3d 50f8 d9bb
00000070: 0683 3fbd 9e06 353d 1873 133d 6d98 2bbd
00000080: 959c 823b a3fb 743d 25c7 613d d55b 4ebd
00000090: 58b7 f7bc 0a9f 82bd bc44 7f3d 3b07 10bd
000000a0: ee44 37bd 4591 dbbc f14f 10bc 432e f8bc
000000b0: 468f fb3a b85a 3a3d 8d24 afbb 5e03 463d
000000c0: eb99 36bd 9075 d83b 8820 443d fe5a e7bb
000000d0: f82f be3c d846 b0bc 4f30 5c3d 2889 1f3d
000000e0: 1ef9 75bd d211 733d 21ff 403c 0588 4d3c
000000f0: 0e25 4fbd 5cd0 f5bc 0055 e63a 7c34 a2bc
00000100: 7c00 7b3d 400a c4bc a547 28bb c8e5 f23c
00000110: 6e59 4ebd 28ea cb3a 2e0e 51bd 9877 ddbc
00000120: 9210 1c3d 20aa 0bbb e0a2 7e3b 106b ea3c
00000130: ec2b dfbc 2594 13bd 00d6 283a 9235 583d
00000140: 3a17 2d3d e051 e63b 4a1c ca3c 8008 693c
00000150: 3c85 afbc 526f 3fbd 1673 a9bc 10ab 21bd
00000160: b655 01bc bd13 0a3b 7390 0d3d c025 673b
00000170: c02b 52bb 3cf9 d0bc 032f 35bc 3434 d33c
00000180: 7bdf dfbb 06d5 673c d76a 7ebc 0bb7 ed3c
00000190: 46a4 543d 9f17 2a3b 2d9c 35bd 6167 203d
000001a0: b8b7 c23c 8a43 21bd 4f98 7cbd 0724 7d3c
000001b0: 6a25 1c3c 9a3d 49bd 6a7a 1ebd 9713 20bd
000001c0: 1b10 053d ea14 91bc e87b 68bd cc1b 5f3c
000001d0: 192a e43c 000a cbbc d67d c13c cd85 0c3a
000001e0: 0f53 39bd b376 193d 62c9 3f3d 2e86 d3bb
000001f0: b0e5 6e3d 30de 263c 6b6f 76bd 83c3 51bd
00000200: 0fe5 533d ca19 763c c206 513d dc35 223d
00000210: 0550 4a3d 9744 d3bc e07b 363d a45d 6dbc
00000220: aaf3 fa3c 13cb 02bd bfdb 523d f15e c0bb
00000230: acb0 90bb 6d40 d43c d137 03bc 315e 153b
00000240: 7c4d d73c 6c1b 52bd 97c6 12bd fdf8 7abd
00000250: 5083 443d d9da 2fbd df21 79bc 07f9 283d
00000260: 6abf 87bd 9bc8 b4ba 712f d23c aa0c 59bd
00000270: c82a 1abd a468 e43c c04a 383d a7e3 39bd
00000280: 68ab a9bc c0df b4ba c0eb 9abb 34c7 6e3d
00000290: 08cc 073d be68 203d c029 f0ba 10fd b43b
000002a0: 4010 e6bb a0af 673c 4c5a ccbc 2c06 f2bc
000002b0: 2efe 5b3d 9cdd a4bc 669e 583d 60fb 7cbb
000002c0: 9adc 0d3d a07d 5dbc befd 5d3d 5806 613d
000002d0: 08ca db3c 5c6c 32bd e22d 1c3d e0bc fb3b
000002e0: be9d 583d 48bb ca3c 986a 733d 8078 7dbc
000002f0: 4aaf 7a3d 16e5 78bd 48e2 453d 221b 013d
00000300: fe63 9ebc cbb8 343c b98b 673d d923 b0bc
00000310: 9bb5 80bd a807 433d 527c d4bc 01fc a5bc
00000320: d240 3fbd 408e a039 06a2 85bc 5828 5dbd
00000330: 70bf 40bd 7dd0 1fbd 5ce7 7b3c fbfd 8bbc
00000340: d6e9 2c3c ec52 b2bc 1b7c 3f3d 25d0 26bd
00000350: d926 0dbd ac16 1abd 69aa 15bd ea5c 1f3d
00000360: 92b6 b93c 803e 393d 21c7 533d 2606 f9ba
00000370: ef4c 4fbd 11c9 89bd aaa1 24bd 0545 553d
00000380: 351f 27bd 1583 30bd bbdb 02bd 25ba 2d3d
00000390: 864a 683c b652 85bc 2645 82bd 4210 883c
000003a0: 31c0 3b3d 6209 0c3d d70e 86bd 2c09 45bc
000003b0: 1347 53bd a9c9 82bd 9882 063a decb 233d
000003c0: 8477 1bbd 238e 4c3d e415 46bd 70b3 dbbc
000003d0: 2977 393d e84b b93b a430 d9ba 8276 4d3d
000003e0: 98ee 2cbd 187b 60bd 9186 62bd 7d4d 5dbd
000003f0: 07a6 78bd c2fd 62bc 0898 f53c 53ac efbc
0.012366608 0.060082354 0.034648538 -0.05656574 0.043014668 0.0061187446 -0.050656103 -0.058276545
0.004190922 0.010863855 0.011943623 0.011666365 -0.01147265 0.053566746 0.031114586 -0.050037228
-0.0075265095 0.012520261 0.03449232 -0.05321167 0.032091245 0.0513161 0.009896698 0.012827028
-0.013148212 0.034314424 0.054239266 -0.0066519156 -0.046755813 0.044195764 0.035998434 -0.04189341
0.003985951 0.059810292 0.05512156 -0.050380547 -0.030238792 -0.063779905 0.06232141 -0.035163146
-0.04474347 -0.026802668 -0.008808122 -0.030295497 0.0019192479 0.045496672 -0.0053449334 0.048343055
-0.04458038 0.0066058114 0.047882587 -0.0070604077 0.023216233 -0.021518156 0.05375701 0.03894916
-0.06005203 0.059343167 0.0117795775 0.012544637 -0.050572447 -0.03000658 0.0017572939 -0.019800417
0.06127976 -0.023930669 -0.002567747 0.029650584 -0.050378256 0.0015557455 -0.051038913 -0.027034566
0.03810174 -0.002131112 0.0038854405 0.028615505 -0.027242623 -0.036029954 0.000644058 0.052785464
0.04225848 0.007028803 0.024671692 0.014223218 -0.021425836 -0.046737023 -0.02068476 -0.03946978
-0.00789397 0.0021068894 0.034561586 0.0035270303 -0.0032069534 -0.02550947 -0.011058572 0.025781728
-0.006832061 0.01414991 -0.015528402 0.029017946 0.051914476 0.002595402 -0.044338394 0.03916109
0.023769245 -0.03937105 -0.06166869 0.015450484 0.009530405 -0.049131013 -0.038690962 -0.039081182
0.032486062 -0.017710168 -0.05675879 0.013617467 0.027852105 -0.024785042 0.023619574 0.0005360514
-0.045245226 0.037466716 0.046822913 -0.0064552044 0.058324516 0.01018481 -0.06016485 -0.051211845
0.05173212 0.015020797 0.051031835 0.039602146 0.04939272 -0.025789542 0.04455173 -0.014487658
0.030633766 -0.031931948 0.051479097 -0.005870693 -0.004415592 0.025909627 -0.008008913 0.0022791738
0.026282065 -0.051295683 -0.03583392 -0.06127261 0.04797679 -0.04293332 -0.015205829 0.041253116
-0.06628306 -0.0013792695 0.025657387 -0.052990593 -0.037638456 0.027881928 0.044993162 -0.04538312
-0.020711616 -0.0013799593 -0.0047278106 0.058295444 0.033153564 0.03916239 -0.0018322989 0.0055233315
-0.00702098 0.014140993 -0.0249454 -0.029543959 0.0537092 -0.020125203 0.052885436 -0.003860198
0.03463421 -0.013518721 0.054197066 0.05493769 0.026829734 -0.04356037 0.038129695 0.0076824278
0.05288481 0.024747506 0.059427828 -0.015470624 0.061202325 -0.06076535 0.0483115 0.031520016
-0.01933479 0.011030386 0.056529734 -0.021501468 -0.062846385 0.047614723 -0.025938187 -0.020261766
-0.046692677 0.00030623563 -0.01631261 -0.053993553 -0.04705757 -0.03901719 0.015374985 -0.01708888
0.010553798 -0.021768056 0.046749216 -0.040725846 -0.034460876 -0.037619278 -0.03653947 0.03890697
0.022670064 0.04522562 0.051703576 -0.0018999025 -0.05061048 -0.067278035 -0.040193237 0.052067775
-0.040801246 -0.04309376 -0.031947833 0.04241385 0.014177924 -0.016274791 -0.06360845 0.016609315
0.045837585 0.034188636 -0.06545799 -0.0120261125 -0.051581454 -0.0638612 0.00051311543 0.039989345
-0.037955776 0.04994024 -0.04836072 -0.02681896 0.045279656 0.0056548007 -0.0016570282 0.050161846
-0.04221973 -0.05480489 -0.055304114 -0.054028977 -0.06070521 -0.013854446 0.02997972 -0.029256975

fc1.bias f4 [120]
00000000: cbc8 573d c0ef 9a3c ba0e 36bd 0a35 38bd
00000010: b08e dd3b 1f89 3ebd f34c 2a3d a89c e8bc
00000020: d99e 433d 0fc2 7f3d a918 26bd d09b ea3c
00000030: fc9c 813c ce0d 9ebb 2acd 30bc 65f2 34bd
00000040: 2057 b4bc 8c68 f33c c43e 5f3d 7b3a 76bc
00000050: 64b4 043d 6024 3b3d 04b9 ccbc dc75 b3bb
00000060: 9447 bdbb 55ae 6c3a 0c10 5ebd b8da 5dbd
00000070: e492 e9bc 276a 86bb 3b81 d6bb 3901 073d
00000080: db61 75bd 702f 9e3b 5705 d23c b44d 123d
00000090: 7eb3 4d3d fbed c93c 8ed5 083d 98d9 50bd
000000a0: 87b5 e3bb 818e 703c c040 fbbb 668a 1bbd
000000b0: 9cec 81bc 58a7 353d 2c89 1dbc 1443 44bc
000000c0: 6075 193c 6059 5cbc 407c ab3c 6a75 323d
000000d0: 7745 383d 22c0 fc3b 9f75 123c 7e87 31bd
000000e0: 5cfa f6bc dd15 5ebd b084 623d 0480 9e3c
000000f0: 8884 40bc 0000 d8ba af92 843b 91a2 b3b9
00000100: 3686 5cbd 4145 52bd 380a 0a3d a584 09bd
00000110: 4af0 23bd eb66 f0bb 1e5d 453d e6f4 353d
00000120: 9666 3b3d 9476 d4bc 0364 8dbc ee55 50bd
00000130: 23c7 7e3c 9db0 9dbb 78b3 4e3d 32a0 74bd
00000140: f4b2 6d3d b0a4 c93c 27a3 c2bb 5891 7cbc
00000150: dc40 003d 18f0 c4bc 1811 783d 5257 d6bb
00000160: d67b 7dbd 1e3d c4bc 7895 f2bc 50a6 3b3c
00000170: f201 153d 5920 fb3c a834 5f3d 1e35 54bd
00000180: e494 853c 0063 a23a f19f 393d 2058 383d
00000190: bf87 82bd 3e29 6a3d deac 9d3c 8de7 ab3c
000001a0: 58ba 3d3d f595 2c3d 04fe 4c3d 5b11 3a3d
000001b0: 4841 0cbd 5a4e 87bd c9ec 443d d077 433d
000001c0: 8454 0ebd a9b8 1ebc 4f72 e3bb d358 213d
000001d0: 902a 17bd 80f2 9fbb d3b9 e4bc 93ef fdbb
0.052681725 0.01891315 -0.044447638 -0.044972457 0.0067613944 -0.046517488 0.04157729 -0.028395012
0.04775891 0.062440928 -0.04055086 0.02863875 0.015821926 -0.004823423 -0.010791102 -0.044176478
-0.0220142 0.029712938 0.054503217 -0.015028591 0.032398596 0.045688987 -0.024990566 -0.0054766964
-0.005776355 0.0009028663 -0.054214522 -0.054163665 -0.028512426 -0.00410201 -0.006546167 0.03296015
-0.059907775 0.0048274323 0.025637312 0.035718635 0.050220005 0.02464961 0.033406787 -0.050988764
-0.00694913 0.014682413 -0.007667631 -0.037973784 -0.015859894 0.044349045 -0.009615224 -0.011978883
0.009366363 -0.013449043 0.02093327 0.043569006 0.04498812 0.0077133337 0.008939176 -0.043342106
-0.030148678 -0.05422007 0.055302322 0.019348152 -0.011750348 -0.0016479492 0.0040458064 -0.00034262662
-0.05383893 -0.051335577 0.03370115 -0.033573765 -0.04002408 -0.0073364875 0.048184507 0.044423006
0.04575213 -0.025935449 -0.017259603 -0.0508632 0.015550408 -0.0048123137 0.050464123 -0.059723087
0.05803199 0.024614662 -0.0059398594 -0.015415512 0.031311855 -0.024040267 0.060563177 -0.006541171
-0.061885677 -0.023954924 -0.029612288 0.011453226 0.03637881 0.030655073 0.054493576 -0.05180847
0.016306348 0.0012389123 0.045318548 0.045005918 -0.06373548 0.057168238 0.019247469 0.020984435
0.04632029 0.042135198 0.050046936 0.045426708 -0.034241945 -0.06606741 0.04807738 0.047721684
-0.03474857 -0.009687581 -0.006941117 0.03939135 -0.036905825 -0.004881203 -0.02792064 -0.0077495067

fc2.weight f4 [84, 120]
00000000: 5c11 363d 3444 733d ba20 993d cc07 d33c
00000010: 6e12 aabd 2664 86bd 7422 a83c de55 8b3d
00000020: be16 a23d 746e 96bd f006 bcbb 06ba 003d
00000030: 284c 09bd d5d1 36bd 9cf6 a1bd 4d2e 1abd
00000040: 98ea 84bc 10dc 6e3c c447 d03c 5589 a5bd
00000050: 043d babd 7f97 90bd c298 42bd 084a 4bbc
00000060: f316 a6bd b4c1 19bd 6869 5c3c a8d3 6ebd
00000070: 1006 0d3d fa8d 8b3d 06d6 b23d 8c5e 80bc
00000080: 2052 88bb b0d2 693d b09f 193d 9882 6a3d
00000090: dca2 453d 205e 573b c4d0 103d 7e52 26bd
000000a0: a0c6 213b 3bb5 a8bd e028 0ebb b710 5abd
000000b0: 20be 593d ff12 05bd 90da fabb 40d0 04bc
000000c0: 9cd3 703d 9d00 6bbd 383f 9b3d 907f 663d
000000d0: 68ce 383c 86ae fbbc d80e a53d 6715 a4bd
000000e0: 0026 2c3b e519 b0bd 96ad b23d 30f3 fbbc
000000f0: 20ad 233d f0e6 243c facb f6bc 8e6c 9f3d
00000100: f879 aa3d f48c 9bbc 8b0b 8fbd ec72 933d
00000110: 9058 643c 5862 903c d06c 82bd dcc3 9d3d
00000120: 00b7 c93b cc9a 4b3d e09a 76bc d8d1 543d
00000130: cb43 14bd 0602 7fbd 5402 683d 9080 d03c
00000140: d426 90bc cca0 8abd 9b5f 4abd 4aed b23d
00000150: 9275 12bd 8055 983d bc92 9ebc e66f 3fbd
00000160: 46a1 97bd d038 5a3d 1c97 40bd e4a5 443d
00000170: 9a30 9a3d 50fa babc 98a8 b5bd 78cc b03d
00000180: c0f0 a23c ac09 873d db03 22bd 7820 943c
00000190: 80ad d3bc 4ca0 33bd 70e1 5dbc 04e3 87bc
000001a0: de05 4dbd 7858 933d 30ec 6fbc 70ba dcbb
000001b0: 12e5 993d ef29 65bd e47e 11bd 5ed9 823d
000001c0: cc68 9bbd 1090 b43b c2de 2bbd 48a2 5fbc
000001d0: e1d9 2dbd 402f df3b 54fd a1bd 0a31 a63d
000001e0: d038 463d 50e9 823b 76d8 a5bd eb0d 08bd
000001f0: c8e4 4cbc 0ca4 353d 81b4 96bd 5ee8 f9bc
00000200: 1b41 3dbd 684b a53c 5031 b8bc b428 8fbc
00000210: eb73 8bbd a0ab 043c 1e23 4bbd 1a17 3dbd
00000220: 60df 9abc c4c4 e83c b65b 8abd 4cc8 9e3d
00000230: c8c7 ce3c 8803 8bbd e446 623d c629 ae3d
00000240: 1204 a73d 7851 253c afde 73bd 08e8 b73d
00000250: b0ca 8c3d 70a9 cdbc e8c7 aa3d 6c34 283d
00000260: 1090 ebbc 6016 763b 00d8 673a fce3 573d
00000270: 527d b93d 0011 463a 50a5 d83b afba 5bbd
00000280: cf2c a3bd 043d 9e3d 04c7 153d 90dd 963d
00000290: e8dc 65bc ac06 aa3d fbc4 75bd b493 8abd
000002a0: b000 b6bc 7cee a23c 40ba 4d3c f1d2 a7bd
000002b0: 70ca 14bc f21f 9c3d 0c73 283d b79d 4ebd
000002c0: 272b 83bd e0ee 0b3d 93ad 1cbd f535 67bd
000002d0: f0d2 f13c d8a3 5f3c 0875 413d 6499 a13d
000002e0: 174d b9bd f350 8fbd 6e72 87bd c0bc 1d3d
000002f0: 8aec 03bd 40b5 983d 5c11 6a3d defa 86bd
00000300: 501a b9bb 6216 873d 4f0c 68bd 2d8a a1bd
00000310: 1ad8 a93d d6b9 963d d67a 873d 5a67 8d3d
00000320: 401f cabb ddd1 2ebd 6f67 9dbd 4e90 71bd
00000330: c8be e9bc 5c17 d33c b0bd 293d 08d2 3e3d
00000340: 747b a9bc e0de 223c e4b0 e8bc a4f3 0bbd
00000350: 58ff 123d 7ecd 8abd aead ac3d d8d6 803c
00000360: 06b7 a03d ac95 013d 02fe 7abd 900a 25bd
00000370: 280b 2c3d 38af 7e3d 407b 53bb 30b9 293d
00000380: 908d 233d b357 6bbd 39ae 69bd 84eb 873d
00000390: 740b 753d 7c75 84bd e6f9 03bd 28c2 443d
000003a0: f018 a4bd 9839 79bc a106 5ebd e2e6 67bd
000003b0: e843 883c 939c a9bd 96f5 8bbd 090d 12bd
000003c0: f736 833c caee 8dbd cf95 83bd c043 84bc
000003d0: a0f0 0c3b dd3e 293c efdc 5ebc c2b0 ac3d
000003e0: c7cc 86bd 1532 333d 9cf0 c0bd a2a5 603d
000003f0: 383e a2bd bef8 873d de43 32bc ec61 4ebc
0.04445015 0.059391215 0.07476945 0.025760554 -0.083042964 -0.065620705 0.020524241 0.06803487
0.07914494 -0.07345286 -0.0057381317 0.031427406 -0.033519894 -0.044633705 -0.07908365 -0.037641812
-0.016225144 0.014578834 0.025424846 -0.08082835 -0.09093669 -0.070601456 -0.047508962 -0.012407787
-0.08109846 -0.037538245 0.013452865 -0.05830732 0.03442961 0.06814189 0.08732228 -0.015670083
-0.0041601807 0.057085693 0.037505805 0.05725345 0.048251018 0.00328625 0.035355344 -0.040606014
0.002468504 -0.08237692 -0.0021691844 -0.053238597 0.053159833 -0.03248882 -0.007655449 -0.008106291
0.058795556 -0.05737363 0.075804174 0.056273997 0.01127968 -0.030722868 0.08059472 -0.08011895
0.0026267767 -0.08598689 0.08724515 -0.03075561 0.039960027 0.010064825 -0.03012656 0.07784377
0.08324045 -0.01898811 -0.069846235 0.07199654 0.013937131 0.017625019 -0.063684106 0.07703373
0.0061558485 0.049708173 -0.0150515735 0.051957935 -0.036197465 -0.06225779 0.056642845 0.025451928
-0.01759664 -0.06768951 -0.049407583 0.087366655 -0.035756655 0.07438183 -0.019357078 -0.046737574
-0.07403807 0.053276837 -0.04701911 0.048009768 0.07528801 -0.022824436 -0.08870047 0.08632749
0.01989019 0.06593642 -0.039554458 0.018081889 -0.025839567 -0.043854043 -0.013542518 -0.016587742
-0.050054424 0.071946084 -0.014643714 -0.0067360923 0.07514395 -0.055948194 -0.035521403 0.06389116
-0.07588348 0.0055103377 -0.041960485 -0.013649531 -0.042444114 0.0068110526 -0.07909647 0.08114822
0.048394024 0.003995098 -0.08097927 -0.0332164 -0.012505718 0.0443459 -0.07358647 -0.03050631
-0.046204668 0.020177558 -0.022484452 -0.017475463 -0.06809219 0.008097559 -0.049594037 -0.04616461
-0.018905342 0.028414138 -0.06755774 0.07753047 0.025241747 -0.06787783 0.055243388 0.085040614
0.08155073 0.010090224 -0.05953854 0.08979803 0.06874597 -0.025105208 0.0833891 0.04106562
-0.028755218 0.0037549958 0.0008844137 0.052707657 0.09057106 0.0007555634 0.0066115037 -0.053644832
-0.07967531 0.077264816 0.03656675 0.073664784 -0.014029719 0.08302054 -0.06000231 -0.067664534
-0.022217125 0.019889109 0.0125566125 -0.08194531 -0.009081468 0.076232806 0.041125342 -0.050443377
-0.06404715 0.034163356 -0.03825147 -0.05644794 0.029519528 0.013649903 0.04723075 0.07890585
-0.09047907 -0.06997862 -0.066136226 0.038510084 -0.032208003 0.07456446 0.05714546 -0.06590818
-0.0056488886 0.06596066 -0.056652363 -0.07887683 0.08293171 0.07359664 0.06615226 0.06904478
-0.006168276 -0.04268061 -0.07685744 -0.05897551 -0.028533354 0.025767975 0.041440666 0.04658702
-0.02068875 0.009940833 -0.02840466 -0.0341679 0.035888046 -0.06777476 0.08431564 0.015727445
0.07847409 0.03163688 -0.061277397 -0.040293276 0.042002827 0.06217882 -0.0032269508 0.041436374
0.039929926 -0.057456683 -0.057050917 0.06636718 0.059825376 -0.06467721 -0.032220744 0.048036724
-0.08012569 -0.015211485 -0.05420554 -0.05661667 0.016633943 -0.08281817 -0.06833951 -0.035656963
0.01601742 -0.06930311 -0.06425058 -0.016145587 0.0021505728 0.010329929 -0.013602479 0.084321514
-0.06582027 0.043748934 -0.094208926 0.05484546 -0.079220235 0.06639241 -0.010880439 -0.012596589

fc2.bias f4 [84]
00000000: 7c2e 6fbd 40e3 04bb 3658 49bd 17bd b6bd
00000010: 5d46 51bd afa3 abbc dfbd 8a3d 8c34 7c3c
00000020: 8080 71bc 2ca0 8d3d 2415 8f3d 032e 103d
00000030: e517 ff3b 00ce 2cb9 2d73 2a3c 406b 65bb
00000040: c1d7 2ebd b371 24bd 68a1 a7bc 0000 f7bb
00000050: c1c0 57bd ed29 07bd d407 27bb 80b5 41ba
00000060: 0068 90bc 8c9d d63c 49a7 3abd 6edf a23d
00000070: 0fbb 823c 8eea 2b3d 4228 433d 5368 32ba
00000080: 8661 323d e8f4 24bc 9926 893d 3984 d63c
00000090: 63c1 44bd 4612 8fbc 78e2 da39 7006 103d
000000a0: 0a71 f5bc 0a09 a3bc 486f 59bd d85c 303d
000000b0: a16d 12bd 00cb 533b f208 723d 5f06 20bd
000000c0: 2047 ecbc bc9a 473d 542a a03c 6c02 bbbc
000000d0: a1ef 083d a3b5 aabd 552a ac3c b281 90bd
000000e0: 451c b63c 3f1b 67bc 78ca a4bd e7de 1fbd
000000f0: 365e 8d3d 1c42 a0bc 0a1a 383d ea3f b2bd
00000100: ff38 e0bc 8410 613d 9cfb 613d 8caa 8d3c
00000110: 7905 1dbd 8ae6 ac3c b633 3abc 9824 1d3c
00000120: 0c01 733d a235 a23d 608f 253d d906 03bd
00000130: 7c4d 2ebd 626d 08bc 0888 4ebd 7357 abb8
00000140: 49f5 68bd a4bb 63bc 5e96 98bd e4d5 973d
-0.05839394 -0.0020277053 -0.04915639 -0.08922785 -0.051092494 -0.020952074 0.06774496 0.0153933875
-0.014740109 0.06915316 0.06986454 0.03520013 0.007784831 -0.00016479939 0.010403437 -0.0035006553
-0.042686228 -0.040147495 -0.020462707 -0.007537842 -0.05267406 -0.032998968 -0.0025486844 -0.00073894113
-0.017627716 0.026198171 -0.04556969 0.07952772 0.015958337 0.041971736 0.047645815 -0.00068057067
0.043550037 -0.010068156 0.06696815 0.026186096 -0.04803599 -0.017464768 0.00041748933 0.03516239
-0.029961128 -0.019901771 -0.05308464 0.043057293 -0.03574908 0.0032317042 0.059090562 -0.039068576
-0.028842509 0.04873155 0.019551434 -0.022828303 0.033431653 -0.08335426 0.02101628 -0.070559874
0.022230277 -0.014105617 -0.0804643 -0.039030936 0.06902735 -0.019562773 0.044946708 -0.08703597
-0.027370928 0.05494739 0.055171594 0.017293237 -0.038335297 0.021106023 -0.011364868 0.009591244
0.05932717 0.07920386 0.040419936 -0.031988952 -0.042554364 -0.00832686 -0.0504227 -8.170204e-05
-0.056874547 -0.0138997175 -0.07450555 0.07413843

fc3.weight f4 [1, 84]
00000000: 8930 bdbd 00ae e2bb 7962 6bbb 0a09 2bbd
00000010: cef5 8cbd 64b0 c8bc 3305 69bd 7ead 853d
00000020: 415a e3bd 862a 1dbc 8f6d e0bc 6cdd 2abd
00000030: 9316 cd3b e08c b23b e9a9 823b 658a 8b3d
00000040: c119 6dbc 823e 923d db42 d4bd 806c 60ba
00000050: 0080 3e37 2203 abbd 847d c3bd 70a1 f7bc
00000060: 6a89 cf3b 8a5b 613d db87 e23d 6f63 b4bc
00000070: 7a10 993d 907b 92bd 207a 3c3c b55d ab3d
00000080: 210b e0bd c026 17bd 8da1 d1bd 4119 d1bd
00000090: 3968 273d f4f9 adbd d469 9a3d 11f8 b1bd
000000a0: 80d9 94bd ee17 463d 478a bc3d 823c 113d
000000b0: c2cf 0b3d 49f9 bcbd a905 16bd 2517 a03d
000000c0: b5d1 c13d 5557 803d 2ea1 23bc 6950 993d
000000d0: 8f8a 8cbc b460 8d3c 4c30 80bd 4c73 23bd
000000e0: 9c4c 44bd 3e6e 163d 699c 86bb 61e1 de3c
000000f0: 1714 bebd 0fd9 debd e939 8f3c dc4a abbc
00000100: 9ffb 2cbb 76be 913d d157 af3d cd52 cfbb
00000110: 95e5 b13d d031 d2bd 147d 9dbd 55ed b9bc
00000120: e493 56bc 629e b2bd 9211 713d f2f9 0d3d
00000130: cd95 b0bd 717a a6bc d80b 6c3d 365b 6abd
00000140: 1301 883d e369 183d 4ce9 ce3c 8e9b 66bd
-0.09237773 -0.006917715 -0.0035916849 -0.041756667 -0.06882821 -0.024498172 -0.056889724 0.06527232
-0.11101199 -0.009592658 -0.027395992 -0.04171507 0.0062587946 0.0054489225 0.00398754 0.06813506
-0.014471472 0.07140829 -0.10364314 -0.00085610896 1.1354685e-05 -0.08350207 -0.095454246 -0.030228347
0.0063335197 0.05501894 0.110610686 -0.02202007 0.07473846 -0.07152474 0.011503726 0.083674826
-0.10939623 -0.03690219 -0.102358915 -0.10209895 0.04087088 -0.084949404 0.07539716 -0.08689893
-0.07268047 0.048362665 0.09206062 0.035458095 0.03413368 -0.09227235 -0.03662649 0.078169145
0.094638266 0.06266657 -0.009987159 0.0748604 -0.017155914 0.017258026 -0.06259212 -0.039904878
-0.047924623 0.03672623 -0.004108001 0.027207078 -0.092811756 -0.108812444 0.017483668 -0.02090972
-0.0026395095 0.07116406 0.085616715 -0.0063270093 0.086863674 -0.10263407 -0.076898724 -0.022696177
-0.013096783 -0.087216154 0.058854647 0.034662195 -0.08622322 -0.020322056 0.057628483 -0.05721589
0.0664083 0.037210356 0.025257729 -0.056300692
