Week7/checkpoint/checkpoint_epoch_2.pth (torch, 178450 bytes, 9 tensors)

conv1.weight f4 [6, 1, 5, 5]
000000 0c da 9f 3d 53 d3 b5 3c 46 0b 8a 3d 70 84 01 be
       0.07805261 0.022195494 0.067404315 -0.12648177
000010 4b ad 23 be 71 ce 4c 3e 26 86 2f bc 36 bd 4c be
       -0.15984075 0.20000626 -0.010713136 -0.19994053
000020 93 5f 0e bd 89 28 3c 3d 0f 3d 15 bd fb 99 18 be
       -0.034759115 0.045937095 -0.036435183 -0.14902489
000030 f7 94 00 3e 2a 02 18 be 9b c6 28 bc 5b 5b 3b be
       0.12556826 -0.14844576 -0.0103012575 -0.18296568
000040 0a d5 8a 3d a6 42 27 be 47 be a1 3d 49 62 01 3e
       0.06778915 -0.16334018 0.07897621 0.12635149
000050 27 68 4c 3d 2b 0f 0e 3e df e4 26 be e1 7f 13 3e
       0.049904015 0.13872974 -0.16298245 0.1440425
000060 07 cf 1a 3e 8d d0 35 bd 23 57 e2 3d dc ee 97 3d
       0.15118037 -0.044388343 0.11051776 0.07418606
000070 36 bc 48 be d6 b5 e4 3d 7c f9 ec bc 6d d9 9b 3d
       -0.19603047 0.11167495 -0.028927557 0.0760983
000080 4d cd 01 be ea 8c 1e 3e 03 23 e7 3d 27 c2 58 3c
       -0.12675972 0.15483442 0.11285975 0.013229883
000090 d8 e4 a2 bd d0 53 92 bd 24 e3 35 3d ec 3c 19 bd
       -0.07953805 -0.07144892 0.04440607 -0.037411615
0000a0 a3 31 10 be da 96 1b bc 9a c8 42 3e 17 9f a4 3d
       -0.14081435 -0.009496415 0.19021836 0.080381565
0000b0 cc 8c 14 be 5d 8f 38 3e 3e 3a fa 3c 81 4b 08 3e
       -0.14506835 0.18023439 0.03054535 0.13310052
0000c0 7d 15 c7 bc c7 33 92 bd 6b 47 44 3e 08 da 46 3d
       -0.024302239 -0.07138782 0.19167869 0.048547775
0000d0 fb 38 ba 3a e8 69 5d bd 7b f8 dc bd 86 78 9f 3d
       0.0014207655 -0.05405608 -0.107895814 0.0778666
0000e0 40 be 99 bd dc ad b8 bd 57 0f bb bd f0 29 bb bd
       -0.075069904 -0.09017536 -0.09133785 -0.09138858
0000f0 7e 1f 44 3e 2d 56 f9 bc cf 1c 1a bc 61 dd d5 bd
       0.19152638 -0.0304366 -0.009406283 -0.10442615
000100 a8 64 fe 3d f4 47 86 bd f5 18 b1 3d 03 64 07 3e
       0.124215424 -0.06556693 0.08647338 0.13221745
000110 bd 28 f8 bc 55 54 47 bd 9e 56 b7 3d b4 85 35 3e
       -0.030292863 -0.04866441 0.08952068 0.17726785
000120 de 5e 96 bd 75 07 04 3e 81 64 a6 bd 2f 28 0c bd
       -0.07342313 0.1289347 -0.08124638 -0.03421801
000130 a3 de 39 bd 15 6c 68 3d 74 d3 cc 3d dd 78 1a be
       -0.04537834 0.0567437 0.10001269 -0.15085168
000140 f4 dc 2a be b9 20 ed 3d cd 3a 74 3b 70 88 0e be
       -0.1668585 0.11578507 0.0037266493 -0.13919234
000150 d9 0c 0b be ac b4 18 be 6b 0f 0b 3e 86 f3 15 be
       -0.1357912 -0.14912671 0.135801 -0.14643678
000160 52 05 f9 3d 40 1c a1 bd 2f 7e 43 bd fd ba 51 3e
       0.12159218 -0.078667164 -0.04772776 0.20481487
000170 19 61 66 bc aa 81 20 3e e4 8b 09 be 13 7a 00 be
       -0.014061236 0.15674463 -0.1343227 -0.12546568
000180 0e 53 4f 3e 88 62 d0 3c c9 20 78 bd dd 58 16 3e
       0.20246527 0.025437608 -0.06057814 0.14682336
000190 12 1b 4e 3e 81 9c 0b 3e 0b 34 11 be 94 f3 bb 3d
       0.20127514 0.1363392 -0.14180009 0.09177318
0001a0 52 66 26 be 46 25 31 3e 96 39 a8 bd fb e3 11 be
       -0.1624997 0.17299375 -0.08214109 -0.14247124
0001b0 9d 56 1b 3e 98 5e 17 3e 1d b8 d4 bd 93 34 21 3e
       0.15169759 0.14782178 -0.10386679 0.15742712
0001c0 6a b3 35 be 65 94 f6 bd d1 ef 4d bb 6a e9 20 3e
       -0.17744222 -0.12040023 -0.003142346 0.1571404
0001d0 09 70 2c 3e d2 e5 93 bd 99 ff 34 3e e1 3b 61 3d
       0.16839613 -0.07221569 0.17675628 0.054988746
0001e0 0c bc 77 3d 9d b2 03 3e ad 79 44 3d 9c e6 43 3e
       0.06048207 0.12861104 0.0479676 0.19130939
0001f0 ac a8 46 be 68 44 f9 bc 52 f9 13 be ed 0c a3 bd
       -0.1940028 -0.030428126 -0.14450577 -0.0796145
000200 60 83 a7 bb 07 4f 3a be 10 15 bf bd 00 3b e0 3c
       -0.0051120967 -0.18194209 -0.09330189 0.027371883
000210 63 96 fd bd c3 5b 4a 3e 77 59 b7 bd ea 43 09 be
       -0.123821996 0.19761567 -0.08952611 -0.13404813
000220 ba 74 98 3d 5a 1b ef bd 99 6b 0d 3e 26 b9 27 be
       0.07444139 -0.11675139 0.13810576 -0.16379222
000230 40 06 a3 bc d0 c7 42 be e3 f8 25 be 08 11 19 bd
       -0.019900441 -0.19021535 -0.16208224 -0.037369758
000240 48 83 3f 3d 98 12 46 bd bd 6e ef bd 82 13 a5 3d
       0.04675606 -0.048357576 -0.116910435 0.080603614
000250 cc 83 33 3d a3 2a b9 bd
       0.043826863 -0.090413354

conv1.bias f4 [6]
000000 2d e8 f8 bc 80 7f 8f bd 97 8f 0b be f8 f6 33 3e
       -0.030384148 -0.070067406 -0.13628994 0.1757468
000010 32 e8 e2 3c 7e c8 25 be
       0.02769861 -0.16189763

conv2.weight f4 [16, 6, 5, 5]
000000 0d 59 3a 3d f3 fc 54 bd 5f 1d af 3d d4 cd a1 3b
       0.04549508 -0.051999044 0.08550524 0.0049378667
000010 d6 14 2a bd 59 33 6f 3d 80 ff f2 3c 84 f7 82 bd
       -0.041523777 0.05839858 0.029662848 -0.06394866
000020 34 71 7b bd bb b2 89 bd c9 cb 37 3d 56 45 31 bc
       -0.061387256 -0.06723543 0.04487208 -0.010819754
000030 65 80 a7 bd bb 0c 0f bd 35 b7 5d bd e8 8e e4 bc
       -0.08178786 -0.03492425 -0.054129798 -0.027900174
000040 71 5e 68 3d ef 5c 7c bb 07 fe b3 3b 06 65 a8 bc
       0.05673069 -0.0038507541 0.005492929 -0.020555984
000050 54 b1 4a 3d 7a fc 4d 3d c0 cb 12 bd fd 51 88 bc
       0.04948552 0.05028961 -0.035838842 -0.016640658
000060 52 2e 8e bc a5 1f 3e bd ee a8 60 3c 53 9d a2 3d
       -0.017356072 -0.046416897 0.013712151 0.079401635
000070 38 56 91 3b e8 05 96 bd 9d 3c f1 3c 75 ff 48 3d
       0.004435327 -0.07325345 0.029447848 0.049071748
000080 44 d9 14 3c aa 24 28 bc 60 8b 54 3d 5f eb 07 ba
       0.009085003 -0.010262648 0.05189073 -0.00051849143
000090 29 e3 9d 3d 92 85 72 bd 83 c5 8f 3d c7 d7 99 bc
       0.07709343 -0.059209414 0.07020094 -0.018779648
0000a0 1b 68 d1 bb 1a 1d b4 3c 24 73 94 bc 43 b8 3f 3d
       -0.006390584 0.021986533 -0.01812131 0.046806585
0000b0 a1 78 5a 3d 9e 41 11 bd 74 97 c0 b9 34 8a 3d bd
       0.053337697 -0.035462968 -0.00036733935 -0.04627438
0000c0 5f 7e 7d bd 95 6a a4 3d 02 a5 7d 3d d7 1d a1 3d
       -0.061888095 0.080281414 0.06192494 0.078670196
0000d0 a7 9c 51 3d a3 71 f3 bc 1a 5c f4 3c 59 51 e9 3b
       0.051174786 -0.029717272 0.029829074 0.007120293
0000e0 37 d4 51 bd a2 e3 86 3d b9 ca 4f bd 8a 99 d2 bc
       -0.051227774 0.06586386 -0.05073044 -0.025707979
0000f0 22 4d 1a bd c9 d0 f6 3b ff c6 7c 3c 94 b6 e0 3a
       -0.037671216 0.0075322133 0.015428304 0.0017144256
000100 7d 8c 62 3d e5 a9 63 bd 5b 94 3e bd a7 72 af 3d
       0.05530976 -0.055581946 -0.0465282 0.0856679
000110 58 b2 4b 3d d5 dd cc 3c 60 5b a6 3d 47 dc 8a bd
       0.04973063 0.025008122 0.08122897 -0.06780296
000120 5a 01 8a 3d 9f de 73 3c 51 bc 80 bd 21 49 70 3d
       0.06738539 0.01488462 -0.062859185 0.05866349
000130 95 51 a1 3d ac 77 ab 3d 97 82 be 3d 4a 2f 8d bd
       0.07876889 0.08372435 0.09302252 -0.06893785
000140 2f 95 37 3d 28 71 93 bd 0a 9d 18 3d 1e 69 06 bc
       0.044820007 -0.07199317 0.03725914 -0.008203773
000150 ee 3f a2 3c 44 21 96 3d c1 0f 00 bd 47 73 18 bd
       0.019805875 0.07330564 -0.031265024 -0.037219312
000160 83 5b 21 3c 27 13 81 bd e1 e4 56 bd 7b 9d 24 3c
       0.009848478 -0.06302481 -0.05246437 0.010047312
000170 5c 9b 83 3a 64 6a 0b 3d f6 b8 88 3b 21 b5 0a bd
       0.0010040808 0.03403701 0.0041724397 -0.033864144
000180 44 f9 95 bc 90 23 7f bd 59 60 94 bd d1 a2 b2 3d
       -0.018307336 -0.062289774 -0.07244939 0.08722461
000190 68 3f e4 bb e0 47 df 3c 37 b8 0c 3d 83 fe f0 3c
       -0.0069655664 0.027255952 0.03435537 0.029418236
0001a0 e7 3e 12 3d e8 40 9f 3c 14 2a 9b 3c 69 92 8e bd
       0.03570452 0.01944013 0.018940963 -0.06961519
0001b0 e4 55 eb 3c 14 79 89 bd c9 61 65 bd c0 6b f8 3c
       0.02872748 -0.06712547 -0.05600146 0.030324817
0001c0 ad 68 20 bd fa f9 5e 3d 50 e3 09 bd d8 f3 35 bd
       -0.039162327 0.054437615 -0.033664048 -0.044422
0001d0 5b 4c 59 bd 0c f9 5b bd 52 d9 92 3d 25 81 f1 3c
       -0.053051334 -0.053704306 0.07170357 0.029480526
0001e0 7b 7b 84 bd 30 4e a7 3d 36 4e 4d bd 2d bf c0 3b
       -0.064688645 0.0816921 -0.050123416 0.005882165
0001f0 34 fa 75 3d 68 08 89 bd 8e d9 28 bd bf 93 43 bd
       0.060053065 -0.066910565 -0.0412231 -0.047748324
000200 08 98 65 bc bc 4e 9e 3c f8 8d f8 bc c8 40 85 bd
       -0.014013298 0.019324653 -0.030341133 -0.06506497
000210 a0 69 60 bb ad a9 88 bd f8 1c 07 3c e9 90 70 bd
       -0.0034242645 -0.06672988 0.008246653 -0.058731947
000220 30 a2 29 bd 0e cb fc bc e0 c1 8a 3b 20 ff 57 3b
       -0.04141444 -0.030858543 0.0042345375 0.0032958463
000230 6c 51 87 bc b6 74 96 bd 90 4e 62 bc 30 ae 11 bd
       -0.016518317 -0.073464796 -0.013812676 -0.03556651
000240 fc 92 94 3c 0e b8 6e bd c0 e5 f1 3a d3 2e 65 bd
       0.018136494 -0.058280997 0.0018455312 -0.05595286
000250 08 67 1e 3c 60 21 1d bb 5c 89 4c bd 18 a6 dd 3c
       0.009668119 -0.0023976192 -0.049935684 0.027056739
000260 c3 33 a3 bc a6 70 43 3d 93 d0 3f 3c 13 c5 80 3d
       -0.019922143 0.04771485 0.011707443 0.06287589
000270 af c9 8e 3d b8 70 28 3d 42 f8 93 3c db 12 a6 bd
       0.06972062 0.041123122 0.018062714 -0.08109065
000280 f8 d4 83 3d 93 6d 63 bc e4 0d 50 3d cb 16 1b 3d
       0.06437105 -0.013881105 0.050794497 0.037863534
000290 6f e3 90 bc 4e 34 0b bd 2c bb b5 3d 74 f7 e9 bb
       -0.017686574 -0.03398543 0.08873591 -0.0071400944
0002a0 ce 7e 0d 39 22 65 15 bd e2 fb 75 3d 63 03 93 3d
       0.00013494046 -0.0364734 0.060054667 0.0717838
0002b0 ae 7e 5c bd b4 2f 10 bd 0b fe 98 3d 1b 2e 15 3c
       -0.05383175 -0.035201743 0.0747033 0.009105231
0002c0 b6 ed 93 bd 1b 4e 36 3d 85 91 39 bd 07 55 26 3d
       -0.07223074 0.04450808 -0.045304794 0.040608432
0002d0 ad be 59 bb 10 84 8e bc 3a 55 fb 3c fc 6d 90 bd
       -0.0033225224 -0.017396957 0.030680288 -0.07052228
0002e0 84 52 8f 3b 07 2b 0f bd e2 fe 8b 3c 01 01 ef bc
       0.0043738503 -0.034953143 0.017089311 -0.029175283
0002f0 11 f3 04 3a 10 f8 f5 bb 52 67 6d bd 3b c0 9a 3c
       0.000507162 -0.007506378 -0.057959862 0.01889049
000300 e7 e8 7b bd 4a c7 88 bc cb 6e d0 bb b2 42 c3 bc
       -0.06150141 -0.01669659 -0.006360864 -0.023835514
000310 66 cb b9 3c 10 d0 40 bd 14 11 3e bd 61 ad 9f 3c
       0.022679996 -0.047073424 -0.046403006 0.019491853
000320 e3 75 7e 3d 83 10 7e 3d 98 b0 56 bc 2a b3 06 3d
       0.062124144 0.062027466 -0.013103627 0.032885708
000330 03 c8 ae bd e5 a8 e2 ba d6 b6 81 bd 43 d7 67 3d
       -0.08534243 -0.0017292766 -0.06333701 0.056601774
000340 e1 87 57 3b df 68 32 3c d9 ba 57 bd 87 f8 8b bd
       0.0032887387 0.010889261 -0.052668426 -0.06834512
000350 87 82 f7 bc ab 92 d7 3c 48 97 68 3d 81 a2 a1 bd
       -0.030213607 0.026315054 0.056784898 -0.07892323
000360 a8 71 0b 3d 12 63 85 bd 76 1f 88 bd c6 5f 6d bd
       0.034043938 -0.06513037 -0.06646626 -0.057952665
000370 28 86 e4 bc c2 e9 95 3d c7 e9 a5 bd 7f f5 c0 3b
       -0.027896002 0.073199764 -0.0810123 0.0058886404
000380 07 ab 8b 3c 40 ea 9c 3c 90 22 61 bd c5 79 78 3d
       0.017049326 0.019154668 -0.054964602 0.060663003
000390 f4 7f 02 bd b0 37 ea bc 11 55 b3 3d 1a d3 39 bd
       -0.031860307 -0.028591007 0.087564595 -0.045367338
0003a0 20 72 94 bc dc c7 b7 3c 07 a3 a6 3c 0c dc 66 3d
       -0.018120825 0.022434168 0.02034141 0.056362197
0003b0 ed 61 4d bc 2e 31 59 bd 40 14 47 bd ad 35 2f bd
       -0.012535554 -0.053025417 -0.048603296 -0.0427758
0003c0 04 f2 28 bd bb 40 74 3c eb 63 d9 3b 8d 05 24 bd
       -0.04124643 0.014908011 0.0066342256 -0.040044356
0003d0 b0 53 b4 bc ac 32 b0 3d 19 6f 85 3d bd 62 9c 3d
       -0.022012562 0.08603415 0.06515331 0.0763602
0003e0 bd 94 ad 3c 09 eb 82 3d 6e 20 9e ba 06 23 66 bc
       0.021189088 0.06392486 -0.0012064108 -0.014046436
0003f0 f0 97 a4 bd b4 89 98 3c d8 4f 19 bd d6 f8 07 3d
       -0.08036792 0.01862035 -0.03742966 0.033196293

conv2.bias f4 [16]
000000 08 9b 9b bb 39 42 62 3d f1 fa 60 bb 49 23 4e 3d
       -0.004748706 0.055238936 -0.003432926 0.05032662
000010 b8 dd 6c 3d 5b 75 70 bd b2 b8 40 3c 14 ba 66 bd
       0.057828635 -0.05870567 0.011762785 -0.0563298
000020 15 09 6a 3d a8 57 3b 3d 02 a6 7e bd d1 37 ec bc
       0.057137568 0.045737892 -0.062170036 -0.02883521
000030 c5 ff 1f 3d a9 ab 6b bd 56 e9 8b 3d cb ce 36 3c
       0.03906228 -0.057536755 0.06831615 0.011157702

fc1.weight f4 [120, 256]
000000 50 9d 4a 3c ea 18 76 3d a0 eb 0d 3d 7a b1 67 bd
       0.012366608 0.060082354 0.034648538 -0.05656574
000010 26 30 30 3d c0 7f c8 3b c6 7c 4f bd 0e 87 6c bd
       0.043014668 0.0061187446 -0.050656103 -0.057745986
000020 00 54 89 3b 1c 21 3a 3c 30 af 43 3c 48 24 3f 3c
       0.004190922 0.011360433 0.011943623 0.011666365
000030 c8 f7 3b bc ce 68 5b 3d 04 e4 fe 3c 87 c5 4a bd
       -0.01147265 0.053566746 0.031114586 -0.049504783
000040 f0 a0 f6 bb c8 21 4d 3c 16 78 0f 3d 0e c1 57 bd
       -0.0075265095 0.012520261 0.035026632 -0.052674346
000050 1c 72 03 3d 65 29 54 3d 1c fa 2a 3c 63 dc 5a 3c
       0.032091245 0.05179729 0.010435607 0.013358208
000060 b7 a9 4e bc ca be 0e 3d fe 29 5e 3d 50 f8 d9 bb
       -0.012613705 0.03484992 0.054239266 -0.0066519156
000070 06 83 3f bd 9e 06 35 3d 18 73 13 3d cc 6e 29 bd
       -0.046755813 0.044195764 0.035998434 -0.04136543
000080 31 17 94 3b d8 c6 72 3d 32 b9 5f 3d 77 8e 50 bd
       0.004519366 0.059271663 0.054619975 -0.050917115
000090 15 50 f3 bc c7 84 81 bd 8c 0f 7d 3d eb dd 0d bd
       -0.029701272 -0.063241534 0.061782405 -0.034635466
0000a0 82 96 35 bd 5a 29 d7 bc eb 8c 07 bc d3 cd f3 bc
       -0.04433299 -0.026264835 -0.008273344 -0.02976123
0000b0 34 64 20 3b a8 8d 3c 3d 90 80 9d bb 31 36 48 3d
       0.0024473788 0.04603353 -0.0048065856 0.048879806
0000c0 33 ce 38 bd 90 75 d8 3b 59 ec 41 3d 22 29 f6 bb
       -0.045118522 0.0066058114 0.04734454 -0.0075122276
0000d0 be 8f c2 3c d8 46 b0 bc 36 fd 59 3d 28 89 1f 3d
       0.023750182 -0.021518156 0.053219996 0.03894916
0000e0 1e f9 75 bd d2 11 73 3d ef b3 49 3c 84 fa 55 3c
       -0.06005203 0.059343167 0.012310966 0.013060216
0000f0 0e 25 4f bd 5c d0 f5 bc 00 55 e6 3a 7c 34 a2 bc
       -0.050572447 -0.03000658 0.0017572939 -0.019800417
000100 7c 00 7b 3d 40 0a c4 bc fc 49 4a bb c8 e5 f2 3c
       0.06127976 -0.023930669 -0.0030866852 0.029650584
000110 6e 59 4e bd d4 45 94 3a 2e 0e 51 bd 98 77 dd bc
       -0.050378256 0.0011312314 -0.051038913 -0.027034566
000120 92 10 1c 3d 20 aa 0b bb e0 a2 7e 3b 10 6b ea 3c
       0.03810174 -0.002131112 0.0038854405 0.028615505
000130 ec 2b df bc 66 77 11 bd 00 d6 28 3a 92 35 58 3d
       -0.027242623 -0.035514258 0.000644058 0.052785464
000140 3a 17 2d 3d e0 51 e6 3b 2a bb c5 3c 80 08 69 3c
       0.04225848 0.007028803 0.024137098 0.014223218
000150 3c 85 af bc 52 6f 3f bd 92 b8 ad bc 0b 88 1f bd
       -0.021425836 -0.046737023 -0.021206174 -0.0389481
000160 15 44 09 bc 5e 86 2c 3b b4 5c 0b 3d c0 25 67 3b
       -0.008378048 0.0026325206 0.034023955 0.0035270303
000170 c0 2b 52 bb 3c f9 d0 bc bd e2 3d bc 34 34 d3 3c
       -0.0032069534 -0.02550947 -0.011589703 0.025781728
000180 12 32 ce bb 24 ac 70 3c 4f 97 75 bc be 20 f2 3c
       -0.00629259 0.014689479 -0.014989688 0.029556628
000190 f9 d9 56 3d 0b 61 4d 3b 0b 67 33 bd bc 9c 22 3d
       0.05245397 0.003133836 -0.04379944 0.039700255
0001a0 33 22 c7 3c 2f 0e 1f bd 57 63 7a bd 7d fa 82 3c
       0.0243083 -0.038831886 -0.061129894 0.015988583
0001b0 5b fb 24 3c d5 07 47 bd fb 46 1c bd ac de 1d bd
       0.010069693 -0.048591454 -0.03815363 -0.038542435
0001c0 47 06 07 3d a1 54 95 bc 34 cd 66 bd 1d b4 67 3c
       0.03296497 -0.01822883 -0.05634804 0.014142063
0001d0 fb 8f e8 3c 00 0a cb bc 97 b2 c5 3c ba 1d 23 37
       0.028388968 -0.024785042 0.02413301 9.722478e-06
0001e0 0b 21 37 bd c2 54 17 3d 62 c9 3f 3d df fe c1 bb
       -0.044709247 0.036946066 0.046822913 -0.0059202756
0001f0 09 db 6c 3d 30 de 26 3c 7b 3d 74 bd 3c f2 4f bd
       0.057826076 0.01018481 -0.059628945 -0.050768122
000200 b4 d8 51 3d 5e 45 6d 3c 60 d2 4e 3d 7c 6a 24 3d
       0.051232055 0.01448187 0.050493598 0.040140614
000210 34 85 4c 3d b1 ab d7 bc c4 46 34 3d 39 9f 64 bc
       0.04993172 -0.026326986 0.0440128 -0.013953977
000220 4f 5d ff 3c 57 96 00 bd bf d2 54 3d 60 d8 ae bb
       0.031172423 -0.031393375 0.051958796 -0.0053358525
000230 d8 21 7e bb 03 e4 cf 3c 61 d7 f4 bb e0 a1 38 3b
       -0.0038777497 0.02537728 -0.007471964 0.0028172657
000240 96 b4 db 3c e6 e6 4f bd 3c 91 10 bd 51 c3 78 bd
       0.026819509 -0.05075731 -0.035294756 -0.060733143
000250 1d b7 46 3d 28 ae 2d bd 5b 4c 70 bc 9d 2e 2b 3d
       0.048514474 -0.042402416 -0.014666642 0.0417925
000260 15 a5 86 bd bd 69 5c ba ad 89 d6 3c bd d7 56 bd
       -0.06574456 -0.000840809 0.026188696 -0.052451838
000270 1d f5 17 bd 8e d2 e8 3c 17 80 3a 3d 0d af 37 bd
       -0.037098993 0.028420713 0.045532312 -0.044844676
000280 68 ab a9 bc c0 df b4 ba c0 eb 9a bb 34 c7 6e 3d
       -0.020711616 -0.0013799593 -0.0047278106 0.058295444
000290 08 cc 07 3d be 68 20 3d c0 29 f0 ba 10 fd b4 3b
       0.033153564 0.03916239 -0.0018322989 0.0055233315
0002a0 40 10 e6 bb a0 af 67 3c 4c 5a cc bc 2c 06 f2 bc
       -0.00702098 0.014140993 -0.0249454 -0.029543959
0002b0 2e fe 5b 3d 9c dd a4 bc 66 9e 58 3d 60 fb 7c bb
       0.0537092 -0.020125203 0.052885436 -0.003860198
0002c0 9a dc 0d 3d a0 7d 5d bc be fd 5d 3d 58 06 61 3d
       0.03463421 -0.013518721 0.054197066 0.05493769
0002d0 08 ca db 3c 5c 6c 32 bd e2 2d 1c 3d e0 bc fb 3b
       0.026829734 -0.04356037 0.038129695 0.0076824278
0002e0 be 9d 58 3d 48 bb ca 3c 98 6a 73 3d 80 78 7d bc
       0.05288481 0.024747506 0.059427828 -0.015470624
0002f0 4a af 7a 3d 16 e5 78 bd 48 e2 45 3d 22 1b 01 3d
       0.061202325 -0.06076535 0.0483115 0.031520016
000300 d0 2d 9b bc e4 8e 3d 3c 9b bd 69 3d 44 c1 ab bc
       -0.018942744 0.011569712 0.057065587 -0.02096618
000310 4c 36 7f bd 5f 3d 45 3d 42 b2 d8 bc a2 b3 a1 bc
       -0.06230764 0.04815423 -0.026452187 -0.019738976
000320 bd 0b 3d bd d8 af 5d 3a b5 3b 81 bc 27 f7 5a bd
       -0.046153773 0.0008456684 -0.01577554 -0.05345836
000330 e7 89 3e bd 07 9d 1d bd 75 56 82 3c 61 d3 8f bc
       -0.046518233 -0.03847983 0.015910367 -0.017556848
000340 1c be 35 3c 10 e8 ad bc cc b1 41 3d 9d 9a 24 bd
       0.011092689 -0.02122882 0.0472887 -0.040186513
000350 3c f1 0a bd ec e0 17 bd 82 b1 17 bd f9 91 21 3d
       -0.033921465 -0.037079737 -0.03703452 0.03944585
000360 f1 21 be 3c 73 74 3b 3d 21 fd 55 3d 28 5b b2 ba
       0.023209544 0.04576535 0.052243356 -0.0013607489
000370 b1 17 4d bd b7 ae 88 bd de 6c 22 bd 59 7a 57 3d
       -0.050071422 -0.06673949 -0.039654605 0.052606914
000380 f6 e9 24 bd fc 4d 2e bd 65 0d 05 bd 12 f0 2f 3d
       -0.040262185 -0.04255484 -0.032483477 0.04295356
000390 ac 1e 71 3c 33 e7 80 bc e3 2b 81 bd d6 7b 8c 3c
       0.014716785 -0.015735244 -0.06307199 0.017148893
0003a0 0c f4 3d 3d 38 3c 0e 3d c5 f4 84 bd d2 32 3c bc
       0.04637532 0.034725398 -0.064919986 -0.011486726
0003b0 26 13 51 bd d4 ae 81 bd 2c 00 8a 3a d2 01 26 3d
       -0.051043652 -0.06332174 0.0010528616 0.04052908
0003c0 2d 43 19 bd 3d c4 4e 3d 82 e0 43 bd 92 48 d7 bc
       -0.03741758 0.050480116 -0.04782153 -0.026279721
0003d0 b6 a6 3b 3d 41 f6 ca 3b 2e 89 92 ba 1d ac 4f 3d
       0.045813285 0.0061939065 -0.0011179799 0.05070125
0003e0 c6 b8 2a bd b7 45 5e bd 9b 50 60 bd da 17 5b bd
       -0.04168012 -0.054265704 -0.05476437 -0.053489543
0003f0 9e 70 76 bd 05 27 5a bc 84 03 fa 3c d9 41 eb bc
       -0.060165994 -0.013314967 0.030519255 -0.028717922

fc1.bias f4 [120]
000000 26 ff 59 3d 5d 54 93 3c ba 0e 36 bd 0a 35 38 bd
       0.053221844 0.017984563 -0.044447638 -0.044972457
000010 2f 00 08 3c 5b ce 3b bd c0 95 30 3d a8 9c e8 bc
       0.008300825 -0.045851093 0.043111563 -0.028395012
000020 7d 83 3d 3d 94 89 7b 3d f5 e3 22 bd 74 2b e6 3c
       0.046267975 0.0614105 -0.039768178 0.028096892
000030 fc 9c 81 3c 69 16 7e bb 7c 63 36 bc 52 aa 32 bd
       0.015821926 -0.0038770682 -0.011132117 -0.04361946
000040 20 57 b4 bc 9e 73 ed 3c c4 3e 5f 3d 71 87 85 bc
       -0.0220142 0.028985795 0.054503217 -0.016299935
000050 64 b4 04 3d 7e 53 38 3d 04 b9 cc bc 35 b4 d1 bb
       0.032398596 0.0450015 -0.024990566 -0.006399656
000060 60 d4 a6 bb 94 4a 26 3a 0c 10 5e bd b8 da 5d bd
       -0.005091235 0.00063435105 -0.054214522 -0.054163665
000070 e4 92 e9 bc db b2 a8 bb 61 cf c4 bb d5 64 05 3d
       -0.028512426 -0.0051482744 -0.006006167 0.032566864
000080 3f 3b 73 bd 50 1e b7 3b 1a 91 d8 3c 69 18 0f 3d
       -0.059382673 0.0055883303 0.026436377 0.03493539
000090 b0 40 52 3d c4 5a ce 3c 1f 47 0a 3d b0 5e 50 bd
       0.051331222 0.025189765 0.033759233 -0.05087155
0000a0 b7 90 f8 bb 36 c9 65 3c f0 ca d4 bb 66 8a 1b bd
       -0.0075856107 0.014025023 -0.0064939186 -0.037973784
0000b0 9c ec 81 bc 51 58 32 3d d6 76 2e bc 67 f4 36 bc
       -0.015859894 0.043541256 -0.01064845 -0.0111666685
0000c0 6a 74 24 3c 85 c2 59 bc de c3 a6 3c ce 4a 28 3d
       0.010037521 -0.013291006 0.020357069 0.041086964
0000d0 1d 3d 3c 3d da 1a df 3b 56 c7 05 3c 7e 87 31 bd
       0.04595672 0.006808621 0.008165201 -0.043342106
0000e0 2d c3 fa bc 1a 07 62 bd b0 84 62 3d 2b 0c a0 3c
       -0.030610645 -0.055182554 0.055302322 0.019537052
0000f0 fe a9 37 bc 00 00 d8 ba 8c 75 69 3b 9d a1 b4 b9
       -0.011209963 -0.0016479492 0.0035623042 -0.00034452687
000100 9c 4f 5a bd ad 52 56 bd bd 9a 0e 3d bf 65 0c bd
       -0.053298578 -0.05232494 0.03481554 -0.03427672
000110 e0 4b 21 bd a3 20 c7 bb 1e 5d 45 3d cd 35 32 3d
       -0.039379 -0.0060768886 0.048184507 0.04350834
000120 4b f8 38 3d 94 76 d4 bc 47 26 83 bc ee 55 50 bd
       0.045158666 -0.025935449 -0.016009463 -0.0508632
000130 86 ba 89 3c f6 09 8a bb bd da 4b 3d 32 a0 74 bd
       0.016812574 -0.004212613 0.049769152 -0.059723087
000140 ab 2a 64 3d a5 23 d0 3c 12 2f c0 bb 51 91 87 bc
       0.055704754 0.025407622 -0.005864986 -0.016548784
000150 f8 b2 02 3d a0 56 bc bc 62 84 75 3d da 60 02 bc
       0.03190896 -0.022990525 0.059940703 -0.0079576615
000160 d6 7b 7d bd c8 95 c8 bc 78 95 f2 bc 50 a6 3b 3c
       -0.061885677 -0.024485484 -0.029612288 0.011453226
000170 f2 01 15 3d e9 d0 ee 3c 30 6d 59 3d 1e 35 54 bd
       0.03637881 0.02915235 0.053082645 -0.05180847
000180 e4 94 85 3c 00 63 a2 3a 75 66 3d 3d 09 04 35 3d
       0.016306348 0.0012389123 0.04624029 0.0441933
000190 02 e7 81 bd 5f d6 69 3d e6 48 a2 3c 2d bf ae 3c
       -0.06342889 0.057089206 0.019810151 0.021331394
0001a0 58 ba 3d 3d 9c c7 27 3d 04 fe 4c 3d 59 d6 3d 3d
       0.04632029 0.040961847 0.050046936 0.046346996
0001b0 ce ed 04 bd 88 69 83 bd 54 40 48 3d d0 77 43 3d
       -0.03245335 -0.06416613 0.048889473 0.047721684
0001c0 27 e9 15 bd d4 02 2d bc 32 6a c9 bb 7c e6 1c 3d
       -0.036599305 -0.010559756 -0.0061466927 0.038305745
0001d0 09 e0 16 bd c8 66 7e bb d6 2a f6 bc 3d 6b 09 bc
       -0.03683475 -0.0038818587 -0.030049723 -0.008387384

fc2.weight f4 [84, 120]
000000 5c 11 36 3d 34 44 73 3d ba 20 99 3d cc 07 d3 3c
       0.04445015 0.059391215 0.07476945 0.025760554
000010 6e 12 aa bd 26 64 86 bd 74 22 a8 3c de 55 8b 3d
       -0.083042964 -0.065620705 0.020524241 0.06803487
000020 be 16 a2 3d 74 6e 96 bd f0 06 bc bb 06 ba 00 3d
       0.07914494 -0.07345286 -0.0057381317 0.031427406
000030 28 4c 09 bd d5 d1 36 bd 9c f6 a1 bd 4d 2e 1a bd
       -0.033519894 -0.044633705 -0.07908365 -0.037641812
000040 98 ea 84 bc 10 dc 6e 3c c4 47 d0 3c 55 89 a5 bd
       -0.016225144 0.014578834 0.025424846 -0.08082835
000050 04 3d ba bd 7f 97 90 bd c2 98 42 bd 08 4a 4b bc
       -0.09093669 -0.070601456 -0.047508962 -0.012407787
000060 f3 16 a6 bd b4 c1 19 bd 68 69 5c 3c a8 d3 6e bd
       -0.08109846 -0.037538245 0.013452865 -0.05830732
000070 10 06 0d 3d fa 8d 8b 3d 06 d6 b2 3d 8c 5e 80 bc
       0.03442961 0.06814189 0.08732228 -0.015670083
000080 20 52 88 bb b0 d2 69 3d b0 9f 19 3d 98 82 6a 3d
       -0.0041601807 0.057085693 0.037505805 0.05725345
000090 dc a2 45 3d 20 5e 57 3b c4 d0 10 3d 7e 52 26 bd
       0.048251018 0.00328625 0.035355344 -0.040606014
0000a0 a0 c6 21 3b 3b b5 a8 bd e0 28 0e bb b7 10 5a bd
       0.002468504 -0.08237692 -0.0021691844 -0.053238597
0000b0 20 be 59 3d ff 12 05 bd 90 da fa bb 40 d0 04 bc
       0.053159833 -0.03248882 -0.007655449 -0.008106291
0000c0 9c d3 70 3d 9d 00 6b bd 38 3f 9b 3d 90 7f 66 3d
       0.058795556 -0.05737363 0.075804174 0.056273997
0000d0 68 ce 38 3c 86 ae fb bc d8 0e a5 3d 67 15 a4 bd
       0.01127968 -0.030722868 0.08059472 -0.08011895
0000e0 00 26 2c 3b e5 19 b0 bd 96 ad b2 3d 30 f3 fb bc
       0.0026267767 -0.08598689 0.08724515 -0.03075561
0000f0 20 ad 23 3d f0 e6 24 3c fa cb f6 bc 8e 6c 9f 3d
       0.039960027 0.010064825 -0.03012656 0.07784377
000100 f8 79 aa 3d f4 8c 9b bc 8b 0b 8f bd ec 72 93 3d
       0.08324045 -0.01898811 -0.069846235 0.07199654
000110 90 58 64 3c 58 62 90 3c d0 6c 82 bd dc c3 9d 3d
       0.013937131 0.017625019 -0.063684106 0.07703373
000120 00 b7 c9 3b cc 9a 4b 3d e0 9a 76 bc d8 d1 54 3d
       0.0061558485 0.049708173 -0.0150515735 0.051957935
000130 cb 43 14 bd 06 02 7f bd 54 02 68 3d 90 80 d0 3c
       -0.036197465 -0.06225779 0.056642845 0.025451928
000140 d4 26 90 bc cc a0 8a bd 9b 5f 4a bd 4a ed b2 3d
       -0.01759664 -0.06768951 -0.049407583 0.087366655
000150 92 75 12 bd 80 55 98 3d bc 92 9e bc e6 6f 3f bd
       -0.035756655 0.07438183 -0.019357078 -0.046737574
000160 46 a1 97 bd d0 38 5a 3d 1c 97 40 bd e4 a5 44 3d
       -0.07403807 0.053276837 -0.04701911 0.048009768
000170 9a 30 9a 3d 50 fa ba bc 98 a8 b5 bd 78 cc b0 3d
       0.07528801 -0.022824436 -0.08870047 0.08632749
000180 c0 f0 a2 3c ac 09 87 3d db 03 22 bd 78 20 94 3c
       0.01989019 0.06593642 -0.039554458 0.018081889
000190 80 ad d3 bc 4c a0 33 bd 70 e1 5d bc 04 e3 87 bc
       -0.025839567 -0.043854043 -0.013542518 -0.016587742
0001a0 de 05 4d bd 78 58 93 3d 30 ec 6f bc 70 ba dc bb
       -0.050054424 0.071946084 -0.014643714 -0.0067360923
0001b0 12 e5 99 3d ef 29 65 bd e4 7e 11 bd 5e d9 82 3d
       0.07514395 -0.055948194 -0.035521403 0.06389116
0001c0 cc 68 9b bd 10 90 b4 3b c2 de 2b bd 48 a2 5f bc
       -0.07588348 0.0055103377 -0.041960485 -0.013649531
0001d0 e1 d9 2d bd 40 2f df 3b 54 fd a1 bd 0a 31 a6 3d
       -0.042444114 0.0068110526 -0.07909647 0.08114822
0001e0 d0 38 46 3d 50 e9 82 3b 76 d8 a5 bd eb 0d 08 bd
       0.048394024 0.003995098 -0.08097927 -0.0332164
0001f0 c8 e4 4c bc 0c a4 35 3d 81 b4 96 bd 5e e8 f9 bc
       -0.012505718 0.0443459 -0.07358647 -0.03050631
000200 1b 41 3d bd 68 4b a5 3c 50 31 b8 bc b4 28 8f bc
       -0.046204668 0.020177558 -0.022484452 -0.017475463
000210 eb 73 8b bd a0 ab 04 3c 1e 23 4b bd 1a 17 3d bd
       -0.06809219 0.008097559 -0.049594037 -0.04616461
000220 60 df 9a bc c4 c4 e8 3c b6 5b 8a bd 4c c8 9e 3d
       -0.018905342 0.028414138 -0.06755774 0.07753047
000230 c8 c7 ce 3c 88 03 8b bd e4 46 62 3d c6 29 ae 3d
       0.025241747 -0.06787783 0.055243388 0.085040614
000240 12 04 a7 3d 78 51 25 3c af de 73 bd 08 e8 b7 3d
       0.08155073 0.010090224 -0.05953854 0.08979803
000250 b0 ca 8c 3d 70 a9 cd bc e8 c7 aa 3d 6c 34 28 3d
       0.06874597 -0.025105208 0.0833891 0.04106562
000260 10 90 eb bc 60 16 76 3b 00 d8 67 3a fc e3 57 3d
       -0.028755218 0.0037549958 0.0008844137 0.052707657
000270 52 7d b9 3d 00 11 46 3a 50 a5 d8 3b af ba 5b bd
       0.09057106 0.0007555634 0.0066115037 -0.053644832
000280 cf 2c a3 bd 04 3d 9e 3d 04 c7 15 3d 90 dd 96 3d
       -0.07967531 0.077264816 0.03656675 0.073664784
000290 e8 dc 65 bc ac 06 aa 3d fb c4 75 bd b4 93 8a bd
       -0.014029719 0.08302054 -0.06000231 -0.067664534
0002a0 b0 00 b6 bc 7c ee a2 3c 40 ba 4d 3c f1 d2 a7 bd
       -0.022217125 0.019889109 0.0125566125 -0.08194531
0002b0 70 ca 14 bc f2 1f 9c 3d 0c 73 28 3d b7 9d 4e bd
       -0.009081468 0.076232806 0.041125342 -0.050443377
0002c0 27 2b 83 bd e0 ee 0b 3d 93 ad 1c bd f5 35 67 bd
       -0.06404715 0.034163356 -0.03825147 -0.05644794
0002d0 f0 d2 f1 3c d8 a3 5f 3c 08 75 41 3d 64 99 a1 3d
       0.029519528 0.013649903 0.04723075 0.07890585
0002e0 17 4d b9 bd f3 50 8f bd 6e 72 87 bd c0 bc 1d 3d
       -0.09047907 -0.06997862 -0.066136226 0.038510084
0002f0 8a ec 03 bd 40 b5 98 3d 5c 11 6a 3d de fa 86 bd
       -0.032208003 0.07456446 0.05714546 -0.06590818
000300 50 1a b9 bb 62 16 87 3d 4f 0c 68 bd 2d 8a a1 bd
       -0.0056488886 0.06596066 -0.056652363 -0.07887683
000310 1a d8 a9 3d d6 b9 96 3d d6 7a 87 3d 5a 67 8d 3d
       0.08293171 0.07359664 0.06615226 0.06904478
000320 40 1f ca bb dd d1 2e bd 6f 67 9d bd 4e 90 71 bd
       -0.006168276 -0.04268061 -0.07685744 -0.05897551
000330 c8 be e9 bc 5c 17 d3 3c b0 bd 29 3d 08 d2 3e 3d
       -0.028533354 0.025767975 0.041440666 0.04658702
000340 74 7b a9 bc e0 de 22 3c e4 b0 e8 bc a4 f3 0b bd
       -0.02068875 0.009940833 -0.02840466 -0.0341679
000350 58 ff 12 3d 7e cd 8a bd ae ad ac 3d d8 d6 80 3c
       0.035888046 -0.06777476 0.08431564 0.015727445
000360 06 b7 a0 3d ac 95 01 3d 02 fe 7a bd 90 0a 25 bd
       0.07847409 0.03163688 -0.061277397 -0.040293276
000370 28 0b 2c 3d 38 af 7e 3d 40 7b 53 bb 30 b9 29 3d
       0.042002827 0.06217882 -0.0032269508 0.041436374
000380 90 8d 23 3d b3 57 6b bd 39 ae 69 bd 84 eb 87 3d
       0.039929926 -0.057456683 -0.057050917 0.06636718
000390 74 0b 75 3d 7c 75 84 bd e6 f9 03 bd 28 c2 44 3d
       0.059825376 -0.06467721 -0.032220744 0.048036724
0003a0 f0 18 a4 bd 98 39 79 bc a1 06 5e bd e2 e6 67 bd
       -0.08012569 -0.015211485 -0.05420554 -0.05661667
0003b0 e8 43 88 3c 93 9c a9 bd 96 f5 8b bd 09 0d 12 bd
       0.016633943 -0.08281817 -0.06833951 -0.035656963
0003c0 ea 24 87 3c b1 64 8c bd cf 95 83 bd c0 43 84 bc
       0.016497094 -0.06855143 -0.06425058 -0.016145587
0003d0 a0 f0 0c 3b 43 11 20 3c 66 89 51 bc c2 b0 ac 3d
       0.0021505728 0.0097697405 -0.012789106 0.084321514
0003e0 70 d2 84 bd ef ee 36 3d 95 b9 bf bd cf 30 64 3d
       -0.0648545 0.04466146 -0.09361569 0.05571061
0003f0 38 3e a2 bd 57 6e 89 3d f7 5e 23 bc ec de 50 bc
       -0.079220235 0.06710499 -0.009971372 -0.012748461

fc2.bias f4 [84]
000000 7c 2e 6f bd 40 e3 04 bb 8f 55 45 bd 17 bd b6 bd
       -0.05839394 -0.0020277053 -0.0481773 -0.08922785
000010 5d 46 51 bd 19 c0 b3 bc 38 99 88 3d 1c 4c 85 3c
       -0.051092494 -0.021942185 0.06669849 0.016271643
000020 6e 89 81 bc 71 0c 8c 3d 5b 04 8d 3d 65 f5 0b 3d
       -0.015812602 0.068383105 0.06885596 0.034169573
000030 64 f8 13 3c 00 ce 2c b9 83 55 3b 3c 40 6b 65 bb
       0.009031389 -0.00016479939 0.011433962 -0.0035006553
000040 8a 10 32 bd 2b 91 20 bd 68 a1 a7 bc 00 00 f7 bb
       -0.043472804 -0.039200943 -0.020462707 -0.007537842
000050 c1 c0 57 bd ed 29 07 bd 9a 2e 56 bb 80 b5 41 ba
       -0.05267406 -0.032998968 -0.0032681585 -0.00073894113
000060 bf fa 8b bc 8c 9d d6 3c 4f 7f 39 bd c4 e4 a0 3d
       -0.017087338 0.026198171 -0.045287427 0.078561336
000070 45 ac 8a 3c 8a 95 27 3d fd d5 48 3d 65 1a 31 ba
       0.016927848 0.040914096 0.0490322 -0.0006755947
000080 3a 06 2e 3d e8 f4 24 bc 5a f9 86 3d 9b c4 cd 3c
       0.042486407 -0.010068156 0.06590529 0.025118163
000090 37 95 4e bd f6 bd 97 bc 7b fc 34 3b a7 e5 0b 3d
       -0.05043527 -0.018523198 0.002761631 0.03415456
0000a0 0a 71 f5 bc 2d 6d 9c bc 3c 97 56 bd 99 10 35 3d
       -0.029961128 -0.019095028 -0.052390322 0.044205282
0000b0 a1 6d 12 bd 00 cb 53 3b 19 d3 6d 3d 5f 06 20 bd
       -0.03574908 0.0032317042 0.058062647 -0.039068576
0000c0 20 47 ec bc bc 9a 47 3d 75 0d 9a 3c d2 eb cb bc
       -0.028842509 0.04873155 0.018805245 -0.024892721
0000d0 14 b9 05 3d a3 b5 aa bd ff 90 a3 3c b2 81 90 bd
       0.032647207 -0.08335426 0.0199666 -0.070559874
0000e0 49 a1 ad 3c f5 af 60 bc a6 0e a5 bd 5e 39 1b bd
       0.02119507 -0.013713826 -0.080594346 -0.037896506
0000f0 de 32 8b 3d 1c 42 a0 bc 33 20 3d 3d ea 3f b2 bd
       0.067968115 -0.019562773 0.046173286 -0.08703597
000100 49 9c d7 bc c7 3e 64 3d 18 44 66 3d 8a b2 98 3c
       -0.02631964 0.05572393 0.056217283 0.018639822
000110 79 05 1d bd ce 31 a4 3c a0 a6 47 bc 8c 85 13 3c
       -0.038335297 0.02004328 -0.012185723 0.009004008
000120 71 5f 6f 3d 2f 09 a0 3d 19 54 28 3d d9 06 03 bd
       0.05844063 0.07814252 0.041095827 -0.031988952
000130 7c 4d 2e bd 9c 07 fe bb b8 c0 49 bd 8d 17 92 ba
       -0.042554364 -0.007752372 -0.049256057 -0.0011145935
000140 49 f5 68 bd 01 e1 5a bc 5e 96 98 bd fc b0 95 3d
       -0.056874547 -0.013359309 -0.07450555 0.07309148

fc3.weight f4 [1, 84]
000000 89 30 bd bd 00 ae e2 bb 5f 6d 26 bb 0a 09 2b bd
       -0.09237773 -0.006917715 -0.002539478 -0.041756667
000010 ce f5 8c bd 1d 3d c0 bc b4 dd 61 bd 4e dc 87 3d
       -0.06882821 -0.023466641 -0.055143073 0.06633817
000020 49 ec e0 bd 49 7b 0e bc 6c 48 d9 bc 68 e3 25 bd
       -0.10982568 -0.008696386 -0.026523791 -0.040500075
000030 df 15 13 3c e0 8c b2 3b 66 d1 a2 3b 65 8a 8b 3d
       0.008977382 0.0054489225 0.00496881 0.06813506
000040 0c 43 4d bc 54 b1 94 3d db 42 d4 bd 80 6c 60 ba
       -0.012528192 0.07260385 -0.10364314 -0.00085610896
000050 00 80 3e 37 22 03 ab bd 3b 8a c0 bd 70 a1 f7 bc
       1.1354685e-05 -0.08350207 -0.09401365 -0.030228347
000060 83 3d e1 3b 8a 5b 61 3d 6c 06 e2 3d 73 d3 a5 bc
       0.006873788 0.05501894 0.11036381 -0.020242428
000070 ce 88 9b 3d a6 7b 91 bd 84 9f 4f 3c c0 46 a9 3d
       0.07594453 -0.07103662 0.012672309 0.082654476
000080 c4 87 dd bd c0 26 17 bd e5 ab ce bd 15 d3 cd bd
       -0.10816911 -0.03690219 -0.1009138 -0.10050026
000090 da cf 21 3d 53 a9 ab bd c7 24 a0 3d 73 47 af bd
       0.039504863 -0.083819054 0.07819515 -0.0855855
0000a0 80 d9 94 bd 07 4a 49 3d 33 20 bc 3d dd b4 16 3d
       -0.07268047 0.049142864 0.09185829 0.03679358
0000b0 c2 cf 0b 3d 49 f9 bc bd 5d 01 12 bd 25 17 a0 3d
       0.03413368 -0.09227235 -0.03564583 0.078169145
0000c0 b5 d1 c1 3d 55 57 80 3d c8 8b 0e bc f9 74 9a 3d
       0.094638266 0.06266657 -0.008700319 0.07541842
0000d0 51 03 64 bc b4 60 8d 3c 3c ff 7b bd 4c 73 23 bd
       -0.013916806 0.017258026 -0.061522707 -0.039904878
0000e0 74 4c 3d bd b0 2f 16 3d c3 13 45 bb f9 84 e6 3c
       -0.04621549 0.036666572 -0.0030071593 0.028139578
0000f0 1a be ba bd 0f d9 de bd 21 12 98 3c dc 4a ab bc
       -0.0911829 -0.108812444 0.018563332 -0.02090972
000100 1a 87 cb ba 3b b0 93 3d b5 4b b1 3d 24 de b0 bb
       -0.0015527934 0.07211348 0.08657018 -0.005397575
000110 95 e5 b1 3d 92 e8 cf bd e4 d6 98 bd 93 98 b5 bc
       0.086863674 -0.10151781 -0.07462862 -0.02216748
000120 6c 4e 48 bc 89 be b0 bd 26 24 74 3d f2 f9 0d 3d
       -0.0122257285 -0.08630092 0.059604786 0.034662195
000130 cd 95 b0 bd 01 09 b0 bc d3 f7 6f 3d 74 7e 65 bd
       -0.08622322 -0.021488668 0.058585953 -0.0560288
000140 13 01 88 3d 81 a0 1a 3d 4c e9 ce 3c 3e 05 61 bd
       0.0664083 0.037750725 0.025257729 -0.05493664
