Week7/checkpoint/checkpoint_epoch_9.pth (torch, 178450 bytes, 9 tensors)

conv1.weight f4 [6, 1, 5, 5]
000000 33 24 b9 3d 2b 47 09 3d 52 56 97 3d 4e 54 03 be
       0.090401076 0.033515137 0.07389511 -0.12825128
000010 0a fd 24 be da 21 56 3e 17 37 12 bc 0b 3a 56 be
       -0.16112152 0.20911351 -0.008924267 -0.20920579
000020 fa 92 38 bd cb f0 44 3d b2 7f 13 bd 18 df 1e be
       -0.045062043 0.0480812 -0.03601045 -0.15514791
000030 bd 09 ee 3d fc 8e 18 be 9b 58 e0 3a 86 a9 3e be
       0.11622951 -0.14898294 0.001711625 -0.18619356
000040 a1 3a 88 3d b1 89 25 be 48 78 b8 3d 5e dd 11 3e
       0.066518076 -0.16165806 0.09007317 0.14244601
000050 1b 60 61 3d a9 9b 16 3e 82 1c 1c be d8 9e 22 3e
       0.055023294 0.14707817 -0.1524525 0.15880907
000060 72 e7 28 3e da 71 43 bd c3 c4 cc 3d 5a be 66 3d
       0.1649454 -0.047716 0.09998467 0.056333877
000070 f0 d6 5a be 19 73 cf 3d 4a 18 0d bd d5 c3 76 3d
       -0.21371055 0.10129375 -0.034446992 0.060245354
000080 5e c2 18 be d0 07 0d 3e 09 90 d2 3d e0 4e e2 39
       -0.14917895 0.13772511 0.10281379 0.00043164846
000090 b4 03 cd bd be f5 bd bd 19 dd e5 3c e3 5a 4e bd
       -0.10010472 -0.09275387 0.02805953 -0.050379645
0000a0 41 fc 12 be 66 ef 67 bc 8e 55 3d 3e 95 5b 92 3d
       -0.1435404 -0.014156198 0.18489668 0.07146374
0000b0 32 66 25 be 2a 23 3c 3e e3 8c 0c 3d 28 09 08 3e
       -0.16152266 0.18372789 0.034314048 0.13284743
0000c0 32 42 fe bc 6f 47 b0 bd b6 2f 4d 3e e9 59 49 3d
       -0.031037424 -0.08607375 0.20037732 0.04915801
0000d0 3a 45 cc bb 70 95 97 bd 4b e5 0e be df 0f aa 3d
       -0.0062338384 -0.0740155 -0.13954656 0.083038084
0000e0 6e 10 9f bd b7 7a d6 bd b4 da f2 bd 21 de f5 bd
       -0.077668056 -0.10472625 -0.118581206 -0.12005258
0000f0 04 84 4d 3e 29 47 d7 bc 9d 71 30 bc 3d 99 eb bd
       0.20069891 -0.026279049 -0.010769275 -0.11503837
000100 8d c9 e6 3d 87 76 49 bd 6e 2f c8 3d 01 4f 15 3e
       0.112689115 -0.049185302 0.097746715 0.14580919
000110 6a ca b3 bc de e1 69 bd 60 6d dc 3d 35 9d 43 3e
       -0.021947104 -0.05710017 0.10763049 0.19102938
000120 bc 97 65 bd 42 8f 12 3e 90 d4 a7 bd 4b f8 1f bd
       -0.05605291 0.14312461 -0.0819484 -0.03905515
000130 ac dd 50 bd cf f1 59 3d 7a 09 c0 3d da 56 24 be
       -0.050992653 0.053209122 0.093768075 -0.16048756
000140 e6 6e 3a be a4 2d d5 3d ad 46 b6 bb de 4b 1e be
       -0.18206367 0.10409096 -0.0055626244 -0.15458629
000150 4c 6c 18 be 5a b7 22 be 5e d2 07 3e 71 f8 16 be
       -0.14885062 -0.15890256 0.13263842 -0.1474321
000160 e5 35 f5 3d 4b f8 a2 bd 50 fc 39 bd 4f 5e 5c 3e
       0.1197317 -0.079575144 -0.04540664 0.21520351
000170 ed 1a 35 bb e8 e4 2b 3e 1c 48 02 be 7d b7 f6 bd
       -0.0027634457 0.1678654 -0.1272282 -0.12046716
000180 06 9e 5b 3e 71 37 12 3d 8b 18 54 bd a1 30 20 3e
       0.21447 0.035697404 -0.05178122 0.1564355
000190 f9 9f 4f 3e 71 f0 0e 3e c4 74 0e be 42 1a b9 3d
       0.20275868 0.13958909 -0.1391173 0.090382114
0001a0 83 d7 28 be 66 09 33 3e 5d 11 a2 bd 28 11 10 be
       -0.16488461 0.17484054 -0.07913468 -0.14069045
0001b0 8b fa 18 3e ad af 15 3e 43 b6 cc bd b5 74 24 3e
       0.14939325 0.14617796 -0.09995701 0.16060145
0001c0 92 cd 32 be 41 7f fb bd 53 63 b9 bb 30 f1 24 3e
       -0.17461231 -0.12280131 -0.0056575923 0.1610763
0001d0 85 35 30 3e bf e6 8c bd 7c 3f 33 3e dd 1d 54 3d
       0.17207916 -0.06879949 0.17504686 0.051786292
0001e0 d2 96 84 3d 44 34 08 3e 2b 6c 4c 3d 61 1d 43 3e
       0.06474079 0.13301188 0.049907845 0.19054176
0001f0 7c 23 49 be 68 44 f9 bc 52 f9 13 be ed 0c a3 bd
       -0.19642442 -0.030428126 -0.14450577 -0.0796145
000200 60 83 a7 bb 07 4f 3a be 10 15 bf bd 00 3b e0 3c
       -0.0051120967 -0.18194209 -0.09330189 0.027371883
000210 63 96 fd bd c3 5b 4a 3e 77 59 b7 bd ea 43 09 be
       -0.123821996 0.19761567 -0.08952611 -0.13404813
000220 ba 74 98 3d 5a 1b ef bd 99 6b 0d 3e 26 b9 27 be
       0.07444139 -0.11675139 0.13810576 -0.16379222
000230 40 06 a3 bc d0 c7 42 be e3 f8 25 be 08 11 19 bd
       -0.019900441 -0.19021535 -0.16208224 -0.037369758
000240 48 83 3f 3d 98 12 46 bd bd 6e ef bd 82 13 a5 3d
       0.04675606 -0.048357576 -0.116910435 0.080603614
000250 cc 83 33 3d a3 2a b9 bd
       0.043826863 -0.090413354

conv1.bias f4 [6]
000000 a6 08 66 bc c4 7f 93 bd 2e 2a fa bd 58 ae 46 3e
       -0.014040148 -0.07202104 -0.122150764 0.19402444
000010 b7 bb c6 3c 7e c8 25 be
       0.024259431 -0.16189763

conv2.weight f4 [16, 6, 5, 5]
000000 87 02 c2 3d 47 fc d1 3b c2 86 08 3e a8 d8 9f 3c
       0.09473138 0.0064082476 0.13332656 0.01951249
000010 9b 6e d0 bc 56 bb ea 3d 60 00 9a 3d 08 b3 2a bd
       -0.025443366 0.11461513 0.07519603 -0.041674644
000020 e6 6b 44 bd ad 5a 23 bd da 58 8c 3d fb 5b 6d bc
       -0.047954462 -0.039881397 0.068528846 -0.014487262
000030 6a dd 93 bd 92 a2 b2 bc 7a b9 5f bd eb dc a8 bc
       -0.07219966 -0.021806035 -0.054620244 -0.020613154
000040 4a 9a 76 3d 18 83 3f bb c5 e2 39 3b 65 10 b1 bc
       0.060205735 -0.0029222425 0.0028363925 -0.021614263
000050 0a 1b 3e 3d cf 99 1a 3d 85 fb 24 bd 32 92 cb bb
       0.046412505 0.03774434 -0.04027893 -0.006212496
000060 c0 72 0c 3c 6e 25 2d bd 9b d5 d0 3c f4 57 d1 3d
       0.00857228 -0.042272024 0.02549248 0.10221854
000070 43 73 66 3c f4 b3 98 bd 92 b7 2b 3d f0 e4 83 3d
       0.0140655665 -0.07456198 0.041923113 0.06440151
000080 cd ac 49 3c ab bb 41 bc 74 3a 4e 3d 6e e0 aa 3a
       0.012309265 -0.011824529 0.050348714 0.0013036856
000090 69 86 a7 3d 75 79 77 bd 6c ea 8d 3d 16 16 8f bc
       0.081799336 -0.060418565 0.06929478 -0.017466586
0000a0 d6 7d 8a bb 82 f4 91 3c df 64 d3 bc d0 b1 36 3d
       -0.0042264266 0.017816786 -0.025804935 0.04460317
0000b0 72 b6 66 3d 60 99 fa bc 0d 38 4d ba 85 05 5a bd
       0.056326337 -0.030590713 -0.00078284816 -0.05322792
0000c0 ab 51 74 bd 80 d2 a4 3d 4d 9f 9b 3d c0 ec d8 3d
       -0.059648197 0.08047962 0.075987436 0.105920315
0000d0 2c 73 95 3d 7f 8b d1 bc 08 a2 d2 3c dd 79 d5 3c
       0.07297358 -0.025579212 0.025712028 0.026059086
0000e0 1c 48 14 bd c0 5d 8b 3d 6f ef 1d bd a5 4d 8b bc
       -0.03620158 0.06804991 -0.03855842 -0.017004797
0000f0 04 6f 1c bd 29 e3 38 3c 66 2b ff 3c ff 0c 96 3c
       -0.03819181 0.011284628 0.031148624 0.018316744
000100 93 d8 67 3d 3c 4b 83 bd 5b fe 27 bd c3 bf bf 3d
       0.056603026 -0.06410834 -0.041014057 0.093627475
000110 35 04 5f 3d 6b 0c a4 3c 7b 3b a6 3d 71 0d 91 bd
       0.05444737 0.020025453 0.08116814 -0.07082642
000120 ce 7c 86 3d 9b 44 62 3c 4f c3 81 bd 93 34 b3 3d
       0.06566773 0.013810302 -0.0633608 0.08750262
000130 4d ff f9 3d 01 6d 04 3e a3 fd 04 3e 78 36 23 bd
       0.12206898 0.12932207 0.1298738 -0.039846867
000140 93 ec 9e 3d 7e 5e 44 bd 3e 15 91 3d e8 ed 87 3c
       0.07759967 -0.047941677 0.0708413 0.016592935
000150 1b 1e 17 3d b3 52 e0 3d 6a 79 0d bb 77 e2 9c bc
       0.036893945 0.109532736 -0.002158726 -0.019150956
000160 16 61 a8 3c c1 cd 80 bd ab 6e 11 bd 71 8f df 3c
       0.020554107 -0.062892444 -0.03550593 0.027290078
000170 7f a1 46 3c 29 ca 0c 3d 4c d7 df 3b ac 01 60 bc
       0.012123465 0.034372482 0.0068310853 -0.013672274
000180 5b a6 be bb 68 a3 74 bd 1e d6 93 bd da fa bd 3d
       -0.005818171 -0.05972615 -0.07218574 0.09276362
000190 e2 b2 f6 bb b5 17 ee 3c ba cb 10 3d 5d 1d ed 3c
       -0.0075286487 0.029064039 0.03535054 0.028944666
0001a0 60 d5 f0 3c be eb ad 3c 3d 20 ba 3c 08 19 93 bd
       0.02939862 0.021230575 0.02272045 -0.07182509
0001b0 17 45 e9 3c 70 72 91 bd 82 d1 6f bd 83 2c fb 3c
       0.028475327 -0.07101905 -0.05854941 0.030660873
0001c0 f2 03 1d bd a7 af 63 3d 29 b9 13 bd a4 55 4a bd
       -0.03833384 0.055587437 -0.036065254 -0.04939808
0001d0 76 3e 5d bd 7c 13 5d bd 34 8a 91 3d 18 c2 d8 3c
       -0.054014646 -0.05397366 0.07106438 0.026459739
0001e0 9e d7 88 bd 03 44 a1 3d 72 8c 56 bd 3d 96 3c 3b
       -0.06681751 0.078743 -0.052380033 0.0028776072
0001f0 1e df 68 3d 68 08 89 bd 8e d9 28 bd bf 93 43 bd
       0.056853406 -0.066910565 -0.0412231 -0.047748324
000200 08 98 65 bc bc 4e 9e 3c f8 8d f8 bc c8 40 85 bd
       -0.014013298 0.019324653 -0.030341133 -0.06506497
000210 a0 69 60 bb ad a9 88 bd f8 1c 07 3c e9 90 70 bd
       -0.0034242645 -0.06672988 0.008246653 -0.058731947
000220 30 a2 29 bd 0e cb fc bc e0 c1 8a 3b 20 ff 57 3b
       -0.04141444 -0.030858543 0.0042345375 0.0032958463
000230 6c 51 87 bc b6 74 96 bd 90 4e 62 bc 30 ae 11 bd
       -0.016518317 -0.073464796 -0.013812676 -0.03556651
000240 fc 92 94 3c 0e b8 6e bd c0 e5 f1 3a d3 2e 65 bd
       0.018136494 -0.058280997 0.0018455312 -0.05595286
000250 08 67 1e 3c 60 21 1d bb 63 e8 b5 bc 74 e1 0a 3d
       0.009668119 -0.0023976192 -0.022205537 0.033906415
000260 45 58 ae bc 36 88 98 3d 85 58 11 3d 09 49 a8 3d
       -0.021282325 0.07447855 0.03548481 0.08217055
000270 9d 93 bf 3d 2d 95 8c 3d bb 7f 4b 3d d1 dc 67 bd
       0.09354327 0.068643905 0.04968236 -0.05660707
000280 41 57 b7 3d 65 7c da 3c 61 ce aa 3d ab 60 3d 3d
       0.08952189 0.026670644 0.08340145 0.046234768
000290 4a 0b ba bc 0e 22 84 bc f7 bf ef 3d 67 7f 89 3c
       -0.022710461 -0.01612952 0.11706536 0.016784383
0002a0 1c 9c c4 bb c8 53 35 bd 6e 49 b8 3d 7a e5 c6 3d
       -0.006000055 -0.044269353 0.089983806 0.09711738
0002b0 84 eb 11 bd bd 94 30 bd e5 33 96 3d ec e2 49 3c
       -0.035624996 -0.043110598 0.07334117 0.012322169
0002c0 1f a7 83 bd 65 bb 43 3d 88 18 2b bd 37 4b 4b 3d
       -0.0642836 0.047786135 -0.04177144 0.049632277
0002d0 62 3c 58 3c 33 44 c3 bb bf b9 44 3d f5 05 78 bd
       0.01319799 -0.0059590577 0.048028704 -0.060552556
0002e0 ea a4 6c 3c 22 1d a5 bc c2 02 ce 3c 25 77 73 bc
       0.014443615 -0.020155493 0.0251478 -0.014859949
0002f0 99 c6 99 3c 2e 6a 88 3b 30 7e 4a bd 26 54 c6 3c
       0.018771457 0.004163048 -0.049436748 0.024210047
000300 77 59 49 bd 3a 51 e4 bb cf 4b 60 bb fe eb c7 bb
       -0.049157586 -0.006967691 -0.0034224873 -0.0061011305
000310 df 4c 49 3d df 23 e3 bc 0b 06 14 bd 2c 4c a5 3c
       0.049145576 -0.027727066 -0.036138576 0.020177923
000320 5b 8b 94 3d 36 22 8d 3d c8 3f 14 bc 12 c1 35 3d
       0.072531424 0.06891291 -0.00904841 0.04437358
000330 16 b1 9b bd 4b fe 24 bc 26 bb 92 bd f8 e2 7e 3d
       -0.07602136 -0.010070394 -0.07164602 0.062228173
000340 e7 c7 10 3c 55 8d 85 3c 6d 8a 45 bd df c1 8b bd
       0.008836723 0.016302744 -0.048227716 -0.06824087
000350 a1 b8 05 bd bc 09 0a 3d ec 1d 62 3d a4 91 98 bd
       -0.03264678 0.03370069 0.055204317 -0.07449654
000360 23 71 c4 3c eb ad a6 bd c2 c2 72 bd fd ff 44 bd
       0.023979729 -0.08138641 -0.059267767 -0.048095692
000370 b2 27 9f bb 39 a7 9f 3d 84 40 d2 bd 74 e5 07 bb
       -0.004857027 0.07795567 -0.10266212 -0.002073613
000380 96 f3 c4 3c 1c 3f 5d 3d 0e aa a2 bc 45 d2 b8 3d
       0.024041932 0.054015264 -0.019856479 0.09024481
000390 8e 53 3c bc 6c b7 5d 39 5e 4e e9 3d 54 0f 10 bc
       -0.01149453 0.00021144532 0.113919005 -0.008792717
0003a0 d0 5b 6b 3c 0e b0 21 3d 74 dc 1d 3d 0d 95 cb 3d
       0.0143651515 0.03947454 0.03854032 0.099405386
0003b0 73 fc b8 3c 61 76 53 bc ad b1 e7 bc d3 7a 0d bd
       0.022581315 -0.012906642 -0.028282965 -0.034540962
0003c0 c9 93 63 bc 47 8b b0 3c 0d 6b 26 3d 5a 62 1a bc
       -0.013890215 0.021550788 0.040629435 -0.009422863
0003d0 11 a9 24 bc 04 c0 f0 3d ff ed a9 3d 0b 93 c5 3d
       -0.010050074 0.11755374 0.08297347 0.09647187
0003e0 be 20 2b 3d 4a cb 88 3d 28 aa 9b 3b 99 2c cb bb
       0.041779272 0.06679399 0.004750509 -0.006200385
0003f0 6d d9 95 bd 06 18 e5 3c d0 5b e3 bc d6 e4 0a 3d
       -0.07316861 0.027965557 -0.02775374 0.03390964

conv2.bias f4 [16]
000000 8e 45 9e bb 9c 87 86 3d 5c c9 97 bb 3a 59 49 3d
       -0.004830069 0.06568834 -0.004632158 0.04915736
000010 4d e1 6f 3d f4 f2 53 bd ab da 25 3c 12 53 6b bd
       0.058564473 -0.05174537 0.010122935 -0.05745227
000020 8e 6b 6e 3d 7b 92 3f 3d 73 9b 52 bd 4f c4 9c bc
       0.05820804 0.046770554 -0.05141778 -0.019136576
000030 87 6e 16 3d 81 04 72 bd df 2f 9f 3d a1 6f 48 3c
       0.0367265 -0.059086327 0.077728026 0.012233646

fc1.weight f4 [120, 256]
000000 a5 57 ba 3b 5e 94 5a 3d e0 df e4 3c 6b 71 81 bd
       0.0056867176 0.05336415 0.027938783 -0.06320461
000010 c4 b8 14 3d 1d 52 18 ba 1a f1 6a bd a3 c1 85 bd
       0.03630902 -0.00058105757 -0.05735884 -0.06531074
000020 13 eb 22 bb b5 b9 76 3b 03 be ab 3b 57 76 a2 3b
       -0.0024859353 0.003764731 0.005241157 0.004957955
000030 00 f1 94 bc 94 f7 3f 3d 85 f9 c7 3c db af 69 bd
       -0.018181324 0.04686697 0.024410972 -0.057052474
000040 f1 07 69 bc e5 68 be 3b af ae ed 3c 12 dd 6b bd
       -0.014223085 0.0058108442 0.02901396 -0.057583876
000050 6b 32 d0 3c 6d 2b 35 3d 05 e5 c1 3b 96 e8 be 3b
       0.025414666 0.044230867 0.005917194 0.0058260662
000060 df e4 9e bc f4 72 e5 3c 50 af 42 3d 2e c3 5a bc
       -0.019396244 0.028008915 0.047530472 -0.0133521985
000070 d0 e0 5a bd 3f 8a 19 3d 29 13 f0 3c 1c 76 47 bd
       -0.053437054 0.037485357 0.029306011 -0.048696622
000080 60 e3 3b bb ae 93 62 3d c3 2b 48 3d 99 be 5e bd
       -0.0028669462 0.05531662 0.04886986 -0.054380987
000090 35 61 0f bd ae ba 85 bd 27 66 75 3d df 28 2c bd
       -0.035004813 -0.06529747 0.059911873 -0.042031165
0000a0 4a 03 54 bd c6 89 f8 bc 80 40 79 bc f0 45 16 bd
       -0.05176095 -0.030339133 -0.015213132 -0.03668779
0000b0 32 00 a6 bb 5d e9 22 3d 62 98 1b bc f2 63 40 3d
       -0.0050659413 0.039773334 -0.00949678 0.046970315
0000c0 a5 a7 34 bd 90 75 d8 3b b1 12 46 3d bd e4 da bb
       -0.04410519 0.0066058114 0.04835767 -0.0066800998
0000d0 90 55 ba 3c d8 46 b0 bc 34 21 5e 3d 28 89 1f 3d
       0.022745878 -0.021518156 0.054230884 0.03894916
0000e0 1e f9 75 bd d2 11 73 3d aa 56 39 3c df 2a 46 3c
       -0.06005203 0.059343167 0.011312166 0.012095182
0000f0 0e 25 4f bd 5c d0 f5 bc 00 55 e6 3a 7c 34 a2 bc
       -0.050572447 -0.03000658 0.0017572939 -0.019800417
000100 36 93 5f 3d 7e 13 fb bc 4b e0 10 bc fa be bc 3c
       0.05458375 -0.030648943 -0.008842538 0.023040283
000110 f6 bf 69 bd 43 dd 9d bb 31 8e 6c bd 69 10 0a bd
       -0.057067834 -0.004817636 -0.05775279 -0.033707056
000120 43 8f 00 3d ed 8f 10 bc a0 92 38 bb bc ae b3 3c
       0.031386625 -0.008823377 -0.0028163567 0.021933906
000130 a1 14 0b bd 4a 8c 30 bd f6 96 c6 bb 06 d1 3c 3d
       -0.03395522 -0.04310254 -0.0060604764 0.046097778
000140 6d d9 11 3d 16 ea a7 39 2f fc 98 3c 14 7e f6 3b
       0.035607744 0.0003202713 0.018674938 0.007522354
000150 56 7b e6 bc 31 d9 5a bd 6d db dc bc 41 bf 3e bd
       -0.028134983 -0.053429786 -0.0269601 -0.046569113
000160 c0 76 68 bc 41 13 a4 bb 6b 00 eb 3c 72 24 4e bb
       -0.014188468 -0.005007178 0.028686723 -0.0031454829
000170 97 a7 22 bc 6c e4 03 bd 0d ee 89 bc be 83 9c 3c
       -0.009927652 -0.032200262 -0.016837144 0.019105788
000180 da 96 26 bc 2d fd 28 3c b7 e5 a9 bc a2 14 cf 3c
       -0.010167802 0.010314268 -0.02073942 0.025278393
000190 26 ed 45 3d f8 2c 50 bb c8 68 4a bd 01 06 12 3d
       0.048321865 -0.0031765085 -0.049416333 0.035650257
0001a0 90 f1 9b 3c a4 39 34 bd 82 1d 87 bd 89 0b 2a 3c
       0.019036084 -0.044000283 -0.06597425 0.010378727
0001b0 12 3c 94 3b 13 92 52 bd 52 d2 36 bd 75 b6 33 bd
       0.0045237625 -0.05140884 -0.04463417 -0.043875176
0001c0 2b 63 03 3d 10 5f 8d bc ac de 69 bd de 93 57 3c
       0.032076996 -0.017257243 -0.057097122 0.013157813
0001d0 ad 48 e0 3c 00 0a cb bc 51 d4 bd 3c 83 c4 82 3a
       0.027378405 -0.024785042 0.02317253 0.0009976778
0001e0 b6 42 3b bd 00 54 1b 3d 62 c9 3f 3d 3a f9 e2 bb
       -0.045717917 0.037921906 0.046822913 -0.006926683
0001f0 f1 a8 70 3d 30 de 26 3c fe 5e 78 bd 76 49 53 bd
       0.058754865 0.01018481 -0.060637467 -0.05158373
000200 08 15 3a 3d 6f 0d 4b 3c 57 63 3f 3d ef c6 12 3d
       0.045430213 0.01239334 0.046725597 0.03583425
000210 e7 d2 3c 3d 04 be ef bc 13 1b 27 3d 41 28 a9 bc
       0.04609957 -0.029265411 0.040797304 -0.020649077
000220 ec 6a d2 3c dd bd 04 bd 96 f1 35 3d 73 64 2c bc
       0.02568575 -0.03240763 0.044419847 -0.010521996
000230 97 94 28 bc 67 a0 a2 3c 55 5e 41 bc f3 13 16 bb
       -0.010289333 0.019851876 -0.011802276 -0.0022900074
000240 ec a4 a0 3c d1 d9 69 bd 2b 0a 28 bd 2b 79 88 bd
       0.01960989 -0.05709249 -0.041025322 -0.06663736
000250 fe 51 29 3d dc 05 4d bd 0c d2 a7 bc 9d c8 13 3d
       0.04133796 -0.050054416 -0.0204859 0.03607999
000260 d6 34 94 bd fe 05 f5 bb b5 ed 97 3c 4a 35 72 bd
       -0.0723664 -0.007477521 0.018545965 -0.05913285
000270 d0 76 2f bd dd 90 b5 3c 0b f3 20 3d 38 98 54 bd
       -0.042837918 0.022163803 0.039294284 -0.05190298
000280 99 9d e0 bc 85 80 04 bc 0b 0a 3b bc a8 50 53 3d
       -0.027418898 -0.008087282 -0.011415969 0.05159059
000290 08 a8 d8 3c ff ea 04 3d f9 61 0b bc bc f7 99 ba
       0.026447311 0.032450672 -0.008507245 -0.0011746804
0002a0 fd c2 60 bc 35 8d f3 3b 80 a6 01 bd e9 79 14 bd
       -0.013718364 0.0074326047 -0.031652927 -0.036249075
0002b0 b8 84 40 3d 61 d1 db bc dd 2c 3d 3d 65 f8 2c bc
       0.04700157 -0.026833238 0.046185363 -0.010557269
0002c0 26 b5 e4 3c 8b b4 a5 bc bc 7e 42 3d 80 a6 45 3d
       0.02791841 -0.020227691 0.047484145 0.04825449
0002d0 de b8 a4 3c 79 ce 4d bd 2c af 00 3d fc 17 7d 3a
       0.020107683 -0.050245736 0.031417057 0.0009654758
0002e0 74 14 3d 3d fc bf 93 3c 69 e9 57 3d 06 b3 b5 bc
       0.046162084 0.018035881 0.05271283 -0.022180092
0002f0 ca 26 5f 3d 02 34 8a bd 17 62 2a 3d a9 42 cb 3c
       0.05448035 -0.06748201 0.041597452 0.02481206
000300 bd e7 d7 bc fe 0c e4 3b 08 e4 4a 3d 2a d0 e7 bc
       -0.026355619 0.0069595566 0.049533874 -0.028297503
000310 17 60 8d bd af 8b 32 3d f6 fe 03 bd 93 33 e0 bc
       -0.06903093 0.043590244 -0.03222557 -0.027368343
000320 06 31 57 bd 75 ad 74 bb 5b b1 bb bc 8a e2 78 bd
       -0.052536987 -0.0037334834 -0.022911718 -0.06076292
000330 3a 5a 55 bd 36 29 3b bd 19 4e 0e 3c a4 c3 bf bc
       -0.052088 -0.0456936 0.008685612 -0.023408718
000340 8e 52 ee 3b 49 1d c0 bc 37 09 39 3d 69 d0 34 bd
       0.007273025 -0.023451464 0.045174804 -0.044144068
000350 14 50 18 bd 13 89 24 bd ac 2d 2f bd 93 6f 11 3d
       -0.037185743 -0.040169787 -0.042768165 0.035506796
000360 f4 a6 a7 3c 12 3b 31 3d 9c cf 4a 3d be f8 6d bb
       0.020465352 0.043269224 0.049514398 -0.0036311592
000370 48 87 5b bd b3 4d 90 bd 5c 21 32 bd 9f ed 48 3d
       -0.05359581 -0.0704607 -0.043488845 0.049054738
000380 d7 87 30 bd 4b 6b 3c bd 67 ca 15 bd 00 f1 24 3d
       -0.043098297 -0.04600076 -0.03656998 0.040268898
000390 67 85 4e 3c 9d 56 93 bc 25 94 8d bd 9b cb 6b 3c
       0.012605048 -0.017985636 -0.06913022 0.014391805
0003a0 6f 06 37 3d c4 bf ed 3c 34 dd 8d bd 04 d2 82 bc
       0.04468387 0.029022105 -0.06926957 -0.015969284
0003b0 29 97 66 bd 95 7a 84 bd af d7 c4 ba 15 3e 17 3d
       -0.0562965 -0.06468693 -0.0015017892 0.03692444
0003c0 f6 e7 36 bd 3a 14 44 3d d8 7e 5e bd 0d 79 04 bd
       -0.04465481 0.047870852 -0.054320186 -0.032342006
0003d0 5d 55 1c 3d 25 be ec 38 e2 e7 f5 bb d8 84 37 3d
       0.038167346 0.00011288774 -0.007504449 0.044804424
0003e0 4e c8 40 bd c9 9e 76 bd 2c a7 75 bd 84 3e 71 bd
       -0.047066025 -0.060210023 -0.05997388 -0.05889751
0003f0 ba 48 87 bd 70 f4 9d bc 46 91 c9 3c 6f 16 0d bd
       -0.06605668 -0.019281596 0.024605405 -0.034445222

fc1.bias f4 [120]
000000 50 bb 47 3d 59 3d b9 3c ba 0e 36 bd 0a 35 38 bd
       0.04876262 0.02261226 -0.044447638 -0.044972457
000010 25 f5 b0 3b e9 f2 40 bd 81 be 24 3d a8 9c e8 bc
       0.0054003173 -0.047106657 0.04022074 -0.028395012
000020 44 3c 43 3d 94 22 84 3d 44 ee 28 bd a6 7a 02 3d
       0.047664896 0.06451908 -0.041242853 0.031855248
000030 fc 9c 81 3c cc 78 b9 bb a2 b8 02 3b d0 f6 36 bd
       0.015821926 -0.005660152 0.0019946476 -0.044668972
000040 20 57 b4 bc d0 a6 f1 3c 74 0d 46 3d 7c da 7f bc
       -0.0220142 0.029498488 0.048352674 -0.015616056
000050 64 b4 04 3d 3d 6e 40 3d 72 61 f9 bc d1 cc 2d bb
       0.032398596 0.04698013 -0.030441973 -0.0026519785
000060 17 bd d3 bb 89 be 15 3b 01 8a 73 bd b8 da 5d bd
       -0.0064617503 0.0022849164 -0.059457783 -0.054163665
000070 e4 92 e9 bc ec 8e 66 bb 70 25 e6 bb 06 df 02 3d
       -0.028512426 -0.0035180403 -0.007023506 0.031950973
000080 39 30 7a bd f0 23 88 3b c4 3b cc 3c d6 95 22 3d
       -0.061081145 0.0041546747 0.024930842 0.039693676
000090 50 ad 49 3d 8e 04 c6 3c 3b cd 29 3d d1 be 4f bd
       0.04923755 0.024172094 0.04145549 -0.050719086
0000a0 da bb a5 bb 4a 50 8f 3c fa a0 0e bc c1 05 34 bd
       -0.005057794 0.01749434 -0.008705372 -0.0439508
0000b0 ea 6f b9 bc f7 78 4a 3d 55 ae 0f bc 14 07 50 bc
       -0.022636373 0.049431767 -0.008769591 -0.012697
0000c0 70 bc 0f 3c 3a d5 48 bc c1 35 e7 3c d5 8b 36 3d
       0.008772954 -0.012257868 0.028223874 0.044566948
0000d0 76 c3 34 3d c9 c1 2e 3c 86 4d 39 3c d7 12 26 bd
       0.04413172 0.010666319 0.011309987 -0.04054531
0000e0 5c 58 0d bd 52 15 56 bd 59 60 8c 3d 86 73 d2 3c
       -0.034508094 -0.052266426 0.06854314 0.025689851
0000f0 81 58 48 bc b9 d3 8e bb 29 c8 26 3c e5 a4 d0 3a
       -0.012228132 -0.0043587354 0.010179558 0.0015918283
000100 29 7b 5e bd 2a 7c 38 bd 0f 01 06 3d da c9 dc bc
       -0.054316673 -0.045040287 0.032715853 -0.02695172
000110 58 46 26 bd a9 72 0a bc 1e 5d 45 3d fc 4b 4f 3d
       -0.04059443 -0.008450189 0.048184507 0.050609574
000120 bb f2 47 3d 94 76 d4 bc ee 71 96 bc ee 55 50 bd
       0.04881547 -0.025935449 -0.018364873 -0.0508632
000130 70 7e 6c 3c 84 0f af bb aa 14 5e 3d 32 a0 74 bd
       0.014434442 -0.005342426 0.054218926 -0.059723087
000140 50 9b 73 3d 8e e6 c3 3c 00 43 b3 bb 47 d0 0f bc
       0.05947429 0.023913648 -0.0054706335 -0.0087776845
000150 4c 30 fc 3c 92 8a cc bc 12 0f 81 3d 00 0b 88 ba
       0.030784748 -0.02496842 0.063017026 -0.0010379255
000160 d6 7b 7d bd 82 8b c3 bc 78 95 f2 bc 50 a6 3b 3c
       -0.061885677 -0.023870233 -0.029612288 0.011453226
000170 f2 01 15 3d 5f 2a 18 3d e6 68 85 3d 3f ed 6c bd
       0.03637881 0.037149783 0.065141484 -0.057843443
000180 4d 2e ab 3c 00 63 a2 3a 56 48 30 3d 74 5f 36 3d
       0.020896101 0.0012389123 0.043037735 0.044524625
000190 de 15 83 bd a3 ef 71 3d 8a 99 99 3c 73 7c 83 3c
       -0.06400655 0.059066426 0.018749971 0.016050553
0001a0 dd f8 21 3d e6 72 36 3d 93 01 72 3d 23 bc 36 3d
       0.039543975 0.04454317 0.059083533 0.044613015
0001b0 ca 30 1c bd 9c bf 8a bd e2 fb 41 3d c6 bf 2a 3d
       -0.038132466 -0.06774828 0.047359355 0.041686796
0001c0 7f ac e4 bc ee 23 ac bb 78 76 fa bb f7 38 3b 3d
       -0.027914284 -0.0052533066 -0.007643517 0.045708623
0001d0 5e e6 2b bd 92 e6 bc bb 3c 9c 83 bc 33 7e f9 bb
       -0.041967742 -0.005764791 -0.01606571 -0.007613921

fc2.weight f4 [84, 120]
000000 5c 11 36 3d 67 c5 77 3d ba 20 99 3d cc 07 d3 3c
       0.04445015 0.060490992 0.07476945 0.025760554
000010 6e 12 aa bd 26 64 86 bd 74 22 a8 3c de 55 8b 3d
       -0.083042964 -0.065620705 0.020524241 0.06803487
000020 c1 6b 9e 3d e6 06 96 bd f0 06 bc bb 38 77 01 3d
       0.07735396 -0.073255345 -0.0057381317 0.031607836
000030 28 4c 09 bd d5 d1 36 bd e8 e3 a3 bd 4d 2e 1a bd
       -0.033519894 -0.044633705 -0.08002454 -0.037641812
000040 98 ea 84 bc fe e4 73 3c c4 47 d0 3c a1 e8 97 bd
       -0.016225144 0.014886139 0.025424846 -0.07417417
000050 04 3d ba bd fc a4 91 bd c2 98 42 bd fc c6 48 bc
       -0.09093669 -0.071115464 -0.047508962 -0.012254473
000060 f3 16 a6 bd 80 40 1d bd 68 69 5c 3c a8 d3 6e bd
       -0.08109846 -0.03839159 0.013452865 -0.05830732
000070 10 06 0d 3d 1a 33 8c 3d 06 d6 b2 3d 77 89 88 bc
       0.03442961 0.06845684 0.08732228 -0.01666711
000080 20 52 88 bb b0 d2 69 3d b0 9f 19 3d 0b 80 64 3d
       -0.0041601807 0.057085693 0.037505805 0.055786174
000090 dc a2 45 3d 20 5e 57 3b 32 25 0f 3d e1 31 30 bd
       0.048251018 0.00328625 0.03494758 -0.04301632
0000a0 ac 4a 88 3b 5d 45 a4 bd e0 28 0e bb b7 10 5a bd
       0.004159292 -0.080210425 -0.0021691844 -0.053238597
0000b0 20 be 59 3d e0 2b 06 bd 95 66 f7 bb 40 d0 04 bc
       0.053159833 -0.032756686 -0.0075500705 -0.008106291
0000c0 9c d3 70 3d 6a 35 4e bd 95 93 9a 3d 0c e7 65 3d
       0.058795556 -0.05034391 0.0754768 0.056128547
0000d0 68 ce 38 3c 31 90 fb bc 89 df a2 3d 67 15 a4 bd
       0.01127968 -0.030708404 0.07952792 -0.08011895
0000e0 00 26 2c 3b a2 29 b0 bd b2 7a b1 3d be 8f 03 bd
       0.0026267767 -0.08601691 0.086659804 -0.032119505
0000f0 20 ad 23 3d f0 e6 24 3c 13 83 fb bc 28 90 a2 3d
       0.039960027 0.010064825 -0.03070215 0.07937652
000100 f8 79 aa 3d 20 16 9d bc 8b 0b 8f bd ff 53 92 3d
       0.08324045 -0.01917559 -0.069846235 0.07144927
000110 90 58 64 3c 58 62 90 3c d0 6c 82 bd 97 c3 9f 3d
       0.013937131 0.017625019 -0.063684106 0.07800978
000120 84 c0 c3 3b cc 9a 4b 3d e0 9a 76 bc d8 d1 54 3d
       0.0059738774 0.049708173 -0.0150515735 0.051957935
000130 cb 43 14 bd 06 02 7f bd e3 b8 69 3d 90 80 d0 3c
       -0.036197465 -0.06225779 0.057061087 0.025451928
000140 73 09 9f bc cc a0 8a bd 8c dd 50 bd 25 6f b2 3d
       -0.019413685 -0.06768951 -0.050992534 0.087126054
000150 92 75 12 bd 80 55 98 3d d0 cb 8d bc 34 b3 43 bd
       -0.035756655 0.07438183 -0.0173091 -0.047778323
000160 46 a1 97 bd 6b f2 57 3d 1c 97 40 bd e4 a5 44 3d
       -0.07403807 0.052721422 -0.04701911 0.048009768
000170 9a 30 9a 3d 3d f7 c3 bc 82 99 b5 bd 78 cc b0 3d
       0.07528801 -0.023921603 -0.0886717 0.08632749
000180 ac dd 86 3c ac 09 87 3d db 03 22 bd d1 df 90 3c
       0.016463123 0.06593642 -0.039554458 0.017684849
000190 80 ad d3 bc fd 99 27 bd 70 e1 5d bc 04 e3 87 bc
       -0.025839567 -0.04091834 -0.013542518 -0.016587742
0001a0 de 05 4d bd 0b 3b 95 3d 85 5d ea bb 70 ba dc bb
       -0.050054424 0.07286652 -0.0071522617 -0.0067360923
0001b0 12 e5 99 3d ef 29 65 bd e4 7e 11 bd 5e d9 82 3d
       0.07514395 -0.055948194 -0.035521403 0.06389116
0001c0 3e 5b 9d bd b1 b3 ad 3b c2 de 2b bd 98 a5 62 bc
       -0.07683419 0.005300962 -0.041960485 -0.013833426
0001d0 a0 ae 45 bd 40 2f df 3b d2 22 a3 bd 14 81 a9 3d
       -0.04826224 0.0068110526 -0.07965626 0.08276573
0001e0 d0 38 46 3d 50 e9 82 3b 76 d8 a5 bd eb 0d 08 bd
       0.048394024 0.003995098 -0.08097927 -0.0332164
0001f0 c8 e4 4c bc 0c a4 35 3d 81 b4 96 bd 5e e8 f9 bc
       -0.012505718 0.0443459 -0.07358647 -0.03050631
000200 1b 41 3d bd 68 4b a5 3c 50 31 b8 bc b4 28 8f bc
       -0.046204668 0.020177558 -0.022484452 -0.017475463
000210 eb 73 8b bd a0 ab 04 3c 1e 23 4b bd 1a 17 3d bd
       -0.06809219 0.008097559 -0.049594037 -0.04616461
000220 60 df 9a bc c4 c4 e8 3c b6 5b 8a bd 4c c8 9e 3d
       -0.018905342 0.028414138 -0.06755774 0.07753047
000230 c8 c7 ce 3c 88 03 8b bd e4 46 62 3d c6 29 ae 3d
       0.025241747 -0.06787783 0.055243388 0.085040614
000240 12 04 a7 3d 78 51 25 3c af de 73 bd 08 e8 b7 3d
       0.08155073 0.010090224 -0.05953854 0.08979803
000250 b0 ca 8c 3d 70 a9 cd bc e8 c7 aa 3d 6c 34 28 3d
       0.06874597 -0.025105208 0.0833891 0.04106562
000260 10 90 eb bc 60 16 76 3b 00 d8 67 3a fc e3 57 3d
       -0.028755218 0.0037549958 0.0008844137 0.052707657
000270 52 7d b9 3d 00 11 46 3a 50 a5 d8 3b af ba 5b bd
       0.09057106 0.0007555634 0.0066115037 -0.053644832
000280 cf 2c a3 bd 04 3d 9e 3d 04 c7 15 3d 90 dd 96 3d
       -0.07967531 0.077264816 0.03656675 0.073664784
000290 e8 dc 65 bc ac 06 aa 3d fb c4 75 bd b4 93 8a bd
       -0.014029719 0.08302054 -0.06000231 -0.067664534
0002a0 b0 00 b6 bc 7c ee a2 3c 40 ba 4d 3c f1 d2 a7 bd
       -0.022217125 0.019889109 0.0125566125 -0.08194531
0002b0 70 ca 14 bc f2 1f 9c 3d 0c 73 28 3d b7 9d 4e bd
       -0.009081468 0.076232806 0.041125342 -0.050443377
0002c0 27 2b 83 bd e0 ee 0b 3d 93 ad 1c bd f5 35 67 bd
       -0.06404715 0.034163356 -0.03825147 -0.05644794
0002d0 f0 d2 f1 3c d8 a3 5f 3c 08 75 41 3d 64 99 a1 3d
       0.029519528 0.013649903 0.04723075 0.07890585
0002e0 17 4d b9 bd f3 50 8f bd 6e 72 87 bd c0 bc 1d 3d
       -0.09047907 -0.06997862 -0.066136226 0.038510084
0002f0 8a ec 03 bd 40 b5 98 3d 5c 11 6a 3d de fa 86 bd
       -0.032208003 0.07456446 0.05714546 -0.06590818
000300 50 1a b9 bb 62 16 87 3d 4f 0c 68 bd 2d 8a a1 bd
       -0.0056488886 0.06596066 -0.056652363 -0.07887683
000310 1a d8 a9 3d d6 b9 96 3d d6 7a 87 3d 5a 67 8d 3d
       0.08293171 0.07359664 0.06615226 0.06904478
000320 40 1f ca bb dd d1 2e bd 6f 67 9d bd 4e 90 71 bd
       -0.006168276 -0.04268061 -0.07685744 -0.05897551
000330 c8 be e9 bc 5c 17 d3 3c b0 bd 29 3d 08 d2 3e 3d
       -0.028533354 0.025767975 0.041440666 0.04658702
000340 74 7b a9 bc e0 de 22 3c e4 b0 e8 bc a4 f3 0b bd
       -0.02068875 0.009940833 -0.02840466 -0.0341679
000350 58 ff 12 3d 7e cd 8a bd ae ad ac 3d d8 d6 80 3c
       0.035888046 -0.06777476 0.08431564 0.015727445
000360 06 b7 a0 3d ac 95 01 3d 02 fe 7a bd 90 0a 25 bd
       0.07847409 0.03163688 -0.061277397 -0.040293276
000370 28 0b 2c 3d 38 af 7e 3d 40 7b 53 bb 30 b9 29 3d
       0.042002827 0.06217882 -0.0032269508 0.041436374
000380 90 8d 23 3d b3 57 6b bd 39 ae 69 bd 84 eb 87 3d
       0.039929926 -0.057456683 -0.057050917 0.06636718
000390 74 0b 75 3d 7c 75 84 bd e6 f9 03 bd 28 c2 44 3d
       0.059825376 -0.06467721 -0.032220744 0.048036724
0003a0 f0 18 a4 bd 98 39 79 bc a1 06 5e bd e2 e6 67 bd
       -0.08012569 -0.015211485 -0.05420554 -0.05661667
0003b0 e8 43 88 3c 93 9c a9 bd 96 f5 8b bd 09 0d 12 bd
       0.016633943 -0.08281817 -0.06833951 -0.035656963
0003c0 bf b6 7f 3c 26 4b 8f bd cf 95 83 bd c0 43 84 bc
       0.015607535 -0.06996755 -0.06425058 -0.016145587
0003d0 a0 f0 0c 3b 1d fb 30 3c 09 a3 6a bc c2 b0 ac 3d
       0.0021505728 0.010802058 -0.014321097 0.084321514
0003e0 62 8c 88 bd 28 e4 2f 3d 37 03 c2 bd c2 83 5d 3d
       -0.06667401 0.042942196 -0.094732694 0.054080732
0003f0 38 3e a2 bd 33 af 86 3d 80 6e 3f bc d7 36 4c bc
       -0.079220235 0.06576385 -0.01168406 -0.012464247

fc2.bias f4 [84]
000000 5d 04 71 bd 40 e3 04 bb ef e3 4c bd 17 bd b6 bd
       -0.05884205 -0.0020277053 -0.050022062 -0.08922785
000010 5d 46 51 bd d0 45 af bc 03 1a 90 3d ea 7a 6a 3c
       -0.051092494 -0.021395594 0.07036211 0.014311532
000020 b4 89 1c bc a4 74 8a 3d e1 8e 8e 3d bd 05 15 3d
       -0.009554315 0.06760529 0.06960846 0.036382426
000030 3b 74 0e 3c 77 9d 8e 3c 86 85 1b 3c 8d 07 98 3b
       0.008694704 0.01740907 0.009492284 0.004639572
000040 f0 e1 24 bd ee 9c 1b bd 68 a1 a7 bc 00 00 f7 bb
       -0.040254533 -0.037991457 -0.020462707 -0.007537842
000050 c1 c0 57 bd ed 29 07 bd 78 92 a7 3b a5 f6 36 bc
       -0.05267406 -0.032998968 0.005113896 -0.011167203
000060 f7 51 94 bc 8c 9d d6 3c 1b 8c 37 bd 74 1e a9 3d
       -0.01810549 0.026198171 -0.04481135 0.082577616
000070 b4 6a 77 3c 6e a2 2c 3d 10 7e 46 3d 76 f1 69 3a
       0.015101124 0.042147093 0.048460066 0.0008924225
000080 0e 40 3b 3d 78 4d a3 bc e9 a9 8c 3d cb 7c d8 3c
       0.045715384 -0.0199344 0.06868345 0.026426693
000090 22 f1 2c bd 70 b8 80 bc f4 95 01 bb b3 9d 10 3d
       -0.04222215 -0.015712947 -0.0019773217 0.035306644
0000a0 0a 71 f5 bc f2 e0 a8 bc 25 e0 4a bd 67 3a 51 3d
       -0.029961128 -0.020615075 -0.049530167 0.051081087
0000b0 a1 6d 12 bd 00 cb 53 3b 54 b0 77 3d 69 b0 bc bc
       -0.03574908 0.0032317042 0.060470894 -0.023033338
0000c0 20 47 ec bc 11 77 1f 3d ca 9c 94 3c 04 80 92 bc
       -0.028842509 0.03893191 0.01814117 -0.017883308
0000d0 2b 87 1f 3d a3 b5 aa bd 92 0a ad 3c b2 81 90 bd
       0.038947266 -0.08335426 0.021123204 -0.070559874
0000e0 e6 ed cd 3c 2f 2e 3c bc c5 4c 94 bd 0a 06 a0 bc
       0.025137853 -0.01148562 -0.07241205 -0.01953413
0000f0 68 dd 90 3d f3 0c e5 bc d6 a8 33 3d ea 3f b2 bd
       0.0707348 -0.027960276 0.043862186 -0.08703597
000100 4a d6 e7 bc 56 be 8b 3d 8f a9 60 3d a4 c4 df 3b
       -0.028300423 0.06823413 0.054849204 0.0068288613
000110 38 ad c5 bc b5 66 af 3c 86 08 fc ba d7 7e a6 3c
       -0.024130449 0.02141128 -0.0019228614 0.020324154
000120 90 27 6f 3d 1f a0 a3 3d ba 1c 23 3d d9 06 03 bd
       0.05838734 0.07989525 0.039822318 -0.031988952
000130 7c 4d 2e bd eb a7 d6 bc a4 c1 52 bd dc a2 9b 39
       -0.042554364 -0.026203116 -0.0514542 0.00029685243
000140 18 c0 28 bd b9 8f 6b bc 87 bf 89 bd 25 e9 97 3d
       -0.04119882 -0.014377528 -0.06725984 0.07417516

fc3.weight f4 [1, 84]
000000 1c 08 c0 bd 00 ae e2 bb 64 2d 94 bb 0a 09 2b bd
       -0.09376547 -0.006917715 -0.0045220125 -0.041756667
000010 ce f5 8c bd 82 99 13 bd b3 c7 a3 bd 52 86 83 3d
       -0.06882821 -0.03603507 -0.07997074 0.06422104
000020 d6 d3 fe bd 4d 16 8a bc 82 1a fe bc 82 2f 69 bd
       -0.12442748 -0.016856337 -0.0310185 -0.056930073
000030 78 12 52 3c 36 16 d4 3c f6 77 4c 3b e3 3b 9c 3d
       0.012821786 0.025889497 0.0031199432 0.0762861
000040 19 dd 0c bd 90 77 b6 3d db 42 d4 bd 80 6c 60 ba
       -0.034390543 0.089095235 -0.10364314 -0.00085610896
000050 00 80 3e 37 22 03 ab bd c1 2f f6 bd 93 61 87 bc
       1.1354685e-05 -0.08350207 -0.12020827 -0.01652602
000060 98 e2 bf 3b 8a 5b 61 3d 16 98 06 3e 60 a3 1f bd
       0.0058558695 0.05501894 0.13143954 -0.038974166
000070 61 e1 96 3d cc 54 98 bd 0a 00 5b 3c e4 96 de 3d
       0.07367206 -0.07438049 0.0133667085 0.10868624
000080 2b 1c fe bd b3 40 f6 bc c0 60 ee bd 06 16 ed bd
       -0.12407716 -0.030060148 -0.11639547 -0.11576466
000090 6a 5f 84 3d 0f 40 c9 bd af 37 95 3d d2 60 ca bd
       0.06463511 -0.09826671 0.072860114 -0.09881748
0000a0 80 d9 94 bd 9e 44 43 3d 61 39 f1 3d 8d f9 3f 3d
       -0.07268047 0.04767286 0.11778522 0.04686885
0000b0 c2 cf 0b 3d 49 f9 bc bd 38 81 49 bd c7 d9 fe 3d
       0.03413368 -0.09227235 -0.0491955 0.124438815
0000c0 b5 d1 c1 3d 43 d8 64 3d f5 b2 ba bc e1 c1 de 3d
       0.094638266 0.055870306 -0.022790411 0.10876823
0000d0 e4 3f 3f bd b4 60 8d 3c ac ec 91 bd 4c 73 23 bd
       -0.04669179 0.017258026 -0.0712522 -0.039904878
0000e0 99 bf 85 bd 50 6b 4b 3d 4d b7 8b bc 2a 3f 9f 3d
       -0.06530685 0.049662888 -0.017055178 0.077757195
0000f0 c5 3e e0 bd 8f 58 d0 bd f4 67 87 3c dc 4a ab bc
       -0.10949472 -0.10173141 0.01652906 -0.02090972
000100 d3 f3 6b bb 77 dc e9 3d e7 65 ae 3d f9 a7 dc bb
       -0.0036003485 0.114190035 0.0851553 -0.006733891
000110 7b 3e d8 3d 97 e7 e8 bd 03 2e d0 bd b6 c0 56 bd
       0.10558792 -0.11372297 -0.10165026 -0.052429877
000120 9b 84 99 bc 25 35 d0 bd 1d 5a 6e 3d f2 f9 0d 3d
       -0.018739989 -0.101663865 0.058191407 0.034662195
000130 cd 95 b0 bd b9 5f 94 ba 29 94 68 3d ba c6 87 bd
       -0.08622322 -0.0011320031 0.05678192 -0.06629701
000140 cb f8 e7 3d ec 74 16 3d a5 ec 0a 3d 0d 42 8e bd
       0.1132675 0.0367326 0.033917088 -0.06946192
